NetworkConvert/ptParams/model_rap.pt (torch, 473701 bytes, 108 tensors)

actor.logstd f4 [4]
0	0x3f1e3652	0.61801636
1	0x3f2a8ba6	0.66619337
2	0x3f0f813c	0.5605657
3	0x3f2816df	0.656599

actor.pi_net.fcs.0.weight f4 [64, 17]
0	0x3f98be6d	1.1933113
1	0xbfa276ea	-1.269254
2	0x3d0ac734	0.03388138
3	0x3d90c836	0.07069437
4	0xbf880664	-1.062695
5	0xbdcdab2d	-0.10042415
6	0xbf73a3b9	-0.95171696
7	0xbd9fb8ba	-0.07798906
8	0xbf049b7d	-0.51799756
9	0xbea848c7	-0.32868025
10	0x3e00d8d2	0.1258271
11	0x3e52fbd6	0.2060388
12	0xbd0a67ae	-0.033790283
13	0x3f0cb220	0.549593
14	0xbdea9102	-0.11453439
15	0x3d556a59	0.052103374
16	0xbcf33cb4	-0.029692031
17	0xbef08170	-0.46973753
18	0xbe8adc13	-0.27121028
19	0xbf74ddb5	-0.956508
20	0x3e107b3a	0.14109507
21	0xbfa7a915	-1.3098475
22	0x3e65071d	0.22365995
23	0x3eed3402	0.4632874
24	0xbca84a42	-0.020543221
25	0xbebb2b77	-0.365566
26	0xbe8fada7	-0.28062174
27	0xbe570c52	-0.21000794
28	0x3ce23557	0.027613325
29	0x3e7a77c4	0.2445975
30	0x3e6cd2fd	0.2312736
31	0xbdd7832f	-0.10523068
32	0xbe37201e	-0.17883345
33	0xbdb8def8	-0.09026903
34	0xbeca7477	-0.3954198
35	0xbf14247b	-0.57868165
36	0xbf46549b	-0.7747285
37	0x40108436	2.2580695
38	0xbf10792f	-0.5643491
39	0x3ee9c619	0.4565895
40	0x3df25837	0.11833232
41	0xbe56918f	-0.20953964
42	0xbedb15d9	-0.42790106
43	0xbf49300c	-0.7858894
44	0x3dcc0d05	0.09963421
45	0x3c1e728c	0.009670865
46	0x3d1db6b7	0.03850433
47	0x3d6749a0	0.0564667
48	0x3d883286	0.066502616
49	0x3d485fd3	0.04891951
50	0x3d26a901	0.04068852
51	0x3da52a26	0.0806468
52	0xbe09c552	-0.13454178
53	0x3e0a740b	0.1352083
54	0x3fc33bcb	1.5252622
55	0xbe712b08	-0.23551571
56	0xbfc83a01	-1.5642701
57	0x3f374e66	0.71604
58	0x3e52a266	0.20569763
59	0xbe655d89	-0.22398962
60	0x3e7bde9b	0.24596636
61	0x3e0c7bc7	0.13719092
62	0x3dfd74d3	0.12375798
63	0x3caeb2f3	0.021325564
64	0xbd817b8d	-0.063223936
65	0xbe408b6a	-0.18803182
66	0x3e10bdcb	0.141349
67	0xbeacb2fe	-0.3373031
68	0xbf82cbad	-1.0218407
69	0x3dffd015	0.124908604
70	0xbf0f6c10	-0.56024265
71	0xbfdfadba	-1.7474892
72	0xbe4cbb81	-0.19993402
73	0x3f9e4a54	1.2366433
74	0x3c8bb409	0.01705362
75	0xbf5123f2	-0.81695473
76	0x3d682d1a	0.056683637
77	0xbe8d945e	-0.27652258
78	0xbd2db26e	-0.042406492
79	0xbe3eed32	-0.1864517
80	0x3e48e591	0.19618823
81	0x3d1e5c83	0.038662445
82	0x3e124be1	0.14286758
83	0x3e0cfb8b	0.13767831
84	0x3e5f8b5b	0.21830504
85	0xbf56cd58	-0.8390708
86	0xbf0c57f6	-0.5482172
87	0xbebd86bd	-0.3701686
88	0xbe5bee34	-0.21477586
89	0xc005a4bd	-2.0881798
90	0x3f836b0d	1.0267044
91	0x3ee09b1d	0.43868342
92	0xbe3030d2	-0.17206123
93	0xbe970213	-0.2949377
94	0x3d813757	0.06309383
95	0x3dc03fba	0.09387155
96	0x3c9b0d1d	0.018927151
97	0x3bfb75d1	0.007673957
98	0x3e61683b	0.22012417
99	0xbe3472ef	-0.17621969
100	0xbe401328	-0.18757308
101	0x3d09a983	0.033608925
102	0xbf4a2d53	-0.7897541
103	0x3dbc07e9	0.09181196
104	0xbf10c03a	-0.56543314
105	0xbfb393f4	-1.4029527
106	0xbfbb755f	-1.4645194
107	0x3eb0ca4d	0.34529343
108	0xbfca2958	-1.5793867
109	0xbd45b151	-0.048264805
110	0xbe3f7f6c	-0.18700951
111	0x3e39d896	0.18149027
112	0x3e362c9d	0.17790456
113	0xbdaa9716	-0.083295986
114	0x3ceaf233	0.028679943
115	0x3d8aabd4	0.06771055
116	0x3d24ea89	0.040262733
117	0x3e26c006	0.16284189
118	0x3c679c77	0.014136425
119	0xbf382ba0	-0.71941566
120	0x3e1b3d3c	0.15160078
121	0xbf7566c2	-0.9585992
122	0xbf78e775	-0.97228175
123	0xc005302c	-2.0810652
124	0xbe4a940f	-0.19783042
125	0x3ef9bc96	0.48776692
126	0xbf233b12	-0.6376201
127	0x3d6de9f7	0.058084454
128	0xbe9c16df	-0.304862
129	0x3ca58f19	0.020209836
130	0xbda89430	-0.082313895
131	0x3ca39ddc	0.019972734
132	0xbcfa1bc1	-0.030530812
133	0xbd3a28f8	-0.045449227
134	0x3a4666e8	0.0007568435
135	0xbcb4e66f	-0.022082536
136	0xbc13a483	-0.009011391
137	0x3eaaee35	0.33384863
138	0xbe28287e	-0.16421697
139	0xbf540787	-0.82823986
140	0x3eebe470	0.4607272
141	0x3fa5a6fd	1.2941586
142	0x3eaa0e9d	0.33214274
143	0x3e8b84d0	0.27249765
144	0x3e81479c	0.25249946
145	0xbf65865c	-0.8965814
146	0x3d98a547	0.07453399
147	0x3dde7146	0.10861449
148	0x3e5a2847	0.21304427
149	0xbee2f46d	-0.44327107
150	0x3f0468b7	0.5172228
151	0x3ef28b5d	0.4737195
152	0xbdc87517	-0.09787958
153	0x400d66ea	2.2094064
154	0xbe89e104	-0.26929486
155	0xbeba732b	-0.3641599
156	0xbf70c875	-0.94055873
157	0x3f85e46e	1.0460336
158	0xbf98002f	-1.1875056
159	0x3f196960	0.59926414
160	0x3f62494f	0.8839311
161	0xbf16e930	-0.58949566
162	0xbea1a791	-0.31573156
163	0xbe20fedf	-0.15722226
164	0xbdc2fe1c	-0.09521124
165	0xbe0aa292	-0.13538578
166	0x3e66f0ec	0.22552842
167	0xbd25e15e	-0.04049813
168	0x3da5bbc1	0.08092452
169	0xbd9f0c10	-0.077659726
170	0x3f08c6ad	0.53428155
171	0xbf6d3bd0	-0.9266939
172	0x3f663b4c	0.8993423
173	0x3e9b6e78	0.30357718
174	0x3f17e5c4	0.5933497
175	0xbe0f15a9	-0.13973106
176	0x3e0e2cf0	0.1388433
177	0xbe6ed11c	-0.23321956
178	0xbc3a0709	-0.011354216
179	0x3f51a05a	0.818853
180	0xbd3b558a	-0.045735873
181	0x3deb8f83	0.11501982
182	0xbdaaf3a6	-0.083472535
183	0x3e335b9f	0.1751542
184	0x3ce6f8cc	0.028194807
185	0xbe1cfd9e	-0.15331122
186	0xbdcfdbb4	-0.10149327
187	0xbf9a65d3	-1.2062324
188	0xbe854a46	-0.2603323
189	0x3ed4b6e1	0.41545776
190	0x3ff4d73e	1.9128187
191	0xbec1817d	-0.37794104
192	0x3f868ae9	1.0511142
193	0xbf6cbd41	-0.9247628
194	0x3ec0ffc3	0.3769513
195	0xbdb61068	-0.08889848
196	0xbeb6286a	-0.35577708
197	0xbc18d3a3	-0.009327802
198	0x3d7c1fde	0.06155383
199	0xbdde11f5	-0.10843269
200	0x3e8492de	0.258933
201	0xbd19f6f1	-0.037589017
202	0xbe651034	-0.22369462
203	0x3e2115d7	0.15730987
204	0xbeed09e4	-0.46296608
205	0xbdbc2664	-0.0918701
206	0xbf156062	-0.58350194
207	0xbf94302c	-1.1577201
208	0xbfee5992	-1.8621085
209	0x3cb9beda	0.022674013
210	0x3d474fc1	0.048660044
211	0xbef5c52f	-0.48002002
212	0xbe2a35ca	-0.16622081
213	0x3cc70224	0.024293013
214	0xbd72c6f2	-0.05927176
215	0x3d5d59a2	0.05404056
216	0xbdfecc73	-0.12441339
217	0xbee54deb	-0.4478601
218	0xbd5a6fb7	-0.053329196
219	0xbd977bbf	-0.073966496
220	0x3e8fab38	0.28060317
221	0x3dbb5c1e	0.09148429
222	0xbd171a6c	-0.036890432
223	0x3edc9d81	0.43088916
224	0x3f1cb139	0.6120792
225	0xbf1ea289	-0.6196676
226	0xbfb53e49	-1.4159633
227	0xbec9161e	-0.39274687
228	0x3eecadd6	0.46226376
229	0xbb61ad0c	-0.003443542
230	0x3f1cffc4	0.6132777
231	0xbdabf113	-0.08395591
232	0x3c12bc23	0.008955988
233	0x3de81fa8	0.11334163
234	0xbe7f7365	-0.24946363
235	0xbd5f8b8a	-0.054576434
236	0xbf2a6fb5	-0.665767
237	0x3e631908	0.22177517
238	0x3edda838	0.43292403
239	0xc0146c07	-2.3190935
240	0xbf3a0d8c	-0.7267692
241	0x3f8075b5	1.0035921
242	0x400b4e87	2.176668
243	0xbff1ebd9	-1.89001
244	0xbee11a61	-0.43965438
245	0xbe0ffde3	-0.14061694
246	0xbf48c797	-0.7842955
247	0xbece9f06	-0.403557
248	0x3e27b44d	0.16377373
249	0x3d4639e4	0.048395053
250	0x3c6fd3b1	0.0146378735
251	0x3cedde17	0.029036565
252	0x3d553fce	0.052062802
253	0xbd56352f	-0.052296814
254	0xbd6028d2	-0.05472643
255	0xbf72d6e5	-0.94859153

actor.pi_net.fcs.0.bias f4 [64]
0	0xbed61b6e	-0.41817802
1	0x3f26239c	0.64898086
2	0x3f3f31e6	0.74685514
3	0x3bceea68	0.0063145645
4	0xbf2a2b2b	-0.6647212
5	0xbeae3c65	-0.34030452
6	0xbf6ef73e	-0.9334601
7	0x3ee89260	0.45424175
8	0x3e6b13b0	0.22956729
9	0x3ed60169	0.4179795
10	0xbf456a8c	-0.771157
11	0x3db0050f	0.08594715
12	0x3f54a8de	0.8307017
13	0x3e2f677a	0.17129317
14	0xbe7b5d65	-0.24547346
15	0x3ec70552	0.38871247
16	0x3ed9e5ae	0.42558044
17	0xbed9a5dc	-0.42509353
18	0xbf0babb2	-0.5455886
19	0xbec744a1	-0.38919547
20	0x3d9dc786	0.07704072
21	0x3ed5a799	0.4172943
22	0x3e814629	0.2524884
23	0xbf2f59b1	-0.68496233
24	0x3f0c8cd3	0.5490238
25	0xbc01a65a	-0.007913196
26	0xbe342a47	-0.17594253
27	0xbef72d28	-0.4827664
28	0xbf352ef9	-0.707748
29	0x3e1cba7f	0.15305518
30	0xbe56185b	-0.20907728
31	0x3f179cd5	0.5922368
32	0x3f1c6a79	0.61099964
33	0xbf4bfd25	-0.7968314
34	0x3ec7c7a5	0.39019504
35	0xbdfe508e	-0.12417708
36	0x3e1ac53f	0.15114306
37	0xbe2f835a	-0.1713995
38	0xbe3b58ba	-0.18295565
39	0x3e4f5044	0.20245463
40	0x3eb8054b	0.35941538
41	0xbc8d687b	-0.017261734
42	0xbefbb4ca	-0.4916137
43	0x3eb37d7b	0.35056672
44	0xbdd04e25	-0.10171155
45	0x3f1b9962	0.6078092
46	0xbebcb11c	-0.36853874
47	0xbee7dc49	-0.45285252
48	0xbe79ea44	-0.24405771
49	0x3e69b2bc	0.22822088
50	0x3f5d42e4	0.8643019
51	0xbe77be4a	-0.24193683
52	0xbed50039	-0.41601732
53	0xbdb80f10	-0.08987248
54	0xbed8327e	-0.42226022
55	0xbe513ad9	-0.20432605
56	0x3ea1ad12	0.31577355
57	0x3ee7c49d	0.45267192
58	0xbe318f13	-0.17339735
59	0xbea08c36	-0.31356972
60	0xbf16a833	-0.588504
61	0xbe8e689b	-0.27814183
62	0xbf1ba11f	-0.60792726
63	0x3c1a447a	0.00941574

actor.pi_net.fcs.1.weight f4 [64, 64]
0	0x3eff5317	0.4986808
1	0xbe7e9944	-0.24863154
2	0x3e323dc9	0.17406382
3	0x3dccddc2	0.100032344
4	0x3dc619c4	0.09672883
5	0x3eb4f057	0.35339615
6	0x3e18b069	0.14911045
7	0xbe3ee910	-0.18643594
8	0x3e1f0002	0.15527347
9	0xbdec8fe5	-0.11550883
10	0xbcf78ee3	-0.0302195
11	0x3e3c8120	0.18408632
12	0xbedd11b2	-0.43177563
13	0x3e02ed30	0.12785792
14	0xbcd1a4f8	-0.025591359
15	0x3e04b493	0.12959509
16	0xbe882305	-0.26589218
17	0x3dab360b	0.08359917
18	0x3d946240	0.07245302
19	0xbd6ccd54	-0.057813004
20	0xbe0bc791	-0.13650347
21	0xbe1d09fa	-0.15335837
22	0xbd95ad78	-0.07308477
23	0xbd82d08b	-0.06387433
24	0xbe5a55e1	-0.21321823
25	0x3df0f008	0.11764532
26	0x3dc9e7ca	0.098586634
27	0xbe653ac5	-0.223857
28	0x3c726897	0.014795444
29	0xbe63d7e1	-0.2225032
30	0x3e29d42a	0.1658484
31	0x3cc64195	0.024201194
32	0xbdbb1009	-0.09133918
33	0x3d2385c4	0.03992249
34	0x3c01e639	0.0079284245
35	0x3d529e62	0.051420577
36	0x3e36bc08	0.17845166
37	0x3b15ef57	0.0022878253
38	0xbe1835cb	-0.1486427
39	0xbd340bbe	-0.04395651
40	0x3e60bf75	0.21948035
41	0x3e0fb8e7	0.14035378
42	0xbe5a2365	-0.21302564
43	0x3c82c1e6	0.015961599
44	0xbdbd0c72	-0.092308894
45	0x3dac88dd	0.08424542
46	0x3eab7db5	0.33494344
47	0x3ebb7c00	0.36618042
48	0x3e538d49	0.20659365
49	0x3dfbb809	0.12290961
50	0x3d760509	0.060063396
51	0xbbe1abcd	-0.0068869353
52	0xbd161a61	-0.03664625
53	0x3e62910b	0.22125642
54	0xbd45a29f	-0.04825079
55	0x3d2a6536	0.04160043
56	0x3c6f87c5	0.014619772
57	0x3d19ebc0	0.037578344
58	0xbde7892c	-0.1130546
59	0x3ddaad8b	0.10677632
60	0x3ed2669b	0.41093907
61	0xbde363f2	-0.111030474
62	0x3e9fde1c	0.31224144
63	0x3d9046c5	0.07044748
64	0x3e9e8272	0.30958897
65	0xbe996c8e	-0.29965633
66	0xbea64d68	-0.3248093
67	0x3e1111cf	0.1416695
68	0xbf1fd932	-0.6244079
69	0xbe928c8c	-0.28622854
70	0x3edf5e3d	0.43626586
71	0xbefe76ce	-0.49700016
72	0x3d19a8ca	0.037514485
73	0x3f1a3b15	0.602464
74	0x3da4dc85	0.08049873
75	0xbe9bbbeb	-0.30416808
76	0x3ca55412	0.02018169
77	0x3ea61485	0.3243753
78	0x3ee8a151	0.45435575
79	0xbeb3febf	-0.35155293
80	0x3ef81fc5	0.48461738
81	0x3dff6ddc	0.12472126
82	0xbe3dcb0a	-0.18534485
83	0x3e07fa7b	0.13279144
84	0xbf15a24c	-0.5845077
85	0x3e22934c	0.15876502
86	0xbe5f4836	-0.2180489
87	0x3f28ee7a	0.65988886
88	0x3d731a56	0.059351288
89	0x3ef40a4b	0.47664103
90	0x3c12edab	0.008967797
91	0x3d855090	0.06509507
92	0xbe1f75ca	-0.15572277
93	0x3e27e878	0.16397274
94	0x3e903288	0.28163552
95	0xbd95916f	-0.0730313
96	0xbf2fac03	-0.68621844
97	0xbef6f0a8	-0.4823048
98	0xbe805d57	-0.25071213
99	0xbead5b50	-0.33858728
100	0x3f35e5bb	0.71053666
101	0x3db94502	0.09046365
102	0x3f70424d	0.93851167
103	0xbefe093a	-0.49616414
104	0x3ebafda0	0.36521626
105	0x3dd8c98a	0.105853155
106	0x3ee6aac8	0.4505217
107	0xbbb018dc	-0.005374057
108	0x3c96e495	0.018419543
109	0x3dccdd00	0.1000309
110	0xbdb66dae	-0.089076385
111	0x3ef1ee6c	0.47252214
112	0xbad4a9e4	-0.0016224948
113	0x3e83fb00	0.25777435
114	0x3e1262d4	0.14295512
115	0x3a1322df	0.0005612801
116	0xbf136173	-0.5757057
117	0xbde9f470	-0.11423576
118	0x3eb11902	0.34589392
119	0x3ebf27de	0.37335104
120	0xbe34608e	-0.17614958
121	0x3b286302	0.002569378
122	0x3e1cadd3	0.15300684
123	0x3cb8c204	0.022553451
124	0x3f27b612	0.6551219
125	0xbe6315e5	-0.22176321
126	0xbef4c62e	-0.4780745
127	0xbecfcaba	-0.40584356
128	0xbeab643e	-0.33474916
129	0xbebf587f	-0.37372205
130	0xbecea1eb	-0.4035791
131	0x3ca556ba	0.020182956
132	0xbd772ad3	-0.060343575
133	0xbdb76d94	-0.08956447
134	0xbd70176d	-0.05861609
135	0x3e62947c	0.22126955
136	0x3dcd54d0	0.10025942
137	0x3ce07d36	0.027403455
138	0x3dc0b61c	0.094097346
139	0xbe383bdf	-0.17991589
140	0x3e0344f9	0.1281928
141	0x3c62417d	0.013809559
142	0x3f0048c5	0.5011104
143	0xbcbfb6c2	-0.023402575
144	0x3ce1a577	0.02754472
145	0xbe32c3e9	-0.17457546
146	0xbe7e3c89	-0.2482778
147	0xbc8f38c6	-0.017483126
148	0xbdf07013	-0.117401265
149	0x3e921e30	0.28538656
150	0xbe23ab83	-0.15983395
151	0x3e99e2bf	0.30055806
152	0xbe1f2657	-0.15541969
153	0xbe673820	-0.22580004
154	0x3dc4cd45	0.096094646
155	0x3e61e9a1	0.22061779
156	0x3e59a073	0.21252613
157	0xbdc9e4f1	-0.0985812
158	0x3e93cebb	0.2886866
159	0x3d4272a5	0.047472615
160	0x3e0baa88	0.13639271
161	0x3ed45d60	0.4147749
162	0xbae68283	-0.0017586503
163	0x3e809432	0.25113064
164	0x3deeaeec	0.116544574
165	0xbe859583	-0.2609063
166	0xbe94947f	-0.29019544
167	0x3ecad3e0	0.39614773
168	0xbb518b51	-0.0031973908
169	0xbe6a739b	-0.22895662
170	0x3e6b108d	0.22955532
171	0xbe5ae0da	-0.21374837
172	0x3e4f1694	0.20223457
173	0x3dfc38e1	0.12315536
174	0x3ee45061	0.44592574
175	0xbf4a3c48	-0.7899823
176	0x3cf02c8f	0.029318122
177	0xbd65df25	-0.05612101
178	0xbe8b49a1	-0.27204612
179	0x3cdf39e4	0.027249284
180	0xbe5ba1be	-0.21448418
181	0xbd83c427	-0.064338975
182	0x3e36c025	0.17846735
183	0x3da39566	0.0798748
184	0xbeafbe86	-0.34325045
185	0x3dfd18b9	0.12358231
186	0x3e0e5753	0.13900499
187	0x3e4295c4	0.19002444
188	0xbe7c493e	-0.24637315
189	0xbe2d53a1	-0.16926433
190	0x3de38071	0.11108483
191	0xbc5a67af	-0.013330384
192	0x3e6f6029	0.23376526
193	0xbdd4a50d	-0.103830434
194	0xbb54f11b	-0.0032492343
195	0xbce5501c	-0.0279923
196	0xbd9b9a30	-0.07597768
197	0xbd4e93af	-0.05043381
198	0xbc05b3a2	-0.008160504
199	0x3b460c9c	0.0030219918
200	0x3df6c184	0.12048629
201	0x3de818d7	0.11332863
202	0x3de18b8e	0.11012946
203	0x3c4d5ac1	0.012533844
204	0xbc0bd10d	-0.008533728
205	0x3e110dfb	0.1416549
206	0xbe68ce05	-0.2273484
207	0xbd8d30a4	-0.06894043
208	0xbdf70e3a	-0.120632604
209	0xbe07ad52	-0.1324971
210	0xbe1a374c	-0.15060157
211	0x3dca3753	0.098738335
212	0x3e39128c	0.18073481
213	0x3e92ae6b	0.28648695
214	0xbe1b214b	-0.15149419
215	0x3acbdd7a	0.0015553676
216	0xbd815b2b	-0.06316217
217	0xbd291f9c	-0.04128991
218	0x3d580f46	0.05274894
219	0xbea69934	-0.3253876
220	0x3d3640ac	0.04449527
221	0xbd9e1d4b	-0.07720431
222	0xbdf1471f	-0.117811434
223	0xbc8ddf87	-0.0173185
224	0x3e2e573c	0.17025465
225	0xbd6943e3	-0.056949507
226	0x3a9ad28e	0.0011812018
227	0xbd64ae05	-0.05583002
228	0xbd0cc02e	-0.034362964
229	0x3db1d945	0.08684019
230	0xbd85fc7d	-0.06542299
231	0x3cf738a3	0.030178374
232	0x3d8eef6c	0.0697926
233	0xbc708599	-0.01468029
234	0xbd9d560b	-0.07682427
235	0xbd618c5a	-0.05506549
236	0xbe6f9a4f	-0.23398708
237	0xbc63f27e	-0.013912795
238	0x3dbbed53	0.091761254
239	0x3e1bdc11	0.15220667
240	0xbe12a193	-0.14319448
241	0x3d940cb9	0.07228989
242	0x3d9c1db5	0.07622854
243	0xbdbf9382	-0.09354307
244	0x3e0b4513	0.13600568
245	0x3d0ddf8e	0.034637026
246	0x3c3406f9	0.010987991
247	0x3d7b2456	0.06131395
248	0x3dc24023	0.09484889
249	0xbc719376	-0.01474463
250	0xbd4bfc71	-0.049801294
251	0x3df0ea51	0.11763442
252	0x3e87fcc4	0.26560032
253	0x3de3a1a0	0.11114812
254	0x3dc5e95d	0.09663651
255	0xbd447784	-0.04796554

actor.pi_net.fcs.1.bias f4 [64]
0	0xbe07c72c	-0.13259572
1	0xbe6741c6	-0.22583684
2	0xbce72fb5	-0.02822099
3	0xbd874a1f	-0.06605934
4	0x3e80f41e	0.25186247
5	0x3f174e95	0.5910428
6	0x3e9419a9	0.28925827
7	0xbddf15e7	-0.108928494
8	0x3c7fa62d	0.015603584
9	0x3d1f59f8	0.03890416
10	0x3d8d97b0	0.06913698
11	0xbd935571	-0.07194031
12	0xbe9fe027	-0.31225702
13	0xbdf25004	-0.11831668
14	0x3f0841f7	0.53225654
15	0x3e36c643	0.17849068
16	0xbe11ea58	-0.14249551
17	0xbe51b304	-0.20478445
18	0x3d70b3ad	0.058765102
19	0xbc45b7c0	-0.012067735
20	0x3dd39572	0.10331239
21	0x3ed9cbd1	0.42538312
22	0x3e179ea9	0.14806618
23	0xbd13d4ec	-0.03609173
24	0x3dced26d	0.10098729
25	0xbe2355b2	-0.15950659
26	0xbc4398ed	-0.011938316
27	0xbdfc22cf	-0.12311327
28	0x3e40608f	0.18786834
29	0x3e241c70	0.16026473
30	0x3e072084	0.13195997
31	0xbe3a5bef	-0.18199132
32	0xbd1975bb	-0.037465792
33	0x3ed0d54b	0.4078773
34	0xbd2360c3	-0.0398872
35	0x3f0ee07d	0.5581129
36	0x3eda776d	0.4266924
37	0x3d96bce2	0.07360245
38	0xbe495a65	-0.19663389
39	0x3ead5680	0.33855057
40	0x3e8170ea	0.2528146
41	0x3ea523fa	0.3225401
42	0xba92af3e	-0.0011191142
43	0x3d73bd7f	0.05950689
44	0x3e8b2709	0.2717822
45	0x3d1e0356	0.0385774
46	0xbe1ef96a	-0.15524831
47	0x3e3509c8	0.17679513
48	0x3ec1e34e	0.37868732
49	0xbb4902a8	-0.003067175
50	0xbe10feba	-0.1415967
51	0xbc882a79	-0.016621815
52	0xbd800e2c	-0.06252703
53	0xbcd900a8	-0.02648957
54	0x3e16edb1	0.1473911
55	0x3e2d66be	0.16933724
56	0x3eb0592d	0.34443036
57	0x3e1f9de2	0.15587571
58	0xbd05977f	-0.03261518
59	0xbe6c05a1	-0.23049022
60	0xbe94efac	-0.29089105
61	0xbdcd1baa	-0.10015042
62	0xbd36a79e	-0.044593446
63	0x3e5628e4	0.20914036

actor.pi_net.fcs.2.weight f4 [4, 64]
0	0xbdbc20d5	-0.0918595
1	0x3f16ac1a	0.58856356
2	0x3d330bee	0.04371255
3	0x3d0d4cb0	0.034496963
4	0xbbd6f932	-0.006560468
5	0x3ef81123	0.48450574
6	0x3f0eece0	0.5583019
7	0xbd87eecd	-0.066373445
8	0x3cbd5ee3	0.023116535
9	0xbd6964f2	-0.056981035
10	0xbf348059	-0.70508343
11	0xbb238085	-0.002494843
12	0xbebd8a98	-0.370198
13	0x3c4c8f34	0.012485314
14	0x3e9fa576	0.31180924
15	0xbdd662d5	-0.104680695
16	0xbee39674	-0.44450724
17	0x3b81a173	0.003956014
18	0xbcb3a8ae	-0.021931019
19	0x3e2b61d0	0.16736531
20	0x3d12d07b	0.035843354
21	0xbec66b3d	-0.3875369
22	0xbf2c561f	-0.6731891
23	0xbb0446cf	-0.0020183807
24	0x3c6cc914	0.014452238
25	0xbcb53d78	-0.022124037
26	0xbc7cf0b2	-0.015438246
27	0x3dda4a97	0.10658758
28	0xbd0d7027	-0.034530785
29	0x3b8c0c9f	0.0042739655
30	0xbe41fe4a	-0.1894466
31	0xbd1f21c1	-0.03885055
32	0x3dcf2410	0.101143
33	0xbe860df1	-0.2618251
34	0x3c4c447c	0.0124675
35	0x3e9c1ac7	0.3048918
36	0x3e1decc5	0.15422352
37	0x3d14b86b	0.036308687
38	0x3c3d509d	0.011554864
39	0x3dbe0eb1	0.09280146
40	0xbd73b1c7	-0.059495714
41	0xbf264823	-0.6495382
42	0x3c8f7964	0.017513938
43	0xbea5222f	-0.32252643
44	0x3ef3a173	0.47584113
45	0x3c7dbe7f	0.015487312
46	0x3df8d50e	0.12150012
47	0x3e63ba2d	0.22238989
48	0xbd1418a4	-0.03615631
49	0xbd338659	-0.043829296
50	0xbe2f1c81	-0.17100717
51	0xbc768fa2	-0.015048893
52	0x3ca29ad9	0.019849228
53	0xbc55977c	-0.013036605
54	0x3dfb5334	0.12271729
55	0x3dafe25d	0.08588097
56	0x3ef265b8	0.4734323
57	0xbf22757e	-0.6346053
58	0xbc6e9272	-0.0145612825
59	0x3c2dbdb4	0.010604311
60	0xbf4ffb42	-0.81242764
61	0xbd0c5fae	-0.034270935
62	0xbccd0f4f	-0.025031714
63	0x3c051b61	0.008124203
64	0x3d6e6477	0.05820128
65	0x3d9bc12e	0.076052055
66	0x3d4fa90c	0.050698325
67	0xbc164060	-0.009170622
68	0x3dc15cfe	0.09441565
69	0x3ec1231c	0.377221
70	0x3dc03a63	0.093861364
71	0xbd1cf4ea	-0.038319506
72	0xbcd6284c	-0.026142262
73	0x3d9ebce5	0.077508725
74	0x3f2b0d23	0.6681692
75	0x3c43da68	0.011953928
76	0x3c1574df	0.0091221025
77	0x3c0096af	0.007848426
78	0x3e493af1	0.1965139
79	0xbf5b66fe	-0.8570403
80	0xbf3982fd	-0.724655
81	0x3dd1830f	0.102300756
82	0xb9de3db4	-0.00042389112
83	0x3e4360e4	0.1907993
84	0x3d7cd07c	0.061722264
85	0x3f1c7fdd	0.61132604
86	0xbe4f5359	-0.20246638
87	0x3c90994e	0.017651226
88	0xbce310bf	-0.027717946
89	0x3d2e1f7c	0.042510495
90	0x3cf9ae37	0.03047858
91	0xbf294d1d	-0.6613329
92	0x3ee1a83c	0.44073665
93	0xbafc97b5	-0.0019271286
94	0xbd6b8727	-0.05750194
95	0x3d2e44e3	0.042546164
96	0xbf174948	-0.59096193
97	0x3e5201ab	0.20508449
98	0x3cc5853a	0.024111379
99	0x3dfd3b2c	0.12364802
100	0xbf3579eb	-0.7088916
101	0x3d85d837	0.0653538
102	0xba0d6afb	-0.00053946645
103	0x3befcd2b	0.007318159
104	0x3d803a94	0.06261173
105	0xbc9f229c	-0.019425683
106	0xbb6693ab	-0.0035183232
107	0x3ee20306	0.44142932
108	0xbba69549	-0.005083714
109	0xbcd99c14	-0.026563682
110	0xbe9ab8cb	-0.3021911
111	0xbf82fea7	-1.0233964
112	0x3e06c4ed	0.13161059
113	0xbd95c0f1	-0.07312191
114	0x3e65691a	0.22403374
115	0x3b018edc	0.0019768989
116	0xbdd0f734	-0.102034
117	0x3cf10ae8	0.029424146
118	0xbc742056	-0.014900288
119	0xbd855e22	-0.06512095
120	0xbe092639	-0.13393487
121	0xbeb0591e	-0.3444299
122	0xbd8512cb	-0.06497725
123	0x3aacf98d	0.001319693
124	0x3c9f9d9b	0.019484332
125	0xbcb86217	-0.02250771
126	0xbd62b8fe	-0.055352204
127	0x3e14d08f	0.14532684
128	0xbc385b4c	-0.011252236
129	0xbf231a61	-0.63712126
130	0xbe63b265	-0.22236021
131	0x3cf4a777	0.02986501
132	0x3edc8047	0.43066618
133	0xbf56acbe	-0.83857334
134	0x3efbcf73	0.4918171
135	0x3d45dc5b	0.04830585
136	0x3cc6ae9e	0.024253186
137	0xbe39f397	-0.18159328
138	0x3dad23d2	0.08454098
139	0x3b883ef1	0.004157894
140	0xbe843fa9	-0.2582982
141	0x3ceebb0c	0.029141925
142	0x3e9da64d	0.3079094
143	0x3ec0e806	0.3767702
144	0xbe563c83	-0.20921521
145	0x3ed74f0e	0.420525
146	0xbb6670e9	-0.0035162515
147	0xbef098b1	-0.46991494
148	0x3c3e3be0	0.011610955
149	0x3e8c6ef6	0.27428406
150	0x3eec6a00	0.46174622
151	0x3cf9fc46	0.030515801
152	0xbbba2acf	-0.0056813727
153	0x3d4af0d6	0.049546085
154	0x3d819a0d	0.06328211
155	0x3db0f670	0.08640754
156	0x3c2ab9d4	0.010420281
157	0xbc5629aa	-0.013071457
158	0x3eabe259	0.33571127
159	0x3db2018c	0.08691701
160	0xbe95312e	-0.29139084
161	0x3ecaaf4a	0.3958686
162	0x3c949f12	0.018142257
163	0xbb3af52d	-0.0028527484
164	0xbd80f737	-0.062971525
165	0xbd347891	-0.044060294
166	0xbd3cbd95	-0.046079237
167	0x3c299912	0.010351436
168	0x3e7086a5	0.23488863
169	0x3efb405c	0.4907254
170	0x3db05a35	0.086109556
171	0xbeca95e5	-0.39567485
172	0xbdcac5e0	-0.09901023
173	0xbd5e50ed	-0.054276396
174	0xbe1d2ae4	-0.15348393
175	0x3ef4c5c1	0.47807124
176	0xbe7438ba	-0.23849764
177	0x3e3a3639	0.18184747
178	0xbe909f7c	-0.28246677
179	0xbcea73f9	-0.028619753
180	0x3d30fb9f	0.043208715
181	0x3befd6db	0.007319314
182	0x3d30cbca	0.0431631
183	0xbd11af1d	-0.03556739
184	0xbf120722	-0.57042134
185	0x3c2f2d7e	0.0106919985
186	0x3c464f1f	0.012103825
187	0x3c810f3c	0.015754335
188	0x3ec7ed3b	0.3904818
189	0xbd38120c	-0.044939086
190	0xba960373	-0.001144512
191	0xbe2fbe07	-0.17162333
192	0xbd06347c	-0.032764897
193	0xbe797571	-0.24361207
194	0x3dc3c3ec	0.095588535
195	0x3be341a5	0.0069353157
196	0xbe911010	-0.28332567
197	0xbd53fc07	-0.051754024
198	0x3d2688b0	0.0406577
199	0x3d42a062	0.047516234
200	0x3bac3291	0.0052550514
201	0x3e1f259f	0.15541695
202	0x3ec16e71	0.37779573
203	0xbbf1c08f	-0.007377691
204	0x3e018901	0.12649919
205	0x3d597019	0.05308542
206	0x3defb6eb	0.11704811
207	0x3e4d2010	0.20031762
208	0xbcc42caa	-0.023947079
209	0xbf0befab	-0.5466258
210	0x3c38ab68	0.011271335
211	0xbf4294c3	-0.7600824
212	0x3c25a321	0.010109694
213	0xbf00a447	-0.5025067
214	0x3c03e7c2	0.008050861
215	0xbc2db4b7	-0.010602168
216	0xbd0ef36e	-0.03490012
217	0xbb941c95	-0.004520009
218	0xbcc015ac	-0.023447834
219	0x3f216ced	0.6305683
220	0xbed9e519	-0.425576
221	0xbbbd8604	-0.005783798
222	0xbd9b7a39	-0.075916715
223	0x3cbce795	0.023059646
224	0x3e8cb103	0.274788
225	0x3e8f304e	0.2796654
226	0xbb8c9dc3	-0.0042912676
227	0x3ed2c37d	0.4116477
228	0x3f3eb617	0.744966
229	0x3adc8d49	0.0016826774
230	0xbbfcd998	-0.007716369
231	0xbe4f855d	-0.20265718
232	0x3ee4f352	0.4471689
233	0x3d0196de	0.03163802
234	0xbe428ffa	-0.19000235
235	0x3f0ae3d8	0.5425391
236	0xbe337f51	-0.17529036
237	0x3cb84951	0.022495897
238	0x3e2da9cb	0.16959302
239	0xbcd59bf8	-0.026075348
240	0x3ebddd29	0.37082794
241	0xbe76cab5	-0.24100764
242	0xbec76493	-0.3894392
243	0x3cdf4ab7	0.027257307
244	0x3c63d365	0.013905381
245	0x3d070805	0.032966632
246	0xbc1bd786	-0.009511834
247	0xbd372717	-0.044715013
248	0x3d83dbb0	0.064383864
249	0x3f02ea09	0.5113836
250	0xbc87fc21	-0.016599717
251	0x3c0f7e5b	0.008758153
252	0xbe9b1032	-0.30285794
253	0x3d14a7f8	0.036293
254	0x3bcfbe05	0.0063397908
255	0x3c3424b3	0.010995078

actor.pi_net.fcs.2.bias f4 [4]
0	0x3e9b1df9	0.30296305
1	0x3ee0471e	0.43804258
2	0xbc6adede	-0.014335362
3	0x3eaccae5	0.33748546

critic.v_net.fcs.0.weight f4 [64, 17]
0	0x4017653b	2.3655536
1	0x408ee3e5	4.465319
2	0xbf286d6b	-0.6579196
3	0xc01b8e22	-2.43055
4	0x3f4d29c8	0.8014188
5	0xbf8e2071	-1.110365
6	0xc05d8eb7	-3.4618356
7	0x3f2fede1	0.6872235
8	0x3fbf8926	1.4963729
9	0xbf5a9a8f	-0.8539209
10	0x3e2684e1	0.16261627
11	0xbc58e4c4	-0.013238136
12	0xbced52c4	-0.02897013
13	0x3baebef3	0.0053328215
14	0xbd513616	-0.05107697
15	0xbda453aa	-0.0802377
16	0x3dfe7865	0.12425307
17	0x3edd82b7	0.4326379
18	0xc0c11311	-6.0335774
19	0x3eabcb66	0.33553618
20	0xbfb531f2	-1.4155867
21	0xbf939914	-1.1531091
22	0x40aa40a6	5.3203917
23	0xc063b5da	-3.5579743
24	0x400ded7f	2.2176206
25	0xbfea2790	-1.8293324
26	0xbf220dce	-0.63302314
27	0xbdf69f23	-0.12042072
28	0xbe1416cc	-0.14461821
29	0x3e92c930	0.2866912
30	0x3de9256c	0.11384091
31	0x3e893f42	0.26806074
32	0xbdaffb02	-0.08592798
33	0xbdf8bd7e	-0.12145518
34	0xc00291e1	-2.0401537
35	0xbf56a523	-0.8384573
36	0xc04df53c	-3.218093
37	0x40849a0a	4.1438036
38	0xbffd41be	-1.9785688
39	0xc084fd78	-4.155941
40	0xbe8ddca7	-0.27707407
41	0xbf4cdda1	-0.8002568
42	0x3f3c1704	0.7347262
43	0xbf911a7c	-1.1336207
44	0x3d83d240	0.064365864
45	0x3e436162	0.19080117
46	0xbcf51bbb	-0.02992045
47	0x3dd80418	0.10547656
48	0xbe00306c	-0.12518471
49	0xbb85f969	-0.00408857
50	0x3d8f9be3	0.07012155
51	0x40f193b0	7.5492783
52	0x404bff1e	3.187446
53	0xc0125f11	-2.2870524
54	0xbfdfd733	-1.7487549
55	0x3f960cde	1.1722677
56	0x40ddee8c	6.9353695
57	0xc04d8f51	-3.2118723
58	0x3fb6b6db	1.4274553
59	0xbfd98921	-1.6994973
60	0x3fd92495	1.6964289
61	0xba21d934	-0.00061740284
62	0xbeb46695	-0.35234514
63	0x3e06e345	0.13172634
64	0x3d18e3ee	0.037326746
65	0x3cedbd5d	0.02902096
66	0xbda2d38d	-0.07950506
67	0x3cbaf2fa	0.022820938
68	0x40b9ace6	5.802356
69	0xc0afaa50	-5.48954
70	0x3f6f4a0a	0.9347235
71	0x3e478995	0.19486077
72	0x40a92155	5.285319
73	0xc08771a9	-4.2326245
74	0x3fce7e9b	1.6132387
75	0x3fe2cbc3	1.7718433
76	0xbfd927e0	-1.6965294
77	0x3d94b6e7	0.07261448
78	0xbcd0636c	-0.025438033
79	0xbda0773c	-0.07835242
80	0xbe99ed93	-0.30064067
81	0x3dcc756c	0.09983334
82	0xbdcbf596	-0.09958951
83	0xbe30b26b	-0.17255561
84	0xbe4b50c7	-0.19855033
85	0x3fb3fb58	1.4061079
86	0xbfbc7c09	-1.4725353
87	0xbfd4073f	-1.6564711
88	0xbd2084be	-0.039189093
89	0xc083e35a	-4.121503
90	0xbffff978	-1.9998007
91	0xc0825b28	-4.0736275
92	0x3eb94b54	0.36190283
93	0x4058266d	3.3773453
94	0xbfb52faa	-1.4155171
95	0x3e42950d	0.19002171
96	0xbd731540	-0.059346437
97	0xbd6acc40	-0.057323694
98	0xbe9f57ba	-0.31121618
99	0xbd5588c8	-0.052132398
100	0x3e73ca05	0.23807533
101	0x3df231ff	0.11825942
102	0xc0ebbf84	-7.3671284
103	0xbff9ad6d	-1.950605
104	0xc058b52a	-3.3860574
105	0x3f8b70fa	1.0893853
106	0xbeb45978	-0.3522451
107	0x40257c0c	2.5856962
108	0xc052dc20	-3.2946854
109	0xbf9f9f4b	-1.2470487
110	0x40756704	3.8344126
111	0x3e40647f	0.18788336
112	0x3e9738ff	0.29535672
113	0x3e9d8c5b	0.30771145
114	0xbf0da9b2	-0.5533706
115	0xbdfcab50	-0.12337363
116	0x3b7ab9b8	0.003825767
117	0xbe56fbe6	-0.20994529
118	0x3cdd4b77	0.027013524
119	0x3f2b68a0	0.6695652
120	0x40831a28	4.096943
121	0xc0563c6d	-3.347438
122	0xbea0015f	-0.31251046
123	0xbf9965f3	-1.1984237
124	0xbf96034e	-1.1719759
125	0xc01439b6	-2.3160224
126	0x3e364202	0.17798617
127	0xbef1844c	-0.47171247
128	0xbdac8a42	-0.08424808
129	0x3ea4d59d	0.32194224
130	0x3d9a4a07	0.07533651
131	0x3e952bc6	0.2913496
132	0x3f075dd5	0.5287755
133	0xbe9c8f00	-0.3057785
134	0x3e91ec44	0.2850057
135	0xbe157ef1	-0.14599206
136	0x40dcb5b3	6.89718
137	0xbf807ea7	-1.0038651
138	0x3f64e207	0.8940739
139	0xbfacb0df	-1.3491477
140	0x3ea0bacb	0.31392512
141	0xc0fb4c1e	-7.8530416
142	0x4014c443	2.3244789
143	0x3fd2ad47	1.645913
144	0x40335ff5	2.8027318
145	0x3fa976cd	1.323938
146	0xbd2d4c0a	-0.042308845
147	0x3d3ea74b	0.04654626
148	0xbe1b7d3a	-0.15184489
149	0x3d7d7697	0.061880674
150	0x3dc4658f	0.09589683
151	0x3deed68b	0.116620146
152	0xbe115e5a	-0.14196149
153	0xc0311d7a	-2.767424
154	0x408d49fa	4.4152803
155	0xbfee4a67	-1.8616456
156	0xc053fca5	-3.3122952
157	0x40db0d0c	6.8453426
158	0x3debc6c8	0.11512524
159	0xbf05149d	-0.5198458
160	0xbfbd7bbd	-1.4803387
161	0x4053199d	3.2984383
162	0xbf8aa021	-1.0830117
163	0xbdb75ea4	-0.08953598
164	0xbd92580a	-0.07145698
165	0xbc4d0659	-0.01251372
166	0x3d40d0db	0.04707418
167	0x3c56a9f7	0.013102046
168	0x3cb59455	0.022165457
169	0x3b7acf64	0.0038270587
170	0x3f089083	0.5334551
171	0x40cdc63a	6.4304476
172	0xc0231024	-2.5478601
173	0xbf793e55	-0.97360736
174	0xbeac1247	-0.33607695
175	0xc020c03e	-2.5117335
176	0x4044b675	3.0736363
177	0xbf79c797	-0.97570175
178	0xc004416a	-2.0664926
179	0xc059cde7	-3.4031923
180	0x3df5eaad	0.120076515
181	0xbe5ca2c5	-0.21546467
182	0x3e804ed8	0.25060153
183	0xbd11a63f	-0.035558935
184	0xbe5cf8e1	-0.21579315
185	0xbe1ff60d	-0.15621205
186	0xbd3a8866	-0.045540236
187	0x4096d7e7	4.7138553
188	0xc0cf7c1e	-6.483901
189	0xbf216456	-0.63043725
190	0xbe94560c	-0.289719
191	0x3f0d2ea7	0.5514931
192	0x40bfd208	5.9943886
193	0xc07c90cd	-3.946338
194	0x40009c35	2.0095341
195	0xbf267de0	-0.6503582
196	0x4086ff37	4.218654
197	0x3e9b4390	0.30324984
198	0x3cca123d	0.0246669
199	0xbdc6126f	-0.09671485
200	0x3d9bb412	0.07602705
201	0x3daf3453	0.08554902
202	0x3e17406a	0.14770666
203	0xbcf748c4	-0.030186065
204	0x40a76ee9	5.232289
205	0x401ca37d	2.4474785
206	0x3fd16362	1.6358454
207	0x40827d72	4.077813
208	0x3fc766db	1.5578264
209	0xc0d0c59f	-6.5241237
210	0x3e99db3e	0.3005008
211	0x4032f10f	2.795963
212	0xbe95afa7	-0.29235575
213	0xc00708be	-2.1099086
214	0xbe44dca0	-0.19224787
215	0xbd0b1cdf	-0.03396308
216	0xbec4ed7d	-0.3846244
217	0x3d2dc469	0.04242364
218	0xbddee5cb	-0.10883673
219	0x3dcaf39d	0.09909747
220	0xbd33a522	-0.043858655
221	0x4049619b	3.1465824
222	0xc05cb010	-3.448246
223	0x3f2d08d3	0.6759159
224	0x3ff5fa49	1.9217006
225	0x400b509c	2.176795
226	0x4047d776	3.1225257
227	0xc0a97e50	-5.296669
228	0x4004c2b3	2.0743835
229	0xbf8a39c6	-1.0798881
230	0xbff0f622	-1.8825114
231	0xbe473a69	-0.19455875
232	0xbdcc4123	-0.09973361
233	0xbd5543a3	-0.052066457
234	0x3d0745b0	0.033025444
235	0x3d2332b2	0.03984327
236	0x3df90b75	0.121603884
237	0x3d4fa475	0.050693948
238	0x3ffa3acd	1.9549195
239	0x406c895a	3.6958833
240	0xbece2ebb	-0.40270028
241	0xbf8fe241	-1.1240922
242	0xc03dabf4	-2.9636202
243	0xc102d48c	-8.176891
244	0x40095dfc	2.1463614
245	0xbf5396d8	-0.82652044
246	0xbf8a5b02	-1.0809023
247	0xc0079583	-2.1185005
248	0x3de14e9d	0.110013224
249	0x3dfef1c2	0.124484554
250	0xbe38b16f	-0.18036436
251	0xbd9c03b9	-0.076178975
252	0xbd89eded	-0.06734834
253	0xbdcad8ef	-0.09904658
254	0x3dc4358e	0.09580527
255	0xc0b69277	-5.705379

critic.v_net.fcs.0.bias f4 [64]
0	0xc03645c1	-2.8480074
1	0xbe7ca06b	-0.2467057
2	0xc03f6015	-2.9902394
3	0x3f47f762	0.7811185
4	0xbf5affbb	-0.85546464
5	0xc08f67f1	-4.481438
6	0x3f4b1317	0.79326004
7	0xc01c5032	-2.4423947
8	0xbf5562fa	-0.8335415
9	0x3d998795	0.07496563
10	0x40687fd0	3.632801
11	0xc00ba57a	-2.181975
12	0x3f0ceb82	0.55046856
13	0x3ef120b0	0.4709525
14	0x3fc8a99c	1.5676761
15	0x3fdc7458	1.7223005
16	0xbec9a259	-0.39381674
17	0x3d7d79ac	0.061883613
18	0x3f13863a	0.5762669
19	0xbd25f14f	-0.040513333
20	0x3f323741	0.6961556
21	0x3e8613ca	0.26186973
22	0x3f347e28	0.70505
23	0x3faa88f0	1.332304
24	0x3f465585	0.7747424
25	0x3faa3d90	1.3300037
26	0xbfbd28da	-1.4778092
27	0xbf4451eb	-0.76687497
28	0x401e92f6	2.4777198
29	0x3f5d96ca	0.8655821
30	0x40074e3d	2.1141503
31	0xbd548e8c	-0.051893756
32	0x404b0444	3.1721354
33	0x3f6354eb	0.8880145
34	0x3f95abf5	1.1693102
35	0x405a7ce2	3.4138722
36	0xc060f5cc	-3.5150023
37	0x3fc8a09f	1.5674018
38	0x3fa8c7a3	1.3185924
39	0xc009d86b	-2.153834
40	0x40811fb8	4.035122
41	0xbf426062	-0.7592832
42	0xbff527c8	-1.9152765
43	0xbfb7e555	-1.4366862
44	0x3dfaab94	0.12239757
45	0xbf8aee84	-1.0854039
46	0xbc7808da	-0.015138829
47	0x408fe968	4.497242
48	0xbefc02b6	-0.49220818
49	0x3e3c9eb4	0.18419915
50	0x3f3a6381	0.7280808
51	0x3fd07745	1.6286398
52	0x3ea9ac58	0.331393
53	0x3fb7fb3b	1.4373544
54	0xc0333f8f	-2.8007543
55	0xbf6bb47a	-0.9207226
56	0xbf10d836	-0.5657991
57	0xbe53b98e	-0.20676252
58	0x3fa337f7	1.2751454
59	0xbf1ecd2d	-0.62031823
60	0x3ffbdb69	1.9676334
61	0x3ed61e02	0.4181977
62	0xbf172062	-0.5903379
63	0x3f87da79	1.0613548

critic.v_net.fcs.1.weight f4 [64, 64]
0	0xbfc70b78	-1.5550375
1	0xbea2235b	-0.316676
2	0xbfd9ab7c	-1.7005458
3	0xbec0a468	-0.37625432
4	0x3f9d6a2c	1.2298026
5	0xbfcb29bc	-1.5872111
6	0xbf578b1d	-0.84196645
7	0xc00570f6	-2.0850196
8	0x405c8005	3.4453137
9	0x3fb06e47	1.3783654
10	0x3f893a35	1.0720888
11	0xbfa9427f	-1.3223418
12	0x4028c84e	2.6372256
13	0x3f53d11f	0.8274097
14	0x403f25fb	2.9866931
15	0x3f82b1f8	1.0210562
16	0xbeecfd8b	-0.46287188
17	0xbfe4ccd3	-1.7875007
18	0xbf062902	-0.5240632
19	0xbea0d45f	-0.31412026
20	0xbe3955de	-0.18099162
21	0xbf029d9e	-0.51021755
22	0x3ffa2fcc	1.9545836
23	0x3f639361	0.8889676
24	0xbfdfff3d	-1.7499768
25	0x3fd40ce5	1.6566435
26	0xc0190ad2	-2.3912854
27	0x3f406f3d	0.75169736
28	0x3ff49737	1.9108647
29	0xc03524a2	-2.830361
30	0x40315ca8	2.7712803
31	0x3e84e5ad	0.2595648
32	0x3f52003c	0.8203161
33	0x3f25f234	0.648227
34	0xbec9fbc5	-0.39449897
35	0xbe4abe3a	-0.19799128
36	0xbe5774cb	-0.21040647
37	0xbfb46d37	-1.409583
38	0xc0241ce4	-2.5642633
39	0x3f951c33	1.1649231
40	0x3fb5c9c6	1.4202201
41	0x3f94d015	1.1626002
42	0x402c5fac	2.6933393
43	0x3f07a260	0.5298214
44	0x3e0fdca0	0.14049006
45	0xbe6214c6	-0.22078237
46	0x3ec39ac0	0.38204002
47	0x3fad884a	1.3557217
48	0x3fc765d4	1.557795
49	0x3f2bff62	0.6718656
50	0xbf88c40c	-1.0684829
51	0x3f26eb8e	0.6520318
52	0x3fbd609e	1.479511
53	0xbfac018f	-1.3437976
54	0x3e9aa417	0.30203316
55	0xc0103df8	-2.2537823
56	0x3f8f9518	1.1217375
57	0x40281777	2.6264322
58	0xbe66c5d3	-0.22536401
59	0x3fbc38de	1.4704854
60	0x406c7a41	3.6949618
61	0xbf16f2ca	-0.58964217
62	0xbf2ecf4e	-0.6828507
63	0xbfb2bba6	-1.3963516
64	0x3eda150f	0.4259419
65	0x3f8a556b	1.0807317
66	0xbffa1a95	-1.9539362
67	0x3f1609e3	0.58608836
68	0x3eadfa7f	0.33980176
69	0xbfa25585	-1.2682348
70	0x3f818e40	1.0121536
71	0xbf6d1f7e	-0.9262618
72	0x3f59f8cd	0.85145265
73	0xbf7f05da	-0.99618304
74	0xbf052915	-0.5201581
75	0xbfef6680	-1.8703156
76	0x3f4e7f66	0.80663145
77	0x3f685b26	0.9076408
78	0xbed5563f	-0.41667363
79	0x3f316cc1	0.6930657
80	0xbf449bd7	-0.7680029
81	0x3ee3d619	0.4449928
82	0xbef1ee7b	-0.4725226
83	0x3f268bb9	0.6505695
84	0xbdea4537	-0.11438983
85	0xbfae74d7	-1.3629407
86	0x3e2153bc	0.15754598
87	0xbf642518	-0.891191
88	0xbf0c8cbe	-0.54902256
89	0xbf988e1a	-1.1918366
90	0xc01222d5	-2.283376
91	0xbfa691a8	-1.3013201
92	0x3fb5ee61	1.4213372
93	0x3fd89efa	1.6923516
94	0x3f43e48e	0.7652062
95	0xbfb46a11	-1.4094869
96	0x400f7f4e	2.242145
97	0x3eb75762	0.35808855
98	0xbf4531a6	-0.7702888
99	0xc005c2bc	-2.0900106
100	0xbfc766af	-1.5578212
101	0x3f3f696d	0.7477024
102	0x3f161c54	0.58636975
103	0xbf9514ea	-1.1647007
104	0x3fc7b3f5	1.5601794
105	0xbfb3a9d8	-1.4036207
106	0x3f52d77c	0.82360053
107	0xbfbc5373	-1.4712967
108	0x400d5377	2.2082193
109	0xbfb489ec	-1.410459
110	0x3f1ff07a	0.62476313
111	0x3fc3597d	1.5261685
112	0xbefa4d0a	-0.488869
113	0xbd804c17	-0.06264513
114	0x3ee3742c	0.4442457
115	0xbf9e47cb	-1.236566
116	0xbfd4303f	-1.6577224
117	0x3f0aeba4	0.5426581
118	0xbede5730	-0.43425894
119	0xbdf853b7	-0.12125342
120	0x3f7e6932	0.99379265
121	0xbfe74b9d	-1.806995
122	0xbf5cc7f2	-0.8624259
123	0xc049fdd3	-3.1561172
124	0x3f9476a9	1.1598712
125	0x402b52df	2.676933
126	0xbecbcb16	-0.3980338
127	0xbec86574	-0.39139903
128	0xbedc0677	-0.42973682
129	0xbdf0c837	-0.11756938
130	0xbc263f8f	-0.0101469895
131	0xbebb1a72	-0.36543614
132	0x4040a7c2	3.0102391
133	0x3eb00fb5	0.34386984
134	0xbeeb2138	-0.4592378
135	0xbf068c7c	-0.5255811
136	0xbec34680	-0.38139725
137	0xbef5ac56	-0.47983044
138	0xbfc8500c	-1.5649428
139	0x3e858b71	0.26082948
140	0xbfdf1c28	-1.7430468
141	0xbf4e8a1e	-0.806795
142	0x3f8cbd81	1.0995332
143	0x3fd190cd	1.6372315
144	0x3fd77b83	1.6834568
145	0xbe71cc20	-0.23613024
146	0xbeaca0d9	-0.33716467
147	0xc002efe1	-2.045891
148	0xbb8f7d9e	-0.0043789884
149	0xbf202b9b	-0.62566537
150	0xbfed4bbb	-1.8538736
151	0x40207aab	2.507487
152	0xbfa2f69b	-1.2731508
153	0x40986d4c	4.763342
154	0xbef3f773	-0.47649726
155	0x3fb8a9d4	1.4426827
156	0xbdcdc26a	-0.10046847
157	0xc021a3bc	-2.5256186
158	0xbe9816ed	-0.2970499
159	0x400e646b	2.224879
160	0x3b983893	0.004645416
161	0xbf815917	-1.0105313
162	0x400ad3d8	2.16918
163	0x3e9cc3b9	0.30618075
164	0x3ff5259a	1.91521
165	0xbfac7151	-1.3472081
166	0xbfe237de	-1.7673299
167	0xbca4be9b	-0.020110419
168	0xbfbf29d5	-1.4934641
169	0x3e2ebafe	0.1706352
170	0xbffa1dfd	-1.9540402
171	0x3fbbbc7c	1.4666896
172	0xbef86219	-0.48512343
173	0x3e95a494	0.29227126
174	0xbdc8ab6b	-0.097983204
175	0x3f3cdc9b	0.7377412
176	0xbf15584a	-0.58337843
177	0xc04cbb60	-3.1989365
178	0x3fc7a881	1.5598298
179	0xbed8e2d4	-0.42360556
180	0xbfeeac44	-1.8646321
181	0x3e2d6ec9	0.16936792
182	0x3eef7694	0.46770155
183	0x3dda002c	0.10644564
184	0x3f1a5c06	0.60296667
185	0x3fb017e4	1.3757291
186	0x3f74fc6a	0.95697653
187	0x3fe86431	1.8155576
188	0xc09683bb	-4.7035804
189	0xbf8ecb00	-1.1155701
190	0xbf91c765	-1.1388975
191	0xbfe72793	-1.8058952
192	0x3fb5ae49	1.4193813
193	0xbf513a37	-0.81729454
194	0x3f860164	1.0469174
195	0xbf8d7e5e	-1.1054189
196	0xbec94a03	-0.3931428
197	0x3f9fd5b6	1.2487094
198	0xbeabdb66	-0.33565825
199	0x3f85a679	1.0441428
200	0xbf2871e4	-0.65798783
201	0x3fc7675b	1.5578417
202	0x3fd25274	1.6431413
203	0x3ec8d54d	0.39225236
204	0xbf6a9f64	-0.9164946
205	0x3f30aeda	0.690168
206	0x3fa4bed6	1.2870739
207	0x3f34e246	0.70657766
208	0x3f2f8bd5	0.6857274
209	0x3f7a86c3	0.9786188
210	0x3e03ef83	0.12884335
211	0xbfd7ff86	-1.6874855
212	0xbe597f40	-0.21239948
213	0x3e71a777	0.23599039
214	0x3f1f3996	0.62197244
215	0xbf343e8b	-0.70407933
216	0xbfb39a16	-1.4031398
217	0x3e2e1883	0.17001538
218	0x3f957301	1.1675721
219	0xbf03a6c8	-0.51426363
220	0xbf9bdb10	-1.2176228
221	0x3e84c430	0.2593093
222	0xbda722ef	-0.0816096
223	0xbe819d8c	-0.2531551
224	0xbf63fef4	-0.890609
225	0x3fb38a3f	1.4026564
226	0xbf1d4a67	-0.61441654
227	0x3fc04f37	1.5024174
228	0x400fb0eb	2.2451732
229	0x3e3cfaaf	0.18455003
230	0xbff3a396	-1.9034297
231	0xbf21786e	-0.63074386
232	0xbf4bca26	-0.7960533
233	0xbf87d125	-1.0610701
234	0x3ffe88f2	1.9885542
235	0xbed83b7a	-0.42232877
236	0xbf7470dc	-0.9548471
237	0x3f9cc445	1.2247397
238	0xbf83d6c0	-1.0299911
239	0xbf50ebc3	-0.81609744
240	0xbed7f962	-0.4218245
241	0xbec1747a	-0.37784177
242	0xbf7731d2	-0.96560395
243	0xbfaa3aa2	-1.3299143
244	0x3eedf77e	0.46477884
245	0xbd1a7104	-0.037705436
246	0x3e7f48fd	0.24930187
247	0xbe5fb70a	-0.21847168
248	0xc061d186	-3.5284133
249	0xbfa09f88	-1.2548685
250	0x400b6382	2.1779485
251	0x4022f362	2.546105
252	0x3f9b9dc5	1.2157522
253	0xbfa1b1d5	-1.2632395
254	0x3f3cae41	0.7370339
255	0x3ef22eb5	0.4730126

critic.v_net.fcs.1.bias f4 [64]
0	0x3ff7b8d5	1.9353281
1	0x4012eec7	2.2958238
2	0x3cbd6b9a	0.023122597
3	0xbfa1b2bc	-1.263267
4	0x3fcb2617	1.5870999
5	0x3fc24fff	1.5180663
6	0x3daea6be	0.08527897
7	0xbf9dc0ee	-1.2324502
8	0xbf4a0460	-0.78912926
9	0x3dd6b7e6	0.104842946
10	0xc0295265	-2.645654
11	0xbf683b3a	-0.9071537
12	0xbf74c8dd	-0.95618993
13	0x3fbaa0d0	1.4580326
14	0x3efc2d71	0.4925342
15	0x3f96f740	1.1794205
16	0x3f65eea3	0.89817256
17	0x3fa5b73b	1.2946543
18	0xbff7368a	-1.9313519
19	0xbf685824	-0.9075949
20	0x3fa93a4a	1.3220913
21	0xbf4392e0	-0.7639599
22	0x3f87dee9	1.0614902
23	0xbf5d68b0	-0.86487865
24	0xbfcb768e	-1.5895555
25	0xc0326ea1	-2.7880023
26	0x3ff85c15	1.9403101
27	0x3f86d269	1.0532962
28	0x3f9fbbe0	1.247921
29	0x3f0934a0	0.53595924
30	0xbeaa61c3	-0.3327771
31	0x3fd67bb1	1.6756498
32	0xbf602477	-0.8755564
33	0xbe2260df	-0.15857266
34	0xbfdd909f	-1.730976
35	0x3f94cbb5	1.1624666
36	0x3fbf6ba1	1.4954721
37	0xbe833958	-0.25629687
38	0x3feebc31	1.8651181
39	0x3f92cb41	1.1468278
40	0xbe007d86	-0.12547883
41	0xbf96b6c2	-1.1774523
42	0xbfa67c87	-1.3006753
43	0xbfe7950b	-1.8092359
44	0xbfbc4120	-1.4707375
45	0xc002df95	-2.0448964
46	0x3f47c35f	0.7803249
47	0xbfc40758	-1.5314741
48	0x3fd06d15	1.6283289
49	0xbfda8a5d	-1.7073475
50	0x40288353	2.6330154
51	0x4008e92e	2.1392322
52	0x3e91f836	0.28509682
53	0xbf06520e	-0.52468956
54	0xbf96816d	-1.1758248
55	0xbff87111	-1.9409505
56	0xbf3ce23f	-0.73782724
57	0xc00b6eed	-2.1786454
58	0xc01e0cc4	-2.4695292
59	0xbfb674ce	-1.4254396
60	0xbeedd4f4	-0.46451533
61	0x3f5c4c6f	0.8605413
62	0xbec5ee74	-0.38658488
63	0x3f1980f2	0.5996238

critic.v_net.fcs.2.weight f4 [1, 64]
0	0xc09819ab	-4.7531333
1	0xc0d739f0	-6.7258224
2	0xbf6ba0f9	-0.920425
3	0x40b147ca	5.5400133
4	0xc100c9e0	-8.049286
5	0xc11ae744	-9.681461
6	0xbf27a6e2	-0.6548902
7	0x401c25a8	2.4397984
8	0x414c4b43	12.768374
9	0xc15d2d0a	-13.823496
10	0x40b499fd	5.6437974
11	0x409f729d	4.982741
12	0x4110ffd3	9.062457
13	0xc04bb61d	-3.1829903
14	0xbfd331c6	-1.6499565
15	0xc09920f9	-4.785275
16	0xc11ecad2	-9.924517
17	0xc0a88700	-5.2664795
18	0x40ba2e8c	5.818182
19	0x40c93d1b	6.288709
20	0xc0a4bd01	-5.148072
21	0x418f6cc6	17.928112
22	0xc0bd88fe	-5.9229727
23	0x4031bef4	2.7772799
24	0x40ad909b	5.423902
25	0x4190041d	18.002008
26	0xc0926f8d	-4.576117
27	0xc0a369ea	-5.106679
28	0xc0adaccb	-5.427343
29	0xc12296a5	-10.161778
30	0x3fad55a9	1.3541766
31	0xc0981b23	-4.7533126
32	0x409fab21	4.9896398
33	0xc16ff8de	-14.998259
34	0x4124a1c8	10.289497
35	0xc0a14b5d	-5.0404496
36	0xc088bc75	-4.273005
37	0xc1501c57	-13.006919
38	0xc0a2e6dd	-5.0906816
39	0xc001a7e9	-2.0258734
40	0xc172ba51	-15.170487
41	0x409df742	4.936433
42	0x41381d0b	11.507091
43	0x40a5d3e6	5.1821165
44	0x40a87aa9	5.264973
45	0x40bb889e	5.860427
46	0xbf46a1ec	-0.77590823
47	0x40a15dad	5.042685
48	0xc099255a	-4.7858095
49	0x41e0824f	28.063627
50	0xc0eedd09	-7.464482
51	0xc11eb7ee	-9.919905
52	0xc1282f71	-10.511582
53	0x418ce850	17.613434
54	0x40f672e4	7.7015247
55	0x40a311a8	5.0959053
56	0x41793721	15.575959
57	0x40ff22d0	7.9729996
58	0x40bcb9bd	5.897673
59	0x40544dc7	3.3172472
60	0x40fcb5c1	7.8971868
61	0xc0a92db4	-5.286829
62	0x408a04e3	4.3130965
63	0xc0a58566	-5.172534

exp_avg f4 [4]
0	0xbca7b4f8	-0.020472035
1	0xbc9c81f1	-0.01910493
2	0x3bec2519	0.007206571
3	0x3c801661	0.015635671

exp_avg_sq f4 [4]
0	0x3c7e13c2	0.01550764
1	0x3c761f92	0.015022175
2	0x3c6bf990	0.014402762
3	0x3c580e28	0.013186969

exp_avg f4 [64, 17]
0	0xb79804e3	-1.8122088e-05
1	0x39048ad1	0.00012640214
2	0xb9a5de0c	-0.0003163669
3	0xb88decee	-6.7675355e-05
4	0x384ee9fc	4.9332142e-05
5	0x39a3c078	0.00031233183
6	0xb9a379ba	-0.00031180476
7	0x392bf718	0.0001639988
8	0x39a65284	0.00031723466
9	0x39b24e34	0.00034009072
10	0x3c1237dc	0.008924451
11	0xb94ee1dc	-0.0001972983
12	0x3a81d412	0.0009905121
13	0xbb0e7734	-0.002173853
14	0xb9ed6d18	-0.00045285444
15	0x3a92c1d5	0.0011196682
16	0x3b0cf346	0.0021507307
17	0x38e01ec2	0.000106868814
18	0x381c5dac	3.7280537e-05
19	0xbbd74a50	-0.006570138
20	0xb946e42e	-0.00018967755
21	0xba22a783	-0.0006204771
22	0x3b823924	0.003974097
23	0xbbc627b0	-0.0060472116
24	0x3aca526a	0.0015435938
25	0xbae6a384	-0.0017596339
26	0x39e4a669	0.00043611534
27	0xbcb5b626	-0.022181582
28	0xbc55e95a	-0.013056124
29	0x3bb93def	0.005653135
30	0xbc6be82d	-0.014398617
31	0x39e10069	0.0004291565
32	0xbb860313	-0.004089722
33	0xbaff3235	-0.0019469919
34	0xba0abedd	-0.0005292723
35	0xb8954557	-7.117789e-05
36	0xbc1b9332	-0.009495543
37	0x3a876f89	0.0010332923
38	0xba410cb7	-0.00073642604
39	0x3c05ebdb	0.008173908
40	0xbc131426	-0.008976972
41	0x3ab0ad03	0.0013479296
42	0xbb34090d	-0.0027471215
43	0x38cde387	9.817542e-05
44	0xbd2a9ecd	-0.04165535
45	0x3c325201	0.010883809
46	0x3c181aed	0.009283763
47	0xbd6d09c3	-0.057870638
48	0x3c617f28	0.013763227
49	0xb7fb229a	-2.9937644e-05
50	0x3cea5b0a	0.028607864
51	0xb9994b97	-0.00029238753
52	0xb88aee96	-6.624793e-05
53	0x3a07ae4b	0.0005175813
54	0x39a1ab13	0.00030835773
55	0x39557a4d	0.00020358824
56	0x3abcd541	0.0014406816
57	0xb8c7e1db	-9.531128e-05
58	0xb8b5046a	-8.631575e-05
59	0xb9c7f8a3	-0.00038141487
60	0xb97e2f5a	-0.00024240967
61	0x3a30061d	0.0006714778
62	0x3b5eec79	0.003401546
63	0x3bac4015	0.0052566626
64	0xbbb01f68	-0.0053748377
65	0x3a551d4e	0.0008129672
66	0x3ba342fe	0.0049823513
67	0x3b44656e	0.0029967683
68	0xb8c7aa43	-9.520773e-05
69	0xb8af6f3a	-8.365368e-05
70	0xbafedd80	-0.0019444674
71	0x39988ce2	0.00029096665
72	0xb908dbf8	-0.00013051915
73	0x38b061f9	8.410583e-05
74	0xbaa07960	-0.0012243204
75	0x39f9f07f	0.00047672165
76	0xb9f264a3	-0.00046232817
77	0x39c47d3a	0.00037477334
78	0xbb14b108	-0.0022688527
79	0x3bc2dfe3	0.0059470995
80	0xbb9e3020	-0.0048275143
81	0xba977c5a	-0.0011557445
82	0xba8ab904	-0.0010583703
83	0xbb0ba030	-0.0021305196
84	0x397aa390	0.0002390279
85	0x3991dbb6	0.00027820253
86	0x3910217a	0.00013745381
87	0xbb747475	-0.003730086
88	0x39a91ee2	0.000322572
89	0xb9ffd416	-0.00048795406
90	0x3a8cf87a	0.0010755204
91	0xbaaebb20	-0.0013330914
92	0x3a2fc9c0	0.00067057833
93	0x3a358ff4	0.0006926053
94	0x39a32d03	0.0003112332
95	0x3c80e41d	0.015733773
96	0xbc32fef7	-0.010925046
97	0xbc954d3f	-0.01822531
98	0xbc3e0f0b	-0.011600266
99	0x38c7a674	9.520064e-05
100	0x3b89a415	0.0042004683
101	0xbbb4d981	-0.0055190925
102	0x38d5a5ea	0.000101875354
103	0x37b85b0a	2.1976903e-05
104	0x390f92ff	0.00013692303
105	0x388a2005	6.586317e-05
106	0x37e658dc	2.7459515e-05
107	0x39881c8c	0.0002596121
108	0xb9acfe71	-0.0003299597
109	0x39c4c5bd	0.0003753136
110	0xb821a7fb	-3.8541835e-05
111	0x3927ece7	0.00016014614
112	0xbb47cfe9	-0.0030488914
113	0xbb152d00	-0.0022762418
114	0x3afb81f0	0.0019188505
115	0x3a7f074a	0.0009728564
116	0x3a9e9df0	0.0012101512
117	0xba887675	-0.001041128
118	0x39fce731	0.00048237437
119	0x38a8a3e4	8.041391e-05
120	0x39b7cd63	0.00035057505
121	0xbbbb1098	-0.0057087652
122	0x39fbc15a	0.0004801851
123	0xba045388	-0.00050478475
124	0x3b9b0735	0.0047310838
125	0xbbb10421	-0.0054021035
126	0x3ac9cd51	0.0015396272
127	0xbad1d5d8	-0.0016009165
128	0x39c0053d	0.00036624997
129	0xbc068cb6	-0.008212259
130	0x3ac575cc	0.0015065013
131	0x3abe540c	0.0014520898
132	0xbc787bca	-0.015166232
133	0xbb7cb98d	-0.0038562745
134	0xbb336adc	-0.0027376926
135	0x3b35a353	0.0027715757
136	0x38e2e442	0.00010819036
137	0x3862b3ec	5.4050164e-05
138	0x3ab715ed	0.0013968326
139	0xb906949b	-0.00012834596
140	0xb98ac06c	-0.00026464777
141	0x39f6eb96	0.00047096302
142	0x398b89e4	0.00026614883
143	0xb96c3371	-0.00022525877
144	0xb909ca1d	-0.00013140631
145	0xb9e527e9	-0.0004370802
146	0x3b0e41d3	0.0021706715
147	0xbb82aabd	-0.0039876387
148	0x3ba1107f	0.0049152966
149	0x3bd2388a	0.0064154314
150	0x3c037334	0.008023072
151	0xbbb906a3	-0.005646543
152	0xbabc4faa	-0.0014367003
153	0xb8e133fd	-0.000107385196
154	0xb7a7567d	-1.9948226e-05
155	0xba01131d	-0.00049238076
156	0xb868785d	-5.5425207e-05
157	0x38f3d8e6	0.000116275434
158	0xb8fa7aec	-0.00011943825
159	0xba14ae6f	-0.00056717446
160	0xb9939ad9	-0.00028153395
161	0xb9ac0ea6	-0.0003281731
162	0xb8a27ea0	-7.748348e-05
163	0x3880eba4	6.147407e-05
164	0xbaafd3a5	-0.0013414515
165	0xbba595a4	-0.005053239
166	0x3b14cc3d	0.0022704743
167	0x3a04ce19	0.00050661113
168	0x3a8530c4	0.0010161628
169	0x3bbfb5af	0.005850516
170	0x3916e845	0.00014391642
171	0xb9d5be58	-0.00040768343
172	0xba8f38db	-0.0010926978
173	0xba5caa76	-0.00084177346
174	0x3a0af336	0.00053005235
175	0xbb9f323b	-0.004858283
176	0x3b248dac	0.0025108857
177	0xbaedd526	-0.0018145188
178	0x3b3090c3	0.0026941753
179	0xba370c03	-0.0006982686
180	0x3c0eddea	0.008719901
181	0xbc623872	-0.013807403
182	0xbca741b5	-0.020417074
183	0x3bf9161e	0.0076015135
184	0x3b33881a	0.0027394355
185	0x3c2a71d7	0.010403118
186	0xbca57337	-0.02019654
187	0xb91f3551	-0.00015183284
188	0xb9636a0f	-0.00021687917
189	0x3a9ad517	0.0011812773
190	0x3a3ae868	0.0007129968
191	0xba0f8c07	-0.0005475883
192	0x3aeb2e5f	0.0017942897
193	0x3a56d3b3	0.0008194998
194	0xb8328815	-4.2565243e-05
195	0xb9601398	-0.00021369604
196	0xba1bbab1	-0.00059406
197	0xbc0f072c	-0.008729737
198	0x3abbccf5	0.001432805
199	0xbb09d844	-0.0021033445
200	0xbc7b30cc	-0.015331458
201	0x3bee5eb5	0.0072744736
202	0x3ba0e7a7	0.0049104276
203	0x3bca53a2	0.0061745206
204	0xb8a680b5	-7.9394704e-05
205	0xb94a09c1	-0.00019267855
206	0x3987a180	0.00025869533
207	0x3964bb2e	0.00021813504
208	0x38b3aada	8.567209e-05
209	0x3ae2b896	0.0017297443
210	0xba5c24a1	-0.0008397792
211	0x3a1c2a66	0.00059572456
212	0xba253fb0	-0.00063037407
213	0xb9b467b9	-0.00034409555
214	0xbbc2f021	-0.0059490358
215	0x3bd6187c	0.0065336805
216	0x3b134e16	0.0022476963
217	0x3b20a6ac	0.0024513407
218	0x3a2ed1cf	0.0006668837
219	0x395ee5d0	0.00021257182
220	0x3c2191f0	0.009861454
221	0xb8a3e50b	-7.815108e-05
222	0x39ebf73c	0.00045006897
223	0xbb05e529	-0.002043078
224	0xb9519c07	-0.00019989918
225	0x39286daf	0.00016062589
226	0xbaf89d0a	-0.00189677
227	0xba04e27d	-0.000506915
228	0xb900d0c5	-0.00012284804
229	0xb8a47460	-7.841806e-05
230	0x3a447510	0.00074942503
231	0xbba92efd	-0.005163072
232	0xbc68537b	-0.01418006
233	0xbb07a381	-0.002069682
234	0xbb859c53	-0.004077473
235	0xbb9f4c1f	-0.0048613693
236	0x3b850754	0.0040597115
237	0xb89bcce2	-7.429138e-05
238	0xba81b6f5	-0.0009896444
239	0xba0259dd	-0.0004972497
240	0x3bb37d48	0.005477581
241	0x3aa3fc2c	0.0012511066
242	0x3a891c0d	0.001046063
243	0x3ac43a2f	0.0014970953
244	0x3b1afacd	0.0023648024
245	0xbb0f839d	-0.0021898516
246	0x3a8a5a3c	0.0010555456
247	0xb90d4bfe	-0.00013475117
248	0x3caac746	0.020846974
249	0x3d8ede68	0.069760144
250	0x3c5c2ba5	0.01343814
251	0xbc2f1db7	-0.010688237
252	0x3a30a5fd	0.00067386014
253	0xbb1cc6c0	-0.0023922175
254	0x3d4598fd	0.048241604
255	0x39a22f7a	0.0003093442
