NetworkConvert/ptParams/model_hjppo42.pt (torch, 219425 bytes, 36 tensors)

actor.logstd f4 [4]
0	0x3e3157ee	0.17318699
1	0x3c52295a	0.012827242
2	0x3d86f063	0.06588819
3	0xbcc61d8d	-0.024184013

actor.pi_net.fcs.0.weight f4 [64, 17]
0	0x3f043424	0.5164206
1	0xbe46f77b	-0.19430344
2	0x3e06d3c3	0.13166718
3	0x3fae0fdb	1.3598589
4	0x3e0de52d	0.13856955
5	0x3e486755	0.19570668
6	0xbef78ecb	-0.4835113
7	0x3e969ec8	0.29418015
8	0x3e575457	0.21028267
9	0xbf4060d3	-0.7514774
10	0x3ee8bb25	0.4545528
11	0xbcdcbf88	-0.026946798
12	0x3ee6bae7	0.4506447
13	0xbf356318	-0.7085433
14	0x3f1bbfcf	0.6083955
15	0x3e34faa9	0.17673744
16	0x3de42770	0.111403346
17	0xbe237f8b	-0.15966623
18	0xbf2fb4f8	-0.6863551
19	0xbf00de8d	-0.50339586
20	0x3f1da8da	0.6158577
21	0xbf142905	-0.5787509
22	0xbeb1ea8b	-0.34749255
23	0x3f0f6047	0.5600628
24	0x3eacf3b1	0.33779672
25	0x3e7a68d5	0.24454053
26	0xbfaf7d6e	-1.3710153
27	0xbe0ad763	-0.13558726
28	0xbe2d20d8	-0.1690706
29	0xbe1499e1	-0.14511825
30	0x3f1178f5	0.5682519
31	0x3ea48d1d	0.3213891
32	0xbf11f869	-0.5701967
33	0x3c370d32	0.01117258
34	0xbe5f66ae	-0.21816513
35	0x3f9dd690	1.2331104
36	0xbe08a51c	-0.13344234
37	0x3f61d6c5	0.8821834
38	0xbecbfa4f	-0.39839408
39	0x3fb1cd3b	1.3890756
40	0xbea5e646	-0.32402247
41	0xbeb84c00	-0.35995483
42	0x3f401dc4	0.7504542
43	0xbf036225	-0.5132163
44	0x3e36ab98	0.17838895
45	0xbcd021f7	-0.02540682
46	0x3ddb1110	0.10696614
47	0x3e32110a	0.17389312
48	0x3e5fd524	0.2185865
49	0x3d363566	0.04448452
50	0x3c8cf0c2	0.017204646
51	0x3e714f13	0.2356532
52	0xbf9afb62	-1.2107966
53	0x3e88bf75	0.2670857
54	0x3fa98748	1.324441
55	0x3d9fad5d	0.07796738
56	0xbfbaa829	-1.4582568
57	0x3eb9004a	0.36133033
58	0x3f229251	0.6350451
59	0xbf3a520c	-0.72781444
60	0xbe869f3f	-0.2629337
61	0x3d12e171	0.03585953
62	0x3de3e519	0.11127681
63	0xbeb26c34	-0.34848177
64	0x3d07a8ec	0.03312008
65	0xbe72e0f9	-0.23718633
66	0xbe2edd42	-0.1707659
67	0xbe2f7c6c	-0.17137307
68	0x3df91792	0.12162699
69	0xbef892f3	-0.48549613
70	0xbee90df4	-0.45518458
71	0x3f522aa4	0.82096314
72	0x3faa535b	1.3306688
73	0xc0128b62	-2.2897573
74	0x3d4674dd	0.048451293
75	0xbd89051e	-0.06690429
76	0xbf0d8454	-0.5528004
77	0xbeabd7e9	-0.33563164
78	0x3e085524	0.13313729
79	0x3dfb41c0	0.122684
80	0x3da8763e	0.08225678
81	0xbe72caf8	-0.23710239
82	0x3e7d39fd	0.24729152
83	0x3ddebe46	0.108761355
84	0x3eed33ad	0.46328488
85	0x3f980777	1.1877278
86	0xbf033850	-0.512578
87	0x3ee136a2	0.43986994
88	0x3de97198	0.113986194
89	0x3feae4da	1.835109
90	0x3ef73043	0.48279008
91	0x3ea07585	0.3133966
92	0x3eab4686	0.33452243
93	0xbb7f5561	-0.0038960802
94	0xbd744296	-0.059633814
95	0xbe11febc	-0.1425733
96	0x3ee2f889	0.44330242
97	0xbe58795c	-0.21140045
98	0xbed3338d	-0.41250268
99	0xbce0d460	-0.027445018
100	0xbe12f620	-0.14351702
101	0x3f30054c	0.6875808
102	0xbdce5f66	-0.100767896
103	0xbe33457e	-0.17506978
104	0xbe3294e4	-0.1743961
105	0xbe68cb19	-0.22733726
106	0x3c942c02	0.01808739
107	0xbec76a42	-0.38948256
108	0xbf7ee45c	-0.995672
109	0xbe0550f5	-0.13019164
110	0x3b8bcde4	0.0042664874
111	0xbce2cbd2	-0.02768508
112	0xbd557380	-0.052112103
113	0xbe71db23	-0.2361875
114	0xbe34ad70	-0.17644286
115	0xbfb1f03a	-1.3901436
116	0x3ee049c9	0.43806294
117	0x3f14f7fc	0.58190894
118	0xbd8502f8	-0.06494707
119	0xbda90bed	-0.08254228
120	0x3c571fe1	0.013130159
121	0xbf1a1b10	-0.60197544
122	0xbfb91058	-1.4458113
123	0x3eae36e2	0.34026247
124	0xbff7ee66	-1.9369628
125	0xbeb154f5	-0.3463513
126	0x3e35e30f	0.17762397
127	0xbe66b263	-0.22528987
128	0x3dc0653a	0.093943074
129	0x3ce85a80	0.028363466
130	0x3e313f87	0.1730939
131	0x3dbee367	0.09320717
132	0x3cebeaea	0.02879854
133	0x3d828e7e	0.063748345
134	0xbe4cda4e	-0.20005152
135	0x3dd59996	0.10429685
136	0xbecac568	-0.39603734
137	0xbf0e99d4	-0.55703473
138	0x3f329b46	0.6976818
139	0x3f0adeb7	0.54246086
140	0xbf0ac504	-0.5420687
141	0xbf4fc213	-0.8115551
142	0x3f215bdd	0.630308
143	0xbf7eb787	-0.9949879
144	0xbec34843	-0.3814107
145	0x3f0be5d9	0.54647595
146	0xbd96872c	-0.07350001
147	0x3d918ed3	0.0710732
148	0x3e1fe810	0.15615869
149	0xbec01d9a	-0.37522584
150	0xbec40432	-0.3828445
151	0xbe8673a0	-0.2626009
152	0x3d2d55cd	0.042318154
153	0x3f6043e7	0.8760361
154	0x40107675	2.25723
155	0xbe2af8bb	-0.16696446
156	0xbfee629f	-1.8623847
157	0x3fa9b9ed	1.3259865
158	0x3f26d160	0.6516323
159	0xbd56f5b6	-0.052480422
160	0x3f8c22f6	1.0948169
161	0x3fc5269b	1.5402406
162	0xbf53be4d	-0.8271225
163	0xbe22709a	-0.15863267
164	0x3e6fdde8	0.23424494
165	0xbd94da99	-0.07268257
166	0xbc431c85	-0.011908655
167	0x3cc1f90b	0.023678323
168	0xbe23f217	-0.16010319
169	0xbd8ca997	-0.06868284
170	0xbfb6ed09	-1.4291087
171	0xbf0b4f69	-0.54418045
172	0x3f4d63cb	0.80230397
173	0xbfd1867d	-1.6369168
174	0xbfa60f3e	-1.2973402
175	0xbf46a630	-0.7759733
176	0xbd856904	-0.06514171
177	0x3f297f80	0.66210175
178	0xbe8f1c6b	-0.2795137
179	0x3ca73136	0.020409208
180	0x3dcb280c	0.09919748
181	0x3cb105a6	0.021609139
182	0xbb8bb082	-0.0042629847
183	0xbe8437d5	-0.25823846
184	0xbd53c405	-0.05170061
185	0x3e20eae7	0.15714608
186	0x3e92c8bf	0.28668782
187	0x3e5c3c49	0.21507372
188	0xbea44e7f	-0.32091138
189	0xbf2f9767	-0.68590397
190	0x3e4a2fab	0.19744746
191	0x3fad962b	1.3561453
192	0x3ee8af6f	0.45446345
193	0x3eb64e34	0.3560654
194	0xbdf3e0a9	-0.11908085
195	0xbe9db05d	-0.30798617
196	0xbf6ed046	-0.9328655
197	0xbe062c30	-0.13102794
198	0x3cdfcb9b	0.027318766
199	0xbdbbf895	-0.09178273
200	0xbf20075c	-0.6251123
201	0x3df456fa	0.11930652
202	0x3edeef0a	0.43541747
203	0x3de39d12	0.11113943
204	0xbe8a8db5	-0.2706124
205	0xbfd9a505	-1.7003485
206	0xbed8ec72	-0.42367893
207	0xbe9c4c9f	-0.30527207
208	0xbf76c167	-0.9638886
209	0x3db10d0f	0.08645069
210	0x3ed7b154	0.42127478
211	0x3ec678ad	0.38763943
212	0xbf68ca07	-0.9093327
213	0xbf197abe	-0.59952915
214	0x3c542bc4	0.012949888
215	0x3f1f2ffa	0.6218258
216	0xbdc5cb9c	-0.09657976
217	0xbd5301b4	-0.051515296
218	0x3ebff5d1	0.3749223
219	0xbdddbf84	-0.10827544
220	0x3c1e9b47	0.009680576
221	0x3f7a46e7	0.9776444
222	0x3ea5df49	0.32396916
223	0xbf7d999b	-0.9906251
224	0x3e33516d	0.1751153
225	0x4009cf24	2.1532679
226	0x3f016ee7	0.5055985
227	0x3efe375a	0.49651605
228	0xbdc286cd	-0.094983675
229	0x3e6430ca	0.22284237
230	0xbfa66ea9	-1.3002521
231	0xbdf37569	-0.118876286
232	0x3d83addf	0.06429648
233	0x3e85b6f2	0.2611614
234	0x3e4251c7	0.18976508
235	0xbdc177ed	-0.09446702
236	0x3e19b351	0.1500981
237	0xbe81b3d2	-0.25332505
238	0x3ed757d4	0.42059195
239	0xbdb58c4c	-0.0886465
240	0x3e9b6570	0.30350828
241	0xbfceffc6	-1.6171806
242	0x3e9504f6	0.29105347
243	0xbf0b1d62	-0.5434171
244	0xbe0ca2f4	-0.13734037
245	0xbd3da9a5	-0.046304364
246	0xbd5ebf1b	-0.05438147
247	0x3dfb471f	0.12269425
248	0xbc810b1b	-0.015752366
249	0x3eacc44b	0.3374351
250	0xbe0c2e58	-0.13689554
251	0xbe4cb895	-0.19992287
252	0x3e1be87e	0.15225407
253	0xbeb35a9a	-0.3503006
254	0xbf7faee9	-0.99876267
255	0xbf2d052d	-0.6758602

actor.pi_net.fcs.0.bias f4 [64]
0	0xbf1dcb7c	-0.6163862
1	0x3ddcbfea	0.10778792
2	0xbb8c3411	-0.0042786677
3	0x3e95f7ec	0.29290712
4	0xbf11214f	-0.5669145
5	0x3f253a4f	0.64542097
6	0xbf0dc2d3	-0.55375403
7	0xbeab3c44	-0.33444417
8	0xbe623293	-0.22089605
9	0x3ed78e99	0.4210098
10	0x3e427f5a	0.18993893
11	0x3e9929b1	0.2991462
12	0xbd0a6ced	-0.033795286
13	0x3eb491a1	0.35267356
14	0xbe80bd42	-0.25144392
15	0xbdd0fb78	-0.10204214
16	0xbe9ee1ec	-0.3103174
17	0x3e1494bc	0.14509863
18	0x3e093841	0.13400365
19	0x3e93eaa4	0.28889954
20	0xbdbce0ea	-0.092225865
21	0x3d28003a	0.04101584
22	0xbd8ecc4d	-0.06972561
23	0x3e6ddbea	0.23228422
24	0xbea93dcc	-0.3305496
25	0x3eb738c4	0.35785496
26	0x3c591ef6	0.013252011
27	0xbe5662cf	-0.2093613
28	0x3d2eca91	0.04267365
29	0x3e903e6c	0.28172624
30	0x3f5ff3d6	0.8748144
31	0x3f09f6d1	0.53892237
32	0xbe6e86a5	-0.2329355
33	0x3ddb59ff	0.10710525
34	0x3dd99659	0.1062438
35	0xbe9f314c	-0.31092298
36	0x3efa9c41	0.48947337
37	0xbf0d61b8	-0.5522723
38	0x3f055489	0.52082115
39	0x3ea3c1cf	0.31983802
40	0xbdd88c5a	-0.10573645
41	0xbebba916	-0.3665244
42	0xbf32609c	-0.69678664
43	0xbe574e89	-0.21026053
44	0xbed3039b	-0.41213688
45	0xbf3dc748	-0.74132204
46	0x3eaf53e9	0.34243706
47	0xbe8a7c47	-0.2704794
48	0x3e14aab0	0.14518237
49	0x3e9da4ab	0.30789694
50	0x3d869ba0	0.06572652
51	0xbe963aa0	-0.29341602
52	0x3b3424f3	0.0027487844
53	0xbd9218b8	-0.07133621
54	0x3ed00ccd	0.40634766
55	0xbf3709fc	-0.7149961
56	0xbe8ce48f	-0.27518126
57	0x3eccb1b3	0.39979324
58	0xbea2c9c6	-0.31794566
59	0xbe55777c	-0.20846361
60	0x3ec6857d	0.38773718
61	0xbcfe660c	-0.03105452
62	0xbf50975d	-0.8148096
63	0x3e2e3488	0.17012227

actor.pi_net.fcs.1.weight f4 [64, 64]
0	0xbd94d07f	-0.0726633
1	0xbd1de5ab	-0.038549107
2	0x3de1980f	0.11015331
3	0xbc840bfb	-0.016118994
4	0xbd12346e	-0.035694532
5	0xbbf46775	-0.007458622
6	0x3cc4731e	0.023980673
7	0x3ceefa87	0.029172195
8	0x3c826e32	0.015921686
9	0x3d7d74a5	0.06187882
10	0x3dc81bda	0.09770937
11	0xbd178475	-0.036991555
12	0xbe1896e0	-0.14901304
13	0x3bb17185	0.005415144
14	0xbcea7d28	-0.028624132
15	0x3ca51902	0.020153526
16	0x3cf3bf46	0.029754292
17	0xbdf13445	-0.11777548
18	0x3c8e9024	0.017402716
19	0xbded5cd6	-0.11589973
20	0x3abcfe82	0.0014419111
21	0x3c8a0999	0.01685028
22	0x3e09cade	0.13456294
23	0x3d330b61	0.043712024
24	0xbc015d7a	-0.007895822
25	0xbe3018d5	-0.17196973
26	0x3d3257ce	0.04354077
27	0xbcb5e07a	-0.022201765
28	0x3de12717	0.10993784
29	0x3dc2c773	0.09510698
30	0x3c641eec	0.013923388
31	0xbdec71da	-0.11545153
32	0xbbcc15fe	-0.0062282076
33	0xbda335de	-0.07969259
34	0x3e05eac5	0.13077839
35	0xbd05f7f0	-0.032707155
36	0x3e18951f	0.14900635
37	0x3cbb7ddd	0.022887165
38	0xbd921982	-0.071337715
39	0xbd885586	-0.06656937
40	0x3e563c84	0.20921522
41	0x3d8bea77	0.0683183
42	0xbe1c9f60	-0.15295172
43	0xbe0feb6f	-0.14054655
44	0xbb3c6848	-0.002874868
45	0x3c38ecce	0.011286927
46	0xbb4c141d	-0.0031139918
47	0x3d7cb129	0.06169239
48	0xbdae017f	-0.08496379
49	0xbde813b2	-0.113318816
50	0x3d9229f9	0.07136912
51	0x3df819a8	0.121142685
52	0x3e09542f	0.1341102
53	0xbcd4d862	-0.025982086
54	0x3dc9e1fa	0.09857555
55	0xbc79ef18	-0.015254758
56	0xbd0f7c4f	-0.03503066
57	0x3cc440e7	0.02395673
58	0x3e39c308	0.18140805
59	0x3bd34670	0.006447606
60	0xbd88d6fa	-0.066816285
61	0xbc4d6e9f	-0.012538581
62	0x3d97111d	0.07376311
63	0x3c06511c	0.008198049
64	0x3ce9881d	0.028507287
65	0x3d61d5c0	0.05513549
66	0xbd0187ec	-0.031623766
67	0xbd59b315	-0.0531493
68	0xbd0dc91b	-0.034615617
69	0xbaab9aed	-0.0013092436
70	0xbd2f1a58	-0.042749733
71	0x3cd1a57e	0.025591608
72	0x3afb2ea4	0.001916368
73	0x3cb662fd	0.022263998
74	0x3d9397ca	0.07206686
75	0xbb64c3c2	-0.003490672
76	0xbdb06dec	-0.08614716
77	0xbdebcae8	-0.11513311
78	0x3cea48e5	0.028599212
79	0x3cd9e677	0.026599152
80	0xbdb3df73	-0.08782854
81	0xbd1c0be7	-0.03809729
82	0xbe1066ae	-0.14101669
83	0x3d6c5c34	0.05770512
84	0x3c61e282	0.013786914
85	0xbcd151d6	-0.025551718
86	0x3d7a37a8	0.061088234
87	0x3e1d8175	0.15381415
88	0xbe13d967	-0.14438401
89	0xbd4a3390	-0.04936558
90	0xbd02c522	-0.03192628
91	0x3d24cb42	0.040232904
92	0x3d28c59e	0.041204087
93	0xbc88b509	-0.016687887
94	0xbd374364	-0.044742003
95	0xbdbbebeb	-0.09175857
96	0x3d23c8ba	0.03998635
97	0xbcb74831	-0.02237329
98	0xb9bb0f91	-0.00035679017
99	0xbdd377d7	-0.10325592
100	0xbd5af437	-0.053455558
101	0x3bd69084	0.0065479893
102	0x3d814ecb	0.06313857
103	0xbd334fa2	-0.043777116
104	0xbc35263f	-0.011056482
105	0x3c40e6ed	0.011773807
106	0xbd09613a	-0.033539988
107	0x3d59c7e8	0.05316916
108	0x3d159833	0.0365221
109	0xbb4ccf58	-0.0031251516
110	0xbd6455bf	-0.055745836
111	0xbdb9a985	-0.090655364
112	0x3e5055b2	0.2034519
113	0x3d2381cb	0.039918702
114	0xbd622acf	-0.055216607
115	0x3db1dabb	0.08684298
116	0xbd4b8f86	-0.04969742
117	0xbd7c02a6	-0.061525963
118	0xbc3f8dd4	-0.011691529
119	0xbc78e9be	-0.015192447
120	0xbcb202ec	-0.021729909
121	0x3ce92c2f	0.028463451
122	0x3d8e0a67	0.06935578
123	0xbd7f594c	-0.06234102
124	0xbc033539	-0.008008295
125	0xbcd53313	-0.02602533
126	0xbbb71416	-0.005587111
127	0xbe11633d	-0.14198013
128	0x3c818bd8	0.015813753
129	0xbcef8527	-0.029238297
130	0x3e23b2b5	0.1598614
131	0xbbf430dd	-0.007452114
132	0x3d6fbeea	0.05853168
133	0xbda79a08	-0.08183676
134	0x3e0322b4	0.12806207
135	0xbda8c34f	-0.08240377
136	0x3e433304	0.1906243
137	0xbd1c85fe	-0.038213722
138	0xbccfa1be	-0.02534568
139	0xbd2b8cef	-0.04188245
140	0x3c774b39	0.015093618
141	0xbd32e23e	-0.043672793
142	0xb9f462f6	-0.00046613038
143	0xbcb93be0	-0.022611558
144	0xbdab150c	-0.08353624
145	0xbe20d643	-0.15706734
146	0xbc53ad06	-0.01291967
147	0x3c7a3f98	0.015273951
148	0xbc3a4b4b	-0.01137049
149	0x3ca1d84f	0.019756464
150	0xbdd701be	-0.10498379
151	0x3e266d23	0.1625257
152	0x3d361e5e	0.044462554
153	0x3e28d07e	0.16485783
154	0x3de827cb	0.11335715
155	0xbe116634	-0.14199144
156	0xbae21dee	-0.0017251351
157	0xbce9e636	-0.028552156
158	0x3d869a88	0.06572443
159	0xbd1c9808	-0.038230926
160	0xbe058400	-0.13038635
161	0x3c8db038	0.017295942
162	0x3db31fda	0.087463096
163	0xbdaedc20	-0.08538079
164	0x3d9601cd	0.07324562
165	0x3d5506e2	0.052008517
166	0xbdf6e719	-0.12055797
167	0x3d989998	0.07451171
168	0x3d1f5362	0.03889788
169	0x3df4f26e	0.11960302
170	0xbd02b5c3	-0.031911623
171	0xbcff1918	-0.031139895
172	0xbd6511d5	-0.05592521
173	0xbd05d73a	-0.03267596
174	0xbc212cef	-0.009837373
175	0x3dad0b11	0.084493764
176	0xbd8f5d8f	-0.07000267
177	0xbcba911b	-0.02277427
178	0x3d9deb8f	0.07710945
179	0x3d3097a9	0.043113384
180	0xbcc37882	-0.023861174
181	0x3cef1873	0.029186463
182	0xbe09c593	-0.13454275
183	0x3d236643	0.039892446
184	0xbd68f15b	-0.0568708
185	0xbc421966	-0.011846876
186	0xbde82970	-0.113360286
187	0xbe14fb29	-0.14548935
188	0xbd1d1bd3	-0.038356613
189	0xbc986c8a	-0.018606443
190	0x3cc558c7	0.024090184
191	0xbb0d4bcb	-0.0021560069
192	0xbf05b7dd	-0.5223368
193	0x3d053380	0.032519817
194	0x3e883f8f	0.2661099
195	0x3e062b24	0.13102394
196	0xbd39808e	-0.045288615
197	0xbdd9a33c	-0.106268376
198	0xbe274617	-0.16335331
199	0x3e6522a8	0.22376502
200	0x3e69cf1b	0.2283291
201	0x3e80c233	0.25148162
202	0x3ed3b8f1	0.41352037
203	0x3e8401b8	0.2578256
204	0xbea72101	-0.32642367
205	0xbea06be5	-0.31332317
206	0xbdaefbed	-0.08544145
207	0xbe9e9309	-0.30971554
208	0x3d123f62	0.035704978
209	0xbd04762f	-0.03233927
210	0xbdc162b9	-0.09442658
211	0x3ebf2de8	0.3733971
212	0x3d685f33	0.056731414
213	0x3eca8a80	0.39558792
214	0xbec7351a	-0.389077
215	0x3eb512ed	0.35366002
216	0xbe9ba80c	-0.30401647
217	0xbeaebae3	-0.34126958
218	0x3f1ff7f7	0.6248774
219	0xbe88ce15	-0.26719728
220	0xbbd594ba	-0.0065179737
221	0xbe60c90f	-0.21951698
222	0x3f24036b	0.64067715
223	0x3db494be	0.08817433
224	0x3e11489d	0.14187856
225	0x3c1e4ef1	0.009662376
226	0xbe54a39d	-0.20765539
227	0xbe5eab3a	-0.21745005
228	0x3f0e9689	0.5569845
229	0xbf1355a9	-0.5755258
230	0x3f408d8d	0.7521599
231	0xbd8dfc92	-0.069329396
232	0xbed5c9e4	-0.41755593
233	0x3e0e540e	0.13899252
234	0xbf630d2c	-0.88691974
235	0x3debefea	0.11520369
236	0x3e5380b1	0.2065456
237	0xbda3a2ad	-0.07990012
238	0xbe2bab52	-0.16764572
239	0x3d757945	0.059930105
240	0x3e90c583	0.2827569
241	0xbe8ef44f	-0.27920768
242	0x3e771497	0.24128948
243	0xbebddfc3	-0.3708478
244	0x3f5b00af	0.8554792
245	0x3d7d59d7	0.061853256
246	0xbe36ff7f	-0.17870902
247	0xbf598bac	-0.8497875
248	0x3e094146	0.13403806
249	0x3daf5c94	0.0856258
250	0xbef6e1d0	-0.48219156
251	0xbd60434a	-0.05475167
252	0xbecb4972	-0.39704472
253	0xbe52ec3e	-0.20597932
254	0xbf0e6301	-0.5561982
255	0xbcfa0fb6	-0.03052507

actor.pi_net.fcs.1.bias f4 [64]
0	0x3cfb017b	0.030640354
1	0x3cb9e88b	0.022693893
2	0xbdb41bd6	-0.08794372
3	0x3db221a2	0.08697821
4	0xbbf8b9b3	-0.0075904964
5	0x3cb5c0ef	0.022186724
6	0x3ce53b59	0.0279824
7	0x3def4dba	0.11684747
8	0xbcb89d40	-0.02253592
9	0x3ea5fd98	0.3242004
10	0xbcc600de	-0.024170335
11	0xbf04471d	-0.5167101
12	0x3cb0d9b5	0.021588186
13	0x3c839aac	0.016064964
14	0xbd33402d	-0.043762375
15	0xbe897d00	-0.2685318
16	0x3d05e9b0	0.032693565
17	0xbd34a551	-0.04410297
18	0xbe64f23c	-0.2235803
19	0x3e19951f	0.14998291
20	0x3f152857	0.5826468
21	0xbcebb8a0	-0.02877456
22	0x3d89fbff	0.067375176
23	0x3bd3f447	0.006468329
24	0xbe1d005b	-0.15332167
25	0x3b7906fd	0.003799855
26	0xbcaac4c7	-0.020845784
27	0xbd94b0bd	-0.07260273
28	0xbd3b464c	-0.045721337
29	0xbe887545	-0.2665197
30	0x3d066313	0.03280933
31	0x3d55c607	0.052190807
32	0xbda7d6ff	-0.08195304
33	0x3e268528	0.16261733
34	0xbd876bf6	-0.06612389
35	0xbc495c38	-0.012290053
36	0xbd4cb2de	-0.04997527
37	0xbd8700cb	-0.06591948
38	0x3baac891	0.0052118977
39	0x3e460401	0.19337465
40	0x3c9bbf69	0.01901217
41	0xbcafe0b9	-0.02146946
42	0x3e91cdda	0.28477365
43	0xbaa54a26	-0.0012610599
44	0x3eab5359	0.33462027
45	0xbd3ec265	-0.046572108
46	0x3cecfc49	0.028928893
47	0xbe080cd6	-0.13286147
48	0x3dcf36df	0.10117888
49	0x3e683e3b	0.22679989
50	0xbd0a641e	-0.033786885
51	0xbc970066	-0.018432807
52	0xbd90e146	-0.070742175
53	0x3d39f0b9	0.045395587
54	0xbdad5344	-0.08463147
55	0xbd90fc65	-0.070793904
56	0xbc69d830	-0.0142727345
57	0x3e80e895	0.25177446
58	0xbaafbbcd	-0.001340741
59	0x3f2431cc	0.64138484
60	0xbe427e86	-0.18993577
61	0x3e03f299	0.12885512
62	0xbe1b2926	-0.15152416
63	0x3d8e6f17	0.069547825

actor.pi_net.fcs.2.weight f4 [4, 64]
0	0x3b01ebb4	0.0019824328
1	0xbc02af11	-0.007976309
2	0x3bc6313d	0.00604835
3	0xbdf62516	-0.12018792
4	0x3b46ae75	0.0030316387
5	0xbb25c770	-0.0025295876
6	0xbab72f61	-0.0013975912
7	0x3e7ea0ba	0.24866
8	0x3d342161	0.043977145
9	0xbf447fb0	-0.76757336
10	0x3a585468	0.00082523236
11	0x3eb3bf00	0.3510666
12	0xbbaaf003	-0.0052166
13	0x3a2311f7	0.00062206335
14	0x3ba81327	0.0051292363
15	0xbe9f467e	-0.3110847
16	0x3c2754a7	0.010213054
17	0xbae3118d	-0.0017323956
18	0x3d9a008e	0.07519637
19	0xb89c9ebe	-7.468228e-05
20	0x3f477d49	0.77925545
21	0x39e05304	0.0004278646
22	0x3cfca219	0.030839013
23	0x3c1b315d	0.009472218
24	0x3ca26bcd	0.019826794
25	0x3c5b2e7a	0.01337778
26	0xbdff7c7b	-0.12474915
27	0x3adbf3ce	0.0016781033
28	0xbeb140e1	-0.3461981
29	0x3e88a46c	0.26687944
30	0x3ac8005c	0.0015258896
31	0xbb38f88e	-0.0028224322
32	0x3e3862b9	0.1800641
33	0x3c5eef9c	0.013606932
34	0xbe344666	-0.1760498
35	0x3c81d552	0.01584879
36	0x3af76530	0.0018874761
37	0xbcbd13a5	-0.023080656
38	0x3e4b37df	0.19845532
39	0xbe4182a1	-0.18897487
40	0x3bdc6d12	0.0067268694
41	0x3c0b579b	0.0085047735
42	0x3dfb10e3	0.1225908
43	0xbc3eebe8	-0.011652924
44	0x3ddc44cb	0.10755309
45	0x3e3f6d2c	0.1869399
46	0xba73a43f	-0.0009294189
47	0xbdcbdb8e	-0.09953986
48	0x3e1cf0f9	0.15326299
49	0x3e41d266	0.18927917
50	0x3eb7f6c8	0.35930467
51	0xbed62008	-0.41821313
52	0x3cead189	0.028664367
53	0x3bfa562f	0.0076396684
54	0x3c57549c	0.013142731
55	0x3dc7a071	0.09747399
56	0x3c8750d8	0.016518041
57	0x3e053912	0.13010052
58	0x3d02d467	0.031940844
59	0x3ee56970	0.44807005
60	0x3e170750	0.14748883
61	0xbb6b4fb8	-0.003590567
62	0x3dde41ef	0.108524196
63	0xbe9f58a6	-0.3112232
64	0x3bc6346a	0.0060487287
65	0x3b4dbfef	0.003139492
66	0xbc89a968	-0.016804412
67	0xbdfddc69	-0.123955555
68	0x3c151853	0.009100038
69	0x3b8bd2a7	0.004267055
70	0x3b150d1d	0.0022743412
71	0xbd09f1f5	-0.033678014
72	0xbb4d482b	-0.0031323533
73	0xbd31a97a	-0.043374516
74	0xbb4dea35	-0.0031420116
75	0x3e6a4ea3	0.2288156
76	0xbc7de9e6	-0.01549766
77	0x3b5f1652	0.0034040404
78	0xbbb2f8bc	-0.0054617804
79	0xbd819257	-0.0632674
80	0x3c0db41d	0.008648899
81	0xbb293f98	-0.0025825258
82	0x3dd0393d	0.10167167
83	0x3d0854fe	0.03328418
84	0xbe85f796	-0.26165456
85	0x3c806702	0.015674118
86	0xbba7134f	-0.0050987373
87	0x3c2fe1f5	0.010735025
88	0xbc729115	-0.014805098
89	0x3c80d48f	0.015726356
90	0x3e798fac	0.24371213
91	0x3ba46b30	0.0050176606
92	0xbe8c426d	-0.2739443
93	0xbeb327b4	-0.3499123
94	0x3c629d6c	0.013831478
95	0x3ac5887d	0.0015070584
96	0xbdb1530a	-0.086584166
97	0xbbc523b0	-0.006016217
98	0xbe9a615e	-0.3015241
99	0xbb8b95e8	-0.0042598136
100	0xbcda8433	-0.026674366
101	0x3ada0a75	0.0016635197
102	0x3f07ebf2	0.530944
103	0x3da1663d	0.078808285
104	0xba15b40c	-0.0005710728
105	0xbb434bb9	-0.0029799773
106	0x3da8bdf5	0.082393564
107	0xbc978ad4	-0.018498816
108	0x3d2e91a6	0.04261937
109	0xbe8ee708	-0.27910638
110	0xbcdfd5cb	-0.027323624
111	0xbdf0e935	-0.11763231
112	0x3d418992	0.047250338
113	0xbd383e85	-0.0449815
114	0xbe962061	-0.29321578
115	0x3ec0d922	0.3766566
116	0xba3b0cde	-0.0007135401
117	0xbb39d38b	-0.002835485
118	0xbce3e17f	-0.027817486
119	0xbe56f9bf	-0.20993708
120	0xbe9fd41e	-0.3121652
121	0x3b0b517f	0.0021258292
122	0x3cc5b206	0.02413274
123	0xbde84e45	-0.11343054
124	0x3e764b3b	0.24052136
125	0x3c3883e6	0.011261916
126	0x3c646caa	0.013941923
127	0xbf0f8f33	-0.5607788
128	0x3ad3267b	0.001610949
129	0xbc55448e	-0.013016833
130	0x3c46f70b	0.012143861
131	0xbe8d9140	-0.2764988
132	0xbbc79d70	-0.006091766
133	0x3c055fd0	0.008140519
134	0x3be557c6	0.006998989
135	0xbe8d3cfc	-0.2758559
136	0xbbd9dafb	-0.006648419
137	0x3eb2e85c	0.349429
138	0xbaf098f7	-0.0018356134
139	0xbf04008e	-0.51563346
140	0xbc52354c	-0.01283009
141	0x3b594178	0.0033150595
142	0xbabbe4c5	-0.0014335146
143	0x3df4ce59	0.1195342
144	0x3be0a358	0.0068554096
145	0xbb7ff1b4	-0.0039053978
146	0xbdec503b	-0.1153874
147	0xbc1caa72	-0.009562122
148	0xbe6b516a	-0.22980276
149	0xbc2aaefb	-0.010417695
150	0x3b23af75	0.0024976407
151	0xbb1f1359	-0.0024273007
152	0xbbb46675	-0.005505378
153	0xbc666185	-0.014061336
154	0xbe7173a0	-0.23579264
155	0x3b5efdd3	0.0034025803
156	0xbe992ef8	-0.29918647
157	0xbe68c655	-0.22731908
158	0xbbb246aa	-0.0054405527
159	0xbce6e2df	-0.028184352
160	0xbb614aa9	-0.0034376776
161	0xbc2104ae	-0.009827776
162	0x3d3f6f1c	0.04673682
163	0x3c19a79a	0.009378338
164	0x3cba10bd	0.02271306
165	0x3cf6f9ee	0.030148473
166	0xbdde8f0c	-0.10867128
167	0x3e4503e3	0.19239764
168	0x3b3e21ba	0.0029011802
169	0x38993990	7.3063304e-05
170	0x3e604c2a	0.21904054
171	0x3cc124af	0.023577062
172	0xbdedf180	-0.11618328
173	0x3e7f84a2	0.24952939
174	0x3c558ac3	0.013033572
175	0xbded356f	-0.11582457
176	0xbee194ef	-0.4405894
177	0xbc043cdd	-0.008071152
178	0xbe3723e9	-0.17884792
179	0xbd8383a1	-0.064215906
180	0xbceab2d7	-0.02864973
181	0xbba27efa	-0.0049589844
182	0x3b3c3c00	0.0028722286
183	0xbeaf0b60	-0.34188366
184	0x3c417d73	0.011809695
185	0x3e02bf53	0.12768297
186	0xbc37092e	-0.011171622
187	0xbeb0f7d8	-0.3456409
188	0xbd9c5710	-0.07633793
189	0x3c37b9ab	0.0112137
190	0xbe0b0da9	-0.1357943
191	0xbbb157e0	-0.005412087
192	0x3ac0b091	0.0014701058
193	0x3b5ee220	0.0034009293
194	0xbc4d0a00	-0.012514591
195	0x3e465b94	0.19370872
196	0x3b931e08	0.004489664
197	0x3a8487b7	0.0010111247
198	0x3ac12025	0.0014734311
199	0x3f05067a	0.5196301
200	0xbce70234	-0.028199293
201	0x3d7a594f	0.061120328
202	0xbb8a683f	-0.004223853
203	0x3d8764a9	0.06610996
204	0x3c87e3d0	0.016588122
205	0x389ec642	7.5709555e-05
206	0xbb33a5c2	-0.0027412032
207	0x3c772edb	0.015086855
208	0x3b2704e5	0.0025485095
209	0xba526849	-0.0008026404
210	0xbe028f4e	-0.12749979
211	0x3c4d6af5	0.012537708
212	0xbda986a4	-0.08277634
213	0x3c625dde	0.013816325
214	0xbbd93eba	-0.006629792
215	0x3bc0dca2	0.0058856765
216	0xbb2896ae	-0.0025724578
217	0x3a8b4a82	0.0010627063
218	0x3d0c4b1d	0.03425132
219	0x3b9f6f67	0.004865575
220	0xbcc67695	-0.024226466
221	0x3d573d97	0.05254897
222	0x3c4a2014	0.01233675
223	0xbb16b775	-0.0022997533
224	0xbe531b6b	-0.20615928
225	0xbcf54a0c	-0.029942535
226	0x3ce481bb	0.027893892
227	0x3b02400c	0.00198746
228	0xbcff9240	-0.031197667
229	0x3cd1e89d	0.025623614
230	0xbe69ec48	-0.2284404
231	0xbe30af2e	-0.17254326
232	0xbbf231b9	-0.0073911813
233	0xbb55ed4d	-0.0032642663
234	0x3e85f6ed	0.26164952
235	0x3b698913	0.003563468
236	0xbe74558b	-0.23860757
237	0xbd30f970	-0.043206632
238	0xbca16e6d	-0.019705975
239	0xbc6c1d65	-0.014411305
240	0xbe8d1990	-0.27558565
241	0x3f0e1f26	0.5551628
242	0x3e4f200c	0.20227069
243	0xbe829f83	-0.25512323
244	0xbd227a60	-0.039667487
245	0xbb655163	-0.0034991137
246	0xbcac5ee1	-0.021041336
247	0x3e80f000	0.25183105
248	0x3e799a11	0.24375178
249	0x3e3ccab3	0.18436699
250	0x3d92d91d	0.07170317
251	0xbe2df001	-0.16986085
252	0xbe3e6fbe	-0.18597314
253	0x3c8162f7	0.01579426
254	0xbe853ea1	-0.26024345
255	0x3e5b24bb	0.2140073

actor.pi_net.fcs.2.bias f4 [4]
0	0x3d34d80b	0.044151347
1	0xbdc6943d	-0.09696243
2	0x3ed23f33	0.41063842
3	0x3debf195	0.115206875

critic.v_net.fcs.0.weight f4 [64, 17]
0	0xbf91bd5f	-1.1385916
1	0xc0406328	-3.006052
2	0xbe60a597	-0.21938168
3	0x4129ab8f	10.604384
4	0xc0a13640	-5.0378723
5	0xbe393266	-0.18085632
6	0x4008ba39	2.1363661
7	0xbf490e9a	-0.78537905
8	0xc022d459	-2.5442107
9	0xbf539fc9	-0.8266569
10	0x3cc42f9f	0.023948489
11	0x395531b6	0.00020331782
12	0x3c47b011	0.012187974
13	0x3e46e3ca	0.19422832
14	0xbe0bc0ae	-0.1364772
15	0xbdd1aa2a	-0.10237534
16	0x3d57312d	0.052537132
17	0xbe32151d	-0.17390867
18	0x3e3751a6	0.1790224
19	0xc00fcdd4	-2.2469378
20	0x3e851c89	0.25998333
21	0xc05659d7	-3.3492334
22	0x3eafb0fe	0.34314722
23	0xc081ec68	-4.060108
24	0x3f5979b4	0.8495133
25	0xbf949641	-1.1608354
26	0x3f8cc7c5	1.0998465
27	0xbe287cdd	-0.16453882
28	0x3db5480b	0.08851632
29	0x3e368df4	0.17827588
30	0x3df5ef91	0.12008584
31	0x3e2ca492	0.16859654
32	0xbead250a	-0.3381732
33	0x3d89eb68	0.06734353
34	0x40136e29	2.3035986
35	0x3fd69184	1.6763158
36	0xbf9182a0	-1.1367989
37	0xbf8ef33b	-1.1167978
38	0x40c37114	6.1075535
39	0xc00367b6	-2.053205
40	0x40594baf	3.3952444
41	0x40343761	2.81588
42	0x3f600df4	0.8752129
43	0xbfc4424d	-1.5332733
44	0xbc4e2522	-0.012582095
45	0xbe11482c	-0.14187688
46	0xbf41e18c	-0.7573478
47	0xbe129099	-0.14312972
48	0x3eadac06	0.33920306
49	0x3d6d6beb	0.057964247
50	0x3e08a79f	0.13345192
51	0xc0c926e1	-6.285996
52	0xc0f919fe	-7.784423
53	0x3f8c4efe	1.0961607
54	0x40767061	3.850609
55	0xc0381865	-2.876489
56	0xbf2aace5	-0.66670066
57	0xc04b74c8	-3.1790028
58	0xc003ffb9	-2.062483
59	0xbf9e74ce	-1.2379396
60	0xbfb76de1	-1.4330407
61	0x3e2384f1	0.15968682
62	0xbe1e9838	-0.15487754
63	0xbe8fbf77	-0.28075764
64	0xbdf1c9a1	-0.11806036
65	0x3ce294e0	0.02765888
66	0xbc7f0339	-0.015564733
67	0xbd11c14b	-0.03558473
68	0x3ed5606c	0.41675127
69	0xc08a03a5	-4.312945
70	0xbec2bd63	-0.38035116
71	0x3e94ac4c	0.29037702
72	0x4064fad7	3.57781
73	0xbfc55bc4	-1.541863
74	0x40b0f129	5.5294385
75	0xbfdf02c9	-1.7422725
76	0x401c65bf	2.44371
77	0x406cda0d	3.7008088
78	0xbef27ac4	-0.47359288
79	0xbf06bb3d	-0.5262945
80	0x3fcdb952	1.607218
81	0xbe008d5f	-0.12553929
82	0xbd9817ba	-0.074264005
83	0xbf24b35e	-0.6433619
84	0x3a37f99d	0.0007018091
85	0xc0b42c11	-5.630379
86	0x40df22b2	6.9729853
87	0xbf852e57	-1.0404767
88	0x3f7c589e	0.9857272
89	0x3feeafa0	1.8647346
90	0xc02d0a1a	-2.7037416
91	0xc040453d	-3.004226
92	0x3e02f2e2	0.12787965
93	0x3ff252ec	1.8931556
94	0xbfa468cd	-1.2844483
95	0xbe4f84ee	-0.20265552
96	0x3eb8502f	0.35998675
97	0x3f01373a	0.50474894
98	0xbe4d7477	-0.20063959
99	0xbda3e058	-0.080017745
100	0xbe0235e2	-0.12715867
101	0xbb256a27	-0.0025240274
102	0x3f98e090	1.1943531
103	0x3f169620	0.5882282
104	0x3f906714	1.1281457
105	0xbed08bf6	-0.40731782
106	0xbfda1039	-1.7036201
107	0x409c808e	4.8906927
108	0xbf20617a	-0.6264874
109	0x3f3a0c83	0.7267534
110	0xbfa6e5e0	-1.3038902
111	0x3f48ff6e	0.78514755
112	0xbda255be	-0.0792651
113	0xbe09a4fe	-0.13441846
114	0xbf1d91fd	-0.61550885
115	0x3d94846c	0.0725182
116	0x3d7930a2	0.060837395
117	0xbe68184c	-0.22665519
118	0x3d632f79	0.055465195
119	0xbf70a463	-0.94000834
120	0xc0465c8e	-3.099399
121	0x4012ab26	2.291696
122	0xc043fa91	-3.0621684
123	0x3f36c871	0.713996
124	0xbf786225	-0.97024757
125	0x40981a48	4.753208
126	0xbfa3f692	-1.2809622
127	0x408001af	4.0002055
128	0x4016b9a0	2.3550797
129	0x3ebe4360	0.37160778
130	0x3e718e0d	0.23589344
131	0xbdd2fb8a	-0.103018835
132	0xbebc6df2	-0.36802632
133	0xbea476e9	-0.3212197
134	0x3ebf758b	0.37394366
135	0x3af4a1b8	0.0018663919
136	0xc08b6c97	-4.3570056
137	0xc0a0372d	-5.0067353
138	0xc06c41b0	-3.6915092
139	0xbf296bb3	-0.6617996
140	0xc05b6a79	-3.4283736
141	0xc0911834	-4.5342045
142	0xbe6fa5f0	-0.23403144
143	0xbfe9f669	-1.8278323
144	0x402cda9d	2.700843
145	0xbe0763fe	-0.13221738
146	0xbe7bd04c	-0.24591178
147	0xbd6e0fd0	-0.05812055
148	0x3df1d569	0.11808283
149	0x3e12be42	0.1433039
150	0x3dc156b9	0.09440369
151	0x3d86a050	0.06573546
152	0x3e333b6c	0.17503136
153	0x400c05bd	2.1878502
154	0xbf9eba2c	-1.2400565
155	0xbfc44772	-1.5334303
156	0x40965206	4.6975126
157	0xc053ad19	-3.30744
158	0xc0454a1e	-3.0826488
159	0xc0a7f9f2	-5.249261
160	0xbf40aea5	-0.75266486
161	0xbf1f32de	-0.6218699
162	0x3f059d0a	0.5219275
163	0x3e9df30b	0.3084949
164	0xbf17bf88	-0.5927663
165	0x3db11346	0.08646254
166	0x3dc2ae9e	0.09505962
167	0x3e1138bf	0.14181803
168	0xbdc63df5	-0.09679786
169	0x3ceb9a31	0.028760048
170	0xbf3a6404	-0.7280886
171	0xc18c77e1	-17.558535
172	0x3ede9a11	0.43476918
173	0x3f7592ec	0.9592731
174	0xbf665a75	-0.89981776
175	0x4040b8b8	3.0112743
176	0xbf7ed228	-0.99539423
177	0x3fca9aef	1.5828532
178	0xbfe80e59	-1.8129379
179	0xbff7ee70	-1.936964
180	0x3d170ce6	0.036877535
181	0x3bcb4f9b	0.006204558
182	0x3e2ddf5a	0.16979733
183	0x3d8e8cb3	0.0696043
184	0x3e131d07	0.14366542
185	0xbc1797c0	-0.009252489
186	0x3d930838	0.07179302
187	0xc123d743	-10.240054
188	0xc0087579	-2.13217
189	0x3f0344be	0.5127677
190	0xbfe85f78	-1.8154135
191	0x3ff3da56	1.9051006
192	0x408c880a	4.3916063
193	0xbf871c54	-1.055552
194	0x3dd9abb4	0.10628453
195	0xbe8076bb	-0.25090584
196	0x3f4adf3e	0.7924689
197	0xbd21c25a	-0.03949199
198	0xbbf0ee95	-0.00735266
199	0x3da5baba	0.08092256
200	0x3c85c387	0.016328586
201	0xbc99c184	-0.018769033
202	0xbcd8e838	-0.026477918
203	0xbcc3347e	-0.023828741
204	0xbfac58a7	-1.3464555
205	0xc06a7fcb	-3.6640499
206	0xbf645b24	-0.8920157
207	0xc0163b66	-2.3473754
208	0xc060cf5d	-3.5126565
209	0xc09d7ec5	-4.921725
210	0xc06844c4	-3.6291971
211	0xbd70cbf8	-0.05878827
212	0xbfa0e311	-1.2569295
213	0xbf17d959	-0.5931602
214	0x3dcd24b8	0.10016769
215	0xbeb6f7a4	-0.3573581
216	0xbe911d5a	-0.28342706
217	0x3d45b092	0.048264094
218	0x3e607bbb	0.219222
219	0x3e2dfef0	0.16991782
220	0x3ded94eb	0.116006695
221	0xc04b4fda	-3.1767488
222	0x3f52b1cd	0.8230255
223	0xc01c7782	-2.4447942
224	0xc0b1c128	-5.5548286
225	0x3ef1dec8	0.4724028
226	0xbf16480f	-0.587037
227	0xc09295af	-4.580772
228	0xbfbe0bc9	-1.4847347
229	0xbea8805f	-0.3291044
230	0xbf35bef9	-0.70994526
231	0x3ea8b926	0.32953757
232	0xbef86d19	-0.48520735
233	0xbe6fe5c1	-0.23427488
234	0x3eac858e	0.33695644
235	0xbef5fb76	-0.48043412
236	0xbecae49b	-0.39627537
237	0xbe2ba150	-0.16760755
238	0xc0b48180	-5.640808
239	0xc0aad60c	-5.338629
240	0x3ffb6339	1.9639655
241	0xbfcf0fdc	-1.6176715
242	0xc0806637	-4.0124774
243	0x3f6cbb4c	0.9247329
244	0x400bf2f0	2.1867027
245	0xbfb0e3c3	-1.3819507
246	0x404767d0	3.1157112
247	0x401885eb	2.3831737
248	0x3debe3fe	0.115180954
249	0xbedaaf50	-0.42711878
250	0x3f0e1d2a	0.5551325
251	0xbeaaaa1d	-0.3333291
252	0x3dd8e459	0.10590429
253	0xbd2178e5	-0.039421935
254	0x3e2007fe	0.15628049
255	0xc0424de2	-3.0360036

critic.v_net.fcs.0.bias f4 [64]
0	0x3f92c359	1.1465865
1	0xc08c697b	-4.387876
2	0x3fe577eb	1.7927221
3	0xbfac1bf0	-1.3446026
4	0xbed79a47	-0.42109892
5	0xbf2857c6	-0.6575893
6	0x3ffed9f6	1.9910266
7	0x403b9d84	2.931489
8	0xc02f18f5	-2.7358983
9	0x3e1210f2	0.14264277
10	0x3fe312ee	1.7740152
11	0x3f6d9487	0.9280476
12	0xbfca5e42	-1.5810015
13	0xc01df018	-2.4677792
14	0x3fbc2374	1.469832
15	0x3eced70c	0.40398443
16	0x3f8f93bc	1.121696
17	0x3d681d5e	0.05666863
18	0x3f91ff40	1.1406021
19	0xc028ae94	-2.6356554
20	0x3fc45e45	1.5341269
21	0x3fb13639	1.3844672
22	0xc00bd066	-2.1845946
23	0x3f8a6cf1	1.0814496
24	0x4034b74b	2.8236873
25	0x3ff9aa9e	1.9505193
26	0x3ec18ad4	0.3780123
27	0xbfc18271	-1.5117933
28	0xc04ce29a	-3.2013307
29	0x403cb878	2.948759
30	0x4025945c	2.5871801
31	0xbeb2cdab	-0.34922537
32	0x3f49e010	0.7885752
33	0x401f06c9	2.4847891
34	0x405eb64b	3.4798763
35	0x4039ada3	2.901223
36	0xc03265af	-2.7874563
37	0x3fac3e90	1.3456593
38	0x405fdeb3	3.4979675
39	0xbffa1e09	-1.9540416
40	0xc0011bb1	-2.0173151
41	0x402c741a	2.6945863
42	0xbdea6ae1	-0.11446167
43	0x3fd5f101	1.6714174
44	0x4022ea24	2.5455408
45	0x3f668cd5	0.9005864
46	0x3fec6f8b	1.847154
47	0x3fcb8fb3	1.5903229
48	0xc096e4bd	-4.715422
49	0xbe589692	-0.21151188
50	0x3ee762a5	0.45192447
51	0xc031b236	-2.7765021
52	0x401098bc	2.2593222
53	0xc061091d	-3.5161812
54	0x3fa981c3	1.3242725
55	0x3eb3607a	0.35034543
56	0x40212f38	2.518507
57	0x40005ab8	2.005537
58	0x3f44f962	0.7694303
59	0x3faaef1b	1.3354219
60	0x3fca8e38	1.5824652
61	0x3fa41d4b	1.282144
62	0xbe7a269a	-0.24428788
63	0x3eab47d3	0.33453235

critic.v_net.fcs.1.weight f4 [64, 64]
0	0x3e4a6c95	0.19767983
1	0xbfdb6dca	-1.714288
2	0x3f0a4692	0.5401393
3	0x3fcbbe06	1.5917366
4	0xbed6c699	-0.41948393
5	0xbf5010a4	-0.8127539
6	0xbf9995ee	-1.199888
7	0x3ec3a68c	0.38213003
8	0xbfacaf3d	-1.3490978
9	0xbf5907b8	-0.847774
10	0xbe483b22	-0.19553807
11	0xbfcb20fb	-1.586944
12	0xbf9633ef	-1.1734599
13	0xbf8e30c3	-1.1108631
14	0x3f48ca76	0.7843393
15	0x40115c4c	2.2712584
16	0x3c7c7e85	0.015411024
17	0xbf9238e1	-1.1423608
18	0x3ff0eec1	1.8822862
19	0xbef79285	-0.48353973
20	0x3eaf718b	0.34266314
21	0x3f3d3606	0.7391056
22	0x3e4fb714	0.20284683
23	0xbf1d9ff1	-0.61572176
24	0x404700f7	3.109434
25	0xbd0d60ac	-0.03451602
26	0xbfd33f6d	-1.6503731
27	0x3ea117ae	0.3146338
28	0xbf452017	-0.7700209
29	0x4000ace7	2.0105531
30	0xbf1a28eb	-0.60218686
31	0xbeccb2c0	-0.39980125
32	0xc002f45a	-2.046164
33	0x3e308876	0.17239556
34	0x3e04dec3	0.12975602
35	0xc080de72	-4.027154
36	0xbf07b18e	-0.530053
37	0xbf870fe8	-1.0551729
38	0xbd80da6f	-0.06291663
39	0xbfa1e597	-1.264819
40	0x3e9c7e52	0.30565125
41	0x3fc53f8a	1.5410016
42	0x3f13ac4b	0.57684773
43	0xbe40790a	-0.18796173
44	0x3f98028e	1.187578
45	0xbea8ed41	-0.3299351
46	0x3f0e3669	0.55551773
47	0xbe181b1e	-0.14854094
48	0xc01140d0	-2.2695808
49	0x3f9beb52	1.2181189
50	0x3f7b76ab	0.9822795
51	0x40825bd9	4.073712
52	0x3fad5057	1.3540143
53	0xc01dbd7f	-2.464691
54	0x3effef39	0.499872
55	0x3f5b8554	0.8575032
56	0x3edeca38	0.43513656
57	0x3f8db9f3	1.1072372
58	0xbfba814a	-1.4570706
59	0xbfcaa1b1	-1.5830594
60	0x3f4336a3	0.76255244
61	0xbd1f99a0	-0.038964868
62	0x3c169510	0.009190813
63	0x3f364153	0.71193427
64	0x40599b17	3.400091
65	0xbfd7b545	-1.6852194
66	0xbf12211a	-0.5708176
67	0xbee008cc	-0.4375671
68	0x3f5ebb6c	0.87004733
69	0x3e095f72	0.13415316
70	0x3e530fd2	0.20611504
71	0xbfd76ee2	-1.6830714
72	0xbe9c5336	-0.30532235
73	0xbde5fab3	-0.11229458
74	0xc0173660	-2.3626938
75	0x3feb6689	1.8390666
76	0x3c499926	0.01230458
77	0x3f88fdfb	1.0702509
78	0x3f909e25	1.1298262
79	0xbe9bf828	-0.30462766
80	0x3fb6cfed	1.4282204
81	0x3f3e035b	0.7422387
82	0x3ea2718b	0.3172725
83	0x40368cc5	2.852342
84	0x3e1d2351	0.15345503
85	0x3dd7daac	0.10539755
86	0xc00cab8e	-2.1979709
87	0x3e7a251b	0.24428217
88	0x3e562861	0.20913841
89	0xbf229522	-0.6350881
90	0x3edf9759	0.43670157
91	0x3e8511fd	0.25990286
92	0xbd0f66ee	-0.03501027
93	0x4017265b	2.361716
94	0xbfc6ed9e	-1.5541265
95	0xc0176fe2	-2.3662038
96	0xbed492e9	-0.41518334
97	0x3f843da4	1.0331311
98	0xbead334a	-0.33828193
99	0xbf6fe067	-0.93701786
100	0xbdc13b25	-0.09435109
101	0x3f87d1d7	1.0610913
102	0xbdac298a	-0.084063604
103	0x3f8e40e4	1.1113553
104	0x3eaa13b8	0.3321817
105	0x3f832786	1.0246437
106	0xbb359aa0	-0.0027710572
107	0xbfad4209	-1.3535777
108	0xbf0ec898	-0.5577483
109	0x3f7d0929	0.988421
110	0xbe840ca1	-0.25790885
111	0x3fecd2b5	1.8501803
112	0xc02c37a3	-2.6908958
113	0xc001b902	-2.026917
114	0x3e25255c	0.16127533
115	0xbf0a9d63	-0.54146403
116	0x3f3a8cf0	0.72871304
117	0xbfd2e984	-1.6477513
118	0x3f35f9aa	0.7108408
119	0xbf038b4f	-0.51384443
120	0x3fe296e0	1.7702293
121	0x3fed88b9	1.855735
122	0x3d0c3c38	0.034237117
123	0x3fb4a3ba	1.4112465
124	0x3f442a41	0.76626974
125	0x3f15d352	0.58525574
126	0x3ffd2f04	1.9779973
127	0xbefad5fd	-0.48991385
128	0xbe975693	-0.29558238
129	0xc00a5814	-2.1616259
130	0x40637983	3.5542915
131	0xbff058b3	-1.8777069
132	0x3fe6a396	1.8018672
133	0x3fc4938e	1.535753
134	0x3edb6c7f	0.42856213
135	0x3fab9826	1.3405807
136	0xbf9c948c	-1.2232833
137	0x3f476572	0.7788917
138	0xbf93b964	-1.1540952
139	0x3f2932ff	0.6609344
140	0x3f3789fe	0.71694934
141	0xbe16d4f6	-0.14729676
142	0x3fa26b6b	1.2689031
143	0x3f8d1a62	1.1023676
144	0x3f927ab3	1.1443695
145	0xc027684e	-2.6157413
146	0xbec0dbbc	-0.37667644
147	0xbf34b2c8	-0.705853
148	0xbf4f1cb6	-0.80903184
149	0x3fcb7b1d	1.5896946
150	0x3d7bee10	0.06150633
151	0x3f21a682	0.63144696
152	0xc011456f	-2.269863
153	0xbe1b200b	-0.15148942
154	0xbfd806e1	-1.6877099
155	0xbf2bdaf8	-0.67130995
156	0xbf037b8b	-0.51360387
157	0xbfc9f3c6	-1.5777519
158	0x3f85ea8a	1.0462201
159	0x3f366fea	0.7126452
160	0x3fc3efd5	1.5307566
161	0xbed2eb78	-0.41195273
162	0x3f6db157	0.92848724
163	0xbeacfdf1	-0.33787492
164	0x3fbf59d4	1.4949288
165	0xbf4b687a	-0.79456294
166	0xc0017136	-2.0225348
167	0x3efbe5d5	0.49198785
168	0x3f7b4b45	0.9816173
169	0xbf3ecc68	-0.7453065
170	0x3f447d4b	0.7675368
171	0x3fed234e	1.8526399
172	0x3c56c784	0.013109092
173	0xbe515e93	-0.20446233
174	0x3ed51ad0	0.4162202
175	0x3f53668d	0.82578355
176	0xbffe68c1	-1.9875718
177	0xbf728d22	-0.947466
178	0x3f170f1d	0.59007436
179	0xbf839458	-1.0279646
180	0xbe8d83af	-0.2763953
181	0xbe29489c	-0.16531605
182	0x40072778	2.111784
183	0xbf5464b6	-0.8296617
184	0x4007e5ab	2.1233928
185	0x40558ac7	3.3365953
186	0x3fa54d36	1.2914188
187	0x3f62594d	0.8841751
188	0x3f60d328	0.878222
189	0xbf900fa7	-1.1254777
190	0x4027d4e3	2.6223686
191	0xbfda30bd	-1.7046124
192	0xbf2040b1	-0.6259871
193	0x3e4eb7a9	0.20187248
194	0x3fb07cb8	1.3788061
195	0xbe9df438	-0.30850387
196	0x3fd47382	1.659775
197	0x3d5a0b7b	0.053233605
198	0xbe30294f	-0.17203258
199	0xbd03cc04	-0.032176986
200	0x3e90e5f1	0.2830043
201	0xbf7fe4a8	-0.99958277
202	0x3f5affdd	0.85546666
203	0xbdee2055	-0.116272606
204	0xbda86f4a	-0.08224352
205	0x3fa8755d	1.3160816
206	0x3f82cb06	1.0218208
207	0x400e0345	2.2189496
208	0x3f34353b	0.70393723
209	0x3f3d7c09	0.7401739
210	0x3eda2908	0.4260943
211	0xbde976ef	-0.11399638
212	0x3f355c77	0.70844215
213	0x3fefe0ca	1.8740475
214	0xbf9d1c29	-1.2274219
215	0xbf3bf659	-0.7342277
216	0xbdbe53b9	-0.092933126
217	0x3ee73dff	0.45164487
218	0xbf161449	-0.586247
219	0x3f1fa4e9	0.6236101
220	0xbfebfb87	-1.8436135
221	0xbf7f9b88	-0.99846697
222	0xbecf4454	-0.40481818
223	0xbfd84898	-1.6897154
224	0x3fac2a3f	1.3450392
225	0x3fd36624	1.6515546
226	0xbd8be6a5	-0.06831101
227	0x3fbf3607	1.4938363
228	0xbedee440	-0.43533516
229	0xbea5e6f0	-0.32402754
230	0x3d2f7da6	0.042844437
231	0xbfc255ef	-1.5182475
232	0xc009dc14	-2.1540575
233	0x403131c8	2.7686634
234	0x40204141	2.5039828
235	0x3fe00fff	1.7504882
236	0x40036b22	2.0534139
237	0x3f9bd172	1.2173293
238	0x3fb88248	1.4414759
239	0x3e898304	0.2685777
240	0xbfd94435	-1.697394
241	0x3ce8b369	0.028405862
242	0x3f46fbb8	0.7772784
243	0x3e3f9226	0.18708095
244	0x3eea47e6	0.4575798
245	0xbf18f65b	-0.5975091
246	0x3f46a4b8	0.7759509
247	0x401d68ca	2.4595208
248	0x3eb59a41	0.3546925
249	0xbfcf033c	-1.6172862
250	0x3ffcea23	1.9758953
251	0x3f33e92e	0.7027768
252	0x3e6b2ff1	0.22967507
253	0x3f6aad9e	0.9167117
254	0xbf968eec	-1.1762366
255	0xbe918795	-0.28423753

critic.v_net.fcs.1.bias f4 [64]
0	0x4036bf91	2.8554423
1	0x404eb3ee	3.229732
2	0x402b0d80	2.672699
3	0x4004ff12	2.0780683
4	0xc06160e2	-3.5215383
5	0xc00ac095	-2.1680043
6	0xbfef82b5	-1.8711764
7	0xc014dba2	-2.3259053
8	0x404d76bd	3.2103722
9	0x3ffc0390	1.9688587
10	0xbf23bb1b	-0.63957375
11	0x4008fefe	2.1405635
12	0xc045ff8a	-3.0937219
13	0xbfecab26	-1.848973
14	0x401716ae	2.3607593
15	0xc045af75	-3.088834
16	0x402dc1d5	2.7149556
17	0x40193f4a	2.3944879
18	0x3fe7ce0d	1.8109757
19	0x400f9b47	2.2438524
20	0xc0190256	-2.3907676
21	0xc02cc69f	-2.6996229
22	0x4030873a	2.7582536
23	0xbff65e6e	-1.9247568
24	0x400fa15b	2.2442234
25	0xc0151405	-2.329347
26	0x3f2e4f39	0.68089634
27	0x402146c9	2.5199454
28	0x3fcad1cd	1.5845276
29	0x3e956839	0.29181078
30	0x4038c3ec	2.8869581
31	0xbfdb554c	-1.7135406
32	0xc0443fc3	-3.0663917
33	0x3fe87ea0	1.8163643
34	0x3fed2e13	1.8529686
35	0x400f8329	2.2423804
36	0xc00b0fca	-2.1728387
37	0xbfbf6af1	-1.4954511
38	0xc00e5b7c	-2.2243338
39	0xc01f994f	-2.4937322
40	0x4024a8ad	2.5727952
41	0xc0158c86	-2.3367019
42	0x404750c5	3.1143048
43	0xc00d4367	-2.207239
44	0x403ed28b	2.9816005
45	0x3fc15f47	1.5107201
46	0xc0109691	-2.2591898
47	0xc041d2c9	-3.0284903
48	0x407f0f63	3.9853141
49	0x3fd4e44b	1.663217
50	0xc016b5da	-2.3548493
51	0x40069f8e	2.1034884
52	0x3fc8ea27	1.5696458
53	0x40425de6	3.036981
54	0x403a06c3	2.9066627
55	0xc0678ddb	-3.6180332
56	0xc028ceb4	-2.6376162
57	0xbfb3a88f	-1.4035815
58	0x3f52c1a7	0.8232674
59	0x401d7052	2.4599805
60	0xc009ee33	-2.1551635
61	0xbfbd7b10	-1.4803181
62	0xbff971a6	-1.9487808
63	0xc008bde1	-2.1365893

critic.v_net.fcs.2.weight f4 [1, 64]
0	0xc00af970	-2.1714745
1	0xc066dfe2	-3.6074147
2	0xc03016a8	-2.7513828
3	0xbff7df6e	-1.936506
4	0x40789c79	3.8845503
5	0x40009cb1	2.0095637
6	0x406c85b4	3.6956606
7	0x406ae0a7	3.6699617
8	0xc159139d	-13.567288
9	0xc04d883f	-3.2114408
10	0x404a8fd2	3.165028
11	0xc0816ced	-4.0445466
12	0x403bc6d8	2.9340115
13	0x40522851	3.2837107
14	0xc0304111	-2.7539713
15	0x418fe3f3	17.986303
16	0xc0609187	-3.5088823
17	0xc0422a09	-3.0338156
18	0xc0536ac9	-3.3033926
19	0xc068c820	-3.6372147
20	0x402bf29c	2.6866827
21	0x402ed01f	2.7314527
22	0xc03d2303	-2.955262
23	0x401cd070	2.450222
24	0xc05314ac	-3.2981367
25	0x405567c8	3.3344593
26	0x418c0b9b	17.505667
27	0xbfcecf0e	-1.6156938
28	0x4199292b	19.145102
29	0x41b0a6bd	22.081415
30	0xc0865a22	-4.1985025
31	0x40786369	3.8810675
32	0x401df2f7	2.4679544
33	0xc017d423	-2.3723228
34	0xc0d598b5	-6.674891
35	0xc00a2614	-2.158574
36	0x41163a16	9.389181
37	0x40275bb0	2.6149712
38	0x405ca12c	3.4473372
39	0x41b02fc1	22.023317
40	0xc006d2c6	-2.1066146
41	0x4052b0db	3.2920444
42	0xbffe687e	-1.9875638
43	0x404ce22b	3.2013042
44	0xc03d40c0	-2.957077
45	0xc058b84b	-3.3862484
46	0x4057a806	3.3696303
47	0x403c3304	2.9406137
48	0xc06d0d03	-3.7039192
49	0xc1924533	-18.283789
50	0x40484a45	3.129533
51	0xc013853c	-2.305007
52	0xc08058ef	-4.010856
53	0xc040797f	-3.0074155
54	0xc02b31fe	-2.6749263
55	0x404a51f6	3.1612525
56	0x40509ee5	3.2596982
57	0x408479c7	4.1398654
58	0xc0311bdb	-2.7673252
59	0xc08b1d2f	-4.3473125
60	0x4061fcc9	3.5310538
61	0x407e6915	3.9751637
62	0x401c1e27	2.4393404
63	0xc19583ea	-18.689411

exp_avg f4 [4]
0	0x3d2ec77d	0.042670716
1	0x3e42b4af	0.19014238
2	0xbcf5932c	-0.029977404
3	0xbd0c7b79	-0.03429744

exp_avg_sq f4 [4]
0	0x3c9c552c	0.019083582
1	0x3c969532	0.018381689
2	0x3c86a211	0.016434701
3	0x3ca3ba32	0.019986246

exp_avg f4 [64, 17]
0	0x37f07002	2.8662387e-05
1	0xb88287a9	-6.224152e-05
2	0x3afec15b	0.0019436287
3	0x38d99246	0.00010374612
4	0x39d2440e	0.00040105026
5	0x3a2f63e1	0.00066906033
6	0x3addf7ed	0.001693485
7	0x39c7f0b7	0.00038135584
8	0xbace7dca	-0.0015754041
9	0xba5a7fba	-0.0008335073
10	0xbb890da0	-0.0041825324
11	0xbb4d1245	-0.0031291407
12	0xbb776de2	-0.0037754704
13	0xbb5b67e8	-0.003347868
14	0xbae6e51c	-0.0017615887
15	0x3ba1f385	0.00494236
16	0x38e4d103	0.00010910819
17	0xb9df37af	-0.00042575362
18	0xbaad7053	-0.0013232328
19	0xbbf9bdd4	-0.007621506
20	0xba5e059d	-0.00084694644
21	0x3ab7b9fd	0.0014017221
22	0xba7a7af5	-0.0009555065
23	0xbc1da643	-0.009622159
24	0x3a518e46	0.00079939177
25	0x3ae99eb5	0.0017823788
26	0x39a69167	0.0003177032
27	0xbc1837a7	-0.009290612
28	0x3c7e1776	0.015508523
29	0xbc1175dd	-0.008878198
30	0xba917607	-0.0011097797
31	0xba5735de	-0.0008209626
32	0xbbde3fa1	-0.0067824875
33	0xbb86f895	-0.0041189888
34	0x39846185	0.0002524966
35	0x39152e61	0.00014227025
36	0x3b161748	0.002290206
37	0x39ef4489	0.00045636695
38	0x38b260a0	8.505699e-05
39	0xb99cea2a	-0.00029929104
40	0x3b10cee4	0.0022095973
41	0xba6259e2	-0.00086346094
42	0xbb22ad6b	-0.0024822603
43	0xba5b254e	-0.0008359746
44	0xbb9e6246	-0.0048334925
45	0xbcade617	-0.02122788
46	0x3bd5517c	0.006509958
47	0xbb9106ae	-0.004425845
48	0xbbe909df	-0.0071117724
49	0x3b3d9a9e	0.002893127
50	0x3b7360c5	0.0037136537
51	0x3a2ae41f	0.0006518978
52	0x38f4df12	0.00011676377
53	0xbb6fe922	-0.0036607464
54	0xb9fd2ea9	-0.00048290685
55	0xb974d356	-0.00023348382
56	0xbab67bb8	-0.0013922369
57	0xbb1bc074	-0.0023765834
58	0xb9d40f81	-0.00040447342
59	0x3a94182c	0.0011298708
60	0xba13188a	-0.00056112616
61	0xbc8129b4	-0.015766956
62	0x3cf16c91	0.029470714
63	0x3b585e99	0.003301537
64	0x3c0dec05	0.0086622285
65	0x3ad09635	0.0015913906
66	0x3b49f731	0.0030817504
67	0x3b91616f	0.004436664
68	0x3a10d40e	0.00055247627
69	0x3a2c8951	0.0006581741
70	0xbc4cf7a0	-0.01251021
71	0xba6f998f	-0.00091400085
72	0xbade7a41	-0.001697369
73	0xbb2f922e	-0.002679001
74	0xbc0f6f58	-0.008754574
75	0xba18c700	-0.0005827993
76	0x3bbdaf46	0.0057887165
77	0x3b4efc46	0.0031583472
78	0xbb975d32	-0.004619264
79	0xbd295b33	-0.04134674
80	0x3c411ee1	0.011787147
81	0x3c93d0b8	0.01804386
82	0x3b69c687	0.003567131
83	0x3b3ab12d	0.0028486953
84	0xba8d88b9	-0.0010798193
85	0x38b8e69d	8.816759e-05
86	0xb9033e01	-0.00012516232
87	0xbafad5b5	-0.0019137176
88	0x3776bda9	1.4706901e-05
89	0xb841f295	-4.6240708e-05
90	0xb8024aa9	-3.1063948e-05
91	0xbaf86f46	-0.001895406
92	0x3928af84	0.00016087113
93	0xb96ab861	-0.00022384665
94	0xb851bb4c	-5.0003917e-05
95	0xbc122ed9	-0.008922302
96	0xba7da5ad	-0.00096758717
97	0xbb0a80e3	-0.0021133951
98	0xba907630	-0.0011021551
99	0xb99f70bc	-0.00030410837
100	0x3b2857ae	0.0025687027
101	0xbab6a5c6	-0.0013934902
102	0xb960dafc	-0.00021443883
103	0xb7e42136	-2.7195183e-05
104	0x3b5e8a81	0.0033957066
105	0x39475b61	0.0001901216
106	0xb909ac7e	-0.00013129596
107	0x3abd621f	0.0014448798
108	0x3b3dbadf	0.0028950495
109	0xb9e378fa	-0.00043386949
110	0x3931d03d	0.0001695761
111	0x38831c79	6.25187e-05
112	0xbc4a32c3	-0.012341204
113	0x3b01b366	0.0019790768
114	0x3a5027d3	0.00079405046
115	0xbac0e349	-0.0014716174
116	0xba1d0456	-0.0005989721
117	0x3b627827	0.003455648
118	0xbb66fd76	-0.003524629
119	0xb92e162e	-0.00016602196
120	0xb9996b6e	-0.00029262475
121	0x3a57acc9	0.0008227346
122	0xb91cf92f	-0.00014970147
123	0xb9e1d3f3	-0.0004307326
124	0x3a717805	0.0009211305
125	0x3a88b7f0	0.0010430794
126	0x39bf5e74	0.00036500732
127	0xb9671c8b	-0.0002204051
128	0x39425740	0.00018533785
129	0x3c808c3a	0.015691865
130	0x3c68ad7a	0.014201516
131	0x397db4ff	0.00024195387
132	0xbb754f19	-0.003743118
133	0x3bcbe793	0.006222674
134	0xbb3a6e82	-0.0028447215
135	0xbb9f3add	-0.004859312
136	0xb96bcce9	-0.00022487681
137	0x3995b347	0.00028553067
138	0x3b1feba7	0.0024401934
139	0xb972bdc6	-0.00023149615
140	0xb98fa51f	-0.0002739811
141	0xb9a905be	-0.0003223847
142	0x3b809f05	0.0039252066
143	0xba843d5d	-0.0010089088
144	0xba69a8a0	-0.0008913372
145	0xb98ae975	-0.0002649535
146	0x3c55464a	0.0130172465
147	0x3cffa052	0.031204376
148	0x3bf8097a	0.007569489
149	0x3bb3b442	0.005484135
150	0x3b06b2b6	0.0020553297
151	0x3bb8c680	0.0056388974
152	0xb8bed397	-9.099318e-05
153	0xba5ff2ca	-0.00085429533
154	0x3ade3228	0.0016952204
155	0xbc192ef8	-0.009349577
156	0xba9ec829	-0.0012114096
157	0xbb4f60c3	-0.0031643368
158	0xbb47159a	-0.0030377866
159	0xbbd50a35	-0.006501461
160	0xbb30d7db	-0.0026984129
161	0x3c1e545d	0.009663668
162	0x3bbb6406	0.005718711
163	0x3d0fc30a	0.035098113
164	0xbd3972c2	-0.045275457
165	0x3c98c2c0	0.018647552
166	0x3c7b2408	0.015328415
167	0x3b606700	0.003424108
168	0xbc882f07	-0.016623987
169	0xbd044c17	-0.032299127
170	0xbadf7639	-0.0017048783
171	0xba626e0a	-0.0008637613
172	0x3c84077c	0.01611685
173	0x39546962	0.00020257154
174	0xb965c94e	-0.00021914134
175	0x3bff01d3	0.0077822
176	0x3c675174	0.014118541
177	0xba57c236	-0.0008230539
178	0xb9cf5338	-0.0003954412
179	0x3a0aa529	0.0005288893
180	0x3bfdd2a2	0.0077460567
181	0x3dbc370f	0.09190189
182	0xbc2fbb8a	-0.010725865
183	0x3ba2fd9a	0.0049740793
184	0x3d0b1032	0.033950992
185	0xba0275a2	-0.0004976635
186	0xbcdc02cb	-0.0268568
187	0x3a03f5b9	0.0005033869
188	0xb99c5b04	-0.0002982245
189	0xbbd952a7	-0.0066321674
190	0x3a0e370e	0.0005425074
191	0x3acc84e7	0.0015603573
192	0xbaad9dca	-0.0013245877
193	0xbc064373	-0.008194792
194	0x3b0f0539	0.0021823181
195	0x3a482b5a	0.00076358544
196	0xb98bdb24	-0.00026675418
197	0x3c62b563	0.013837191
198	0xbdc44a0b	-0.09584435
199	0xbca5d9fa	-0.02024554
200	0xbc6cce90	-0.014453545
201	0xbcc77ed5	-0.02435247
202	0xbbe3a8f3	-0.0069476306
203	0xbb8f0c86	-0.0043655066
204	0xb81246d8	-3.487509e-05
205	0x39ac7a36	0.0003289745
206	0x3b928892	0.004471847
207	0x399ed846	0.00030297245
208	0xb5b39721	-1.3380524e-06
209	0x3a328bb0	0.0006810976
210	0x3b95e3e7	0.004574287
211	0x3a04e723	0.00050698424
212	0x391c509b	0.00014907347
213	0xb8f1fdd7	-0.00011539057
214	0x39c57f2f	0.00037669527
215	0xba01d418	-0.0004952564
216	0x3a10a3d8	0.00055175787
217	0x3b31abe8	0.002711052
218	0x3ac86eba	0.0015291788
219	0x3a64103c	0.0008699929
220	0xbac3c228	-0.0014935182
221	0x3a702094	0.0009160128
222	0x3ad44caa	0.0016197164
223	0xbd0a9ae9	-0.03383914
224	0xba26354b	-0.0006340339
225	0x39e1e86a	0.00043088506
226	0xbc863532	-0.016382787
227	0xbcee3b57	-0.02908103
228	0x387b54e5	5.9922128e-05
229	0x3be006a0	0.0068367273
230	0x3b3db2f9	0.0028945787
231	0x3caa26bc	0.020770423
232	0xbe1aa925	-0.15103586
233	0x3d77c2e7	0.060488608
234	0xbccc3af2	-0.024930451
235	0xbcf0605f	-0.029342828
236	0xbcd9d8e9	-0.026592689
237	0xbc9c6ddb	-0.019095352
238	0xb9cfa7c6	-0.00039607118
239	0x39912e81	0.00027691203
240	0xb8662148	-5.486727e-05
241	0xb995aab5	-0.0002854668
242	0xba7c85c3	-0.0009632969
243	0x39019f8f	0.00012361839
244	0x3a575633	0.0008214444
245	0xb9a5325e	-0.0003150878
246	0x3b1dd94f	0.0024085825
247	0x3b078695	0.0020679582
248	0xbc6aa372	-0.014321195
249	0xbbe9a8c7	-0.0071307155
250	0x3c29396f	0.010328635
251	0x3b954061	0.0045547937
252	0x397183e8	0.0002303269
253	0xbb7737ff	-0.0037722585
254	0xbb14b047	-0.0022688077
255	0xb900f809	-0.00012299432
