ptParams/model_rarl.pt (torch, 327049 bytes, 72 tensors)

actor.logstd f4 [4]
-0.079476066 0.050965995 -0.006400344 -0.023810042
00000000: 59c4 a2bd b8c1 503d fab9 d1bb 470d c3bc

actor.pi_net.fcs.0.weight f4 [64, 17]
0.5090395 -1.036709 0.6395886 0.044282142 -0.65828234 -0.12872626 -0.14791778 0.11624166
-0.6380832 0.14740348 0.28013346 0.04873547 0.062073153 -0.107566975 0.04497815 -0.17237036
0.25923443 0.2116091 0.71387774 -0.57567865 -0.60746926 -0.11597454 0.29007706 0.30383155
0.10199424 0.6180275 0.0862381 0.036610994 0.104198016 0.22940856 0.3588858 -0.24992672
-0.051418047 0.036739178 -0.6231975 -0.6723837 -0.6362041 1.7163306 -1.478134 0.44459152
0.11313517 -0.21867257 -0.39161056 -0.65623534 0.07108849 0.004864137 -0.0420703 0.06903337
-0.062219676 -0.07361941 -0.022934414 0.007919788 -0.1493017 0.36368975 1.1619533 0.3527317
-0.53155714 0.73389715 0.3799724 -0.20298687 0.24870569 0.06266426 0.20333223 -0.10911284
0.109111026 -0.7031666 -0.03854737 0.03377705 -2.495209 -0.19963868 -0.049338806 -0.24871412
-0.5949135 0.15859751 0.17059658 -1.0617999 0.097312756 0.32989433 -0.061603695 0.0789369
0.35585967 -0.19129135 -0.1398351 -0.2139906 0.07627126 -0.490254 -0.0013468729 -0.14548466
-0.25394237 -0.69583946 0.8241756 0.6971362 0.30570596 0.05208633 -0.120540805 0.14724967
-0.048318338 -0.15804762 0.42544183 0.073468246 -0.012442044 -0.18608886 -0.7150422 0.764931
-0.3702284 -1.3348417 -0.40161985 0.05921622 -0.7595938 0.044395287 0.10100134 -0.2273669
0.08070139 -0.10778532 -0.057479937 -0.047526073 -0.2612897 0.34347337 0.15385135 -0.018308122
0.25453755 -0.83131874 -1.054376 -0.6797974 0.13368471 0.3546791 -0.0902807 0.15888597
-0.8983263 0.04422415 -0.16830447 -0.035803556 -0.11330351 -0.056264386 0.0334154 -0.05151473
0.20110899 0.56575924 -0.30976096 -0.52754897 -0.44566905 0.8417464 -0.20071389 0.24370907
0.08930298 -0.49233264 0.03108448 0.06562227 -0.1081025 -0.3361496 0.40023208 0.07745455
0.1587446 1.0238662 0.27224275 -0.3009124 -0.73387 1.0371265 -0.92490155 0.4708336
0.62905973 0.15256545 -0.068608604 -0.008578771 -0.0030252954 -0.06639869 0.19770241 0.36412957
-0.1517685 0.19086428 -0.2629347 -0.35898826 0.6998022 -0.17248985 0.05088215 -0.23211111
0.55828094 -0.20506787 -0.09962947 0.23111542 8.432517e-05 -0.013593449 -0.15622099 0.46263945
0.107014954 0.0015117597 -0.06654816 -0.33888698 -0.17995048 0.36107603 1.3518974 -0.578759
0.53429615 -0.8015861 0.14945404 -0.3619875 0.4278156 0.122017466 -0.07224722 0.016117055
0.3752752 0.12552018 -0.05804701 -0.009855843 0.4950362 -0.013115394 -0.7523019 -0.15795045
-0.72962636 -0.1438223 -0.2648003 -0.07599041 -0.049119078 -0.21833791 -0.11819142 0.15949215
-0.15827043 -0.34259146 -0.13790593 0.124756575 -0.17368506 -0.016695391 0.376627 -0.2754218
0.21983482 0.08610996 -0.61463594 -0.32706723 0.5571759 0.6223144 -0.1794092 0.39238575
-0.08742403 -0.2952003 -0.2055885 -0.114832945 -0.28870007 -0.08308864 -0.81384444 -0.26411632
-0.2984617 -0.1604388 0.8749564 -1.0748415 -0.5711627 -0.5807703 -0.16572402 -0.57247126
0.08167854 -0.078325905 0.0045240577 0.030535722 -0.20693263 0.17733058 0.23047708 -0.8265582
00000000: 6a50 023f e1b2 84bf 14bc 233f 3161 353d
00000010: 3185 28bf d1d0 03be c277 17be 1c10 ee3d
00000020: 6c59 23bf f0f0 163e a76d 8f3e d89e 473d
00000030: 6b40 7e3d 134c dcbd 023b 383d db81 30be
00000040: 60ba 843e 0eb0 583e b1c0 363f ad5f 13bf
00000050: 1b83 1bbf 0f84 edbd fb84 943e cf8f 9b3e
00000060: 5be2 d03d 0d37 1e3f 9a9d b03d 69f5 153d
00000070: c565 d53d 14ea 6a3e e1bf b73e caec 7fbe
00000080: bb9b 52bd d27b 163d df89 1fbf 5721 2cbf
00000090: 46de 22bf b9b0 db3f 7f33 bdbf 80a1 e33e
000000a0: 69b3 e73d b4eb 5fbe 2e81 c8be 0aff 27bf
000000b0: d896 913d 5763 9f3b e851 2cbd 5e61 8d3d
000000c0: 0fda 7ebd c6c5 96bd f4e0 bbbc 00c2 013c
000000d0: 8be2 18be 8b35 ba3e e3ba 943f 4099 b43e
000000e0: 2114 08bf afe0 3b3f be8b c23e cadb 4fbe
000000f0: b4ac 7e3e 1f56 803d 5336 503e 8d76 dfbd
00000100: 9a75 df3d ba02 34bf d9e3 1dbd ce59 0a3d
00000110: 81b1 1fc0 156e 4cbe 7d17 4abd eaae 7ebe
00000120: 404c 18bf 6367 223e dfb0 2e3e 0fe9 87bf
00000130: e94b c73d e9e7 a83e 2854 7cbd aba9 a13d
00000140: 3d33 b63e e1e1 43be ef30 0fbe 5a20 5bbe
00000150: 1b34 9c3d 9302 fbbe 8e89 b0ba eef9 14be
00000160: bc04 82be 8922 32bf 2cfd 523f 8577 323f
00000170: 7e85 9c3e 7a58 553d 19de f6bd 9ec8 163e
00000180: 73e9 45bd 3cd7 21be 83d3 d93e 8576 963d
00000190: b7d9 4bbc 148e 3ebe 010d 37bf 85d2 433f
000001a0: 948e bdbe 18dc aabf 1ea1 cdbe b58c 723d
000001b0: bd74 42bf d5d7 353d cad9 ce3d ded2 68be
000001c0: c546 a53d 8dbe dcbd 1570 6bbd b3aa 42bd
000001d0: c3c7 85be bedb af3e 358b 1d3e eafa 95bc
000001e0: bf52 823e 4ed1 54bf cbf5 86bf 3407 2ebf
000001f0: a5e4 083e 8098 b53e 16e5 b8bd 01b3 223e
00000200: b6f8 65bf 6224 353d 0258 2cbe c0a6 12bd
00000210: ac0b e8bd 7c75 66bd 96de 083d 1c01 53bd
00000220: 84ef 4d3e 99d5 103f fd98 9ebe 730d 07bf
00000230: bc2e e4be b17c 573f f187 4dbe df8e 793e
00000240: 7be4 b63d 0613 fcbe e1a4 fe3c f864 863d
00000250: d864 ddbd cd1b acbe 38eb cc3e 7ea0 9e3d
00000260: f28d 223e 0c0e 833f 6763 8b3e 3111 9abe
00000270: e8de 3bbf 90c0 843f 59c6 6cbf 1a11 f13e
00000280: 0f0a 213f 1e3a 1c3e ab82 8cbd f98d 0cbc
00000290: 0944 46bb 09fc 87bd 8072 4a3e 316f ba3e
000002a0: 3469 1bbe ed71 433e 619f 86be 4fcd b7be
000002b0: 3d26 333f 2ea1 30be cd69 503d 89ae 6dbe
000002c0: 80eb 0e3f 50fd 51be 890a ccbd 85a9 6c3e
000002d0: bbd7 b038 0fb7 5ebc 65f8 1fbe 14df ec3e
000002e0: a82a db3d 3d26 c63a 674a 88bd 9882 adbe
000002f0: f044 38be f5de b83e f90a ad3f 8d29 14bf
00000300: a2c7 083f bf34 4dbf 7b0a 193e 6d56 b9be
00000310: a50a db3e 4be4 f93d 5af6 93bd ea07 843c
00000320: 1224 c03e 5d88 003e b4c2 6dbd 677a 21bc
00000330: 6375 fd3e f3e1 56bc db96 40bf c3bd 21be
00000340: cbc8 3abf 2746 13be e893 87be dca0 9bbd
00000350: 1631 49bd f993 5fbe 580e f2bd e951 233e
00000360: a511 22be 2668 afbe 3637 0dbe 6080 ff3d
00000370: 7fda 31be c6c4 88bc 41d5 c03e 1604 8dbe
00000380: 611c 613e 6b5a b03d c858 1dbf 5b75 a7be
00000390: 14a3 0e3f ff4f 1f3f 0cb7 37be c9e6 c83e
000003a0: 5f0b b3bd 7e24 97be cb85 52be 892d ebbd
000003b0: 7fd0 93be 602a aabd 1c58 50bf 413a 87be
000003c0: f9cf 98be 124a 24be 25fd 5f3f 6894 89bf
000003d0: b837 12bf 5dad 14bf 8fb3 29be 7a8d 12bf
000003e0: 1447 a73d 5569 a0bd 8c3e 943b 0d26 fa3c
000003f0: 26e6 53be 2696 353e 2f02 6c3e 5199 53bf

actor.pi_net.fcs.0.bias f4 [64]
-0.4026519 0.15552999 0.4689343 0.11164903 -0.13720383 -0.44837487 -0.6395114 0.40716884
-0.12560146 0.23139596 -0.5413252 -0.0085074995 0.4455089 0.34082147 -0.108923174 0.043111127
0.2597328 -0.38098198 -0.22464214 -0.22557694 0.09190752 0.39063063 -0.063593835 -0.6118603
0.56866264 -0.22158283 -0.33576223 -0.34030285 -0.5929669 0.335768 -0.100103185 0.39333224
0.53899366 -0.66282654 0.24351276 -0.026363974 0.19976468 -0.061112 -0.23057276 0.32960984
-0.116697825 0.44292828 -0.36161014 0.48774663 -0.21038392 0.45067218 -0.07593743 -0.16704533
-0.3602558 0.17362295 0.45144847 0.07748421 -0.34681097 -0.28735647 -0.0055402 -0.31562516
0.2672642 0.15290831 -0.34393844 -0.43184316 -0.3850048 -0.03767475 0.14994533 0.07342528
00000000: 6428 cebe 4143 1f3e 2818 f03e 3fa8 e43d
00000010: 297f 0cbe 6491 e5be 05b7 23bf 6f78 d03e
00000020: ab9d 00be 10f3 6c3e 4a94 0abf 0a63 0bbc
00000030: be19 e43e 2780 ae3e 1d13 dfbd 4b95 303d
00000040: b3fb 843e 1210 c3be 9708 66be a4fd 66be
00000050: 033a bc3d bd00 c83e 7c3d 82bd e0a2 1cbf
00000060: e093 113f 9ce6 62be 07e9 abbe 2d3c aebe
00000070: aecc 17bf c9e9 ab3e e602 cdbd d862 c93e
00000080: 7dfb 093f 00af 29bf 695b 793e 43f9 d7bc
00000090: 1d8f 4c3e 9450 7abd 441b 6cbe 9fc2 a83e
000000a0: 45ff eebd 7fc7 e23e f724 b9be edb9 f93e
000000b0: e26e 57be 81be e63e 1585 9bbd ee0d 2bbe
000000c0: 7373 b8be 37ca 313e 4124 e73e 0bb0 9e3d
000000d0: 3591 b1be 6320 93be 918a b5bb 9f99 a1be
000000e0: dad6 883e ff93 1c3e b318 b0be 8c1a ddbe
000000f0: 591f c5be d750 1abd 458b 193e fe5f 963d

actor.pi_net.fcs.1.weight f4 [64, 64]
-0.038039483 -0.1507266 0.022447597 0.052437153 0.11153827 0.1027562 0.047018073 -0.07831894
0.042388994 -0.09986961 -0.010050847 0.032753702 -0.1712128 -0.09719678 0.014677336 -0.07956246
0.058955394 -0.09765179 0.042609364 0.061255354 -0.12076385 0.041422814 -0.053187296 0.009793074
0.068001255 -0.0138796205 -0.0058262344 -0.035960246 0.07943887 -0.007923723 0.05229265 0.025991471
-0.08180842 0.15850191 -0.1296435 0.10076426 0.18016577 -0.042628143 0.032932535 -0.11891209
0.054810014 -0.05239034 -0.0073270877 -0.012150733 -0.026290376 -0.0634598 0.021859426 0.09810033
0.04856532 0.021689374 0.057408802 0.015691679 0.1647288 0.0050454764 -0.00041747058 0.009482632
0.07513319 0.03752832 -0.1579714 0.033815 0.11470565 -0.073263034 0.16893062 0.02593769
0.20169693 -0.20013884 -1.0142256 -0.04338973 -0.3685868 -0.08279143 0.061076544 -0.34706175
-0.15052828 0.42278168 0.1674951 -0.124080755 -0.23027429 0.03217435 0.06441655 -0.06004458
0.16813068 0.28189087 -0.23220608 0.27303424 -0.27771536 0.26125678 0.13523205 0.51641643
0.059520815 0.057402674 0.0011378578 0.11495086 0.08033122 -0.061419018 0.058215864 -0.058265947
-0.5691529 -0.0707467 -0.32031798 -0.19842431 0.31259233 0.29659927 0.4074158 -0.15308924
-0.060959276 -0.15917729 0.2878522 -0.20307148 0.24952458 0.044985343 -0.03103167 0.10653942
0.16600698 0.15628923 0.0046988353 -0.020625394 -0.17978188 -0.069297574 0.24242695 -0.08520312
-0.6178216 0.09245136 0.0234851 -0.0043906835 0.39026746 -0.28491005 -0.19824883 -0.6595432
0.02301346 -0.2256952 -0.29175365 0.06935556 -0.10621879 0.046968807 -0.16167112 -0.34285966
-0.35592765 0.47206756 0.22566743 0.022046147 -0.081503354 -0.10965661 0.35279545 -0.1443263
-0.11820597 0.18044703 -0.28194237 0.34741876 -0.2289692 -0.3805271 -0.027507914 0.08755543
0.13213982 -0.17817183 0.4731075 -0.09834219 -0.19528306 -0.30126864 0.38644397 -0.045234755
0.108748466 0.2035118 0.058670077 -0.35446087 0.14697395 0.48181087 0.03846529 0.3331553
-0.03986729 0.025805052 0.7410289 -0.1146453 0.6388327 0.02502595 -0.12295714 -0.24615084
0.38623348 0.11433459 0.0595045 -0.11133734 -0.22287413 0.003319448 0.029533962 0.39076757
-0.079946764 -0.010520616 -0.12122545 0.38383186 0.06742034 -0.09259641 -0.038836382 -0.31241134
0.063436314 -0.012651595 0.07977878 0.01153941 -0.010118084 -0.002923288 -0.0034797254 -0.07872834
0.02885168 0.0745499 0.026471142 -0.02723925 -0.04758077 0.046595465 -0.04125934 0.116564766
-0.0051037814 -0.00047047905 0.006049069 0.04136474 0.06796763 0.048282657 0.032267533 0.016196398
-0.049176004 0.047143523 0.08617947 -0.0753727 0.00741548 -0.010112575 0.11561742 0.07532837
0.08857798 0.08040837 0.049115237 -0.0015022522 0.017228695 0.09270384 -0.03432468 -0.105682515
-0.047161754 -0.0075457455 -0.05002401 0.002690404 -0.04849957 -0.04505679 -4.6007925e-05 -0.04525614
-0.0761335 -0.0155297825 -0.0055286344 -0.016525488 0.08858431 0.014929875 0.04747719 0.07104857
-0.046859846 -0.020970961 0.07598968 -0.026215518 0.055234294 0.03731641 0.009083619 -0.041406102
00000000: 4acf 1bbd 1358 1abe 06e4 b73c 57c8 563d
00000010: 2d6e e43d d871 d23d 0696 403d ae65 a0bd
00000020: 15a0 2d3d 7088 ccbd 4fac 24bc bf28 063d
00000030: 6952 2fbe 1b0f c7bd 3679 703c a5f1 a2bd
00000040: 367b 713d a9fd c7bd 2887 2e3d e5e6 7a3d
00000050: 0a53 f7bd f8aa 293d ecda 59bd 2173 203c
00000060: 3e44 8b3d 5967 63bc ffe9 bebb 0d4b 13bd
00000070: d9b0 a23d 81d2 01bc d130 563d 11ec d43c
00000080: 2c8b a7bd 534e 223e 44c1 04be 7e5d ce3d
00000090: 607d 383e d99a 2ebd 44e4 063d 2f88 f3bd
000000a0: 7780 603d 4197 56bd 1118 f0bb de13 47bc
000000b0: ea5e d7bc 36f7 81bd 8a12 b33c d3e8 c83d
000000c0: 6eec 463d eaad b13c 7e25 6b3d d68b 803c
000000d0: abae 283e 8654 a53b f4df dab9 0b5d 1b3c
000000e0: 6edf 993d 4cb7 193d 41c3 21be 9981 0a3d
000000f0: ccea ea3d ee0a 96bd 26fc 2c3e 477b d43c
00000100: a489 4e3e 32f1 4cbe 25d2 81bf 6eb9 31bd
00000110: 69b7 bcbe 8e8e a9bd 662b 7a3d 14b2 b1be
00000120: 1624 1abe d776 d83e d683 2b3e 0d1e febd
00000130: 06cd 6bbe 40c9 033d d3ec 833d 4ef1 75bd
00000140: 732a 2c3e 0054 903e 6ec7 6dbe 25cb 8b3e
00000150: b530 8ebe 73c3 853e 457a 0a3e de33 043f
00000160: 19cc 733d 111f 6b3d 2c24 953a 5b6b eb3d
00000170: b284 a43d 8292 7bbd c273 6e3d 46a8 6ebd
00000180: 01b4 11bf a5e3 90bd b800 a4be be2f 4bbe
00000190: 1a0c a03e dcdb 973e ce98 d03e 6dc3 1cbe
000001a0: 6fb0 79bd 5fff 22be 5d61 933e f8f1 4fbe
000001b0: 5f83 7f3e 8d42 383d 2136 febc 5731 da3d
000001c0: bcfd 293e 490a 203e b0f8 993b 96f6 a8bc
000001d0: be18 38be e3eb 8dbd c53e 783e f97e aebd
000001e0: 8e29 1ebf 2357 bd3d d363 c03c b9df 8fbb
000001f0: 23d1 c73e bbdf 91be be01 4bbe d3d7 28bf
00000200: b986 bc3c a41c 67be bc60 95be 4a0a 8e3d
00000210: 3d89 d9bd 5d62 403d 1d8d 25be 4d8b afbe
00000220: 263c b6be d7b2 f13e 5d15 673e 1f9a b43c
00000230: 3beb a6bd a593 e0bd 9ba1 b43e 46ca 13be
00000240: f915 f2bd 1bc7 383e c05a 90be dfe0 b13e
00000250: e776 6abe 73d4 c2be 4758 e1bc 4350 b33d
00000260: a94f 073e ad72 36be 253b f23e a167 c9bd
00000270: 48f8 47be e23f 9abe fcdb c53e 1448 39bd
00000280: 84b7 de3d 6665 503e 0950 703d e57b b5be
00000290: 5780 163e eaaf f63e c88d 1d3d 5593 aa3e
000002a0: e24b 23bd 1e65 d33c 12b4 3d3f 28cb eabd
000002b0: 8a8a 233f 3903 cd3c f4d0 fbbd f70e 7cbe
000002c0: 65c0 c53e 4128 ea3d feba 733d d504 e4bd
000002d0: 1e39 64be 198b 593b 35f1 f13c b012 c83e
000002e0: 21bb a3bd a95e 2cbc 0c45 f8bd 9c85 c43e
000002f0: ad13 8a3d 30a3 bdbd e612 1fbd 61f4 9fbe
00000300: e6ea 813d a348 4fbc 0f63 a33d cb0f 3d3c
00000310: 52c6 25bc a294 3fbb 1b0c 64bb 533c a1bd
00000320: 5c5a ec3c 9ead 983d 02da d83c d924 dfbc
00000330: 0ee4 42bd e3da 3e3d 8eff 28bd 82b9 ee3d
00000340: 9f3d a7bb a1aa f6b9 4537 c63b 136e 293d
00000350: 9d32 8b3d 09c4 453d f62a 043d 4fae 843c
00000360: c76c 49bd 9119 413d dd7e b03d 015d 9abd
00000370: 8efd f23b 37af 25bc d3c8 ec3d c345 9a3d
00000380: 5f68 b53d 25ad a43d 0f2d 493d 38e7 c4ba
00000390: 3123 8d3c 83db bd3d 0998 0cbd 1370 d8bd
000003a0: af2c 41bd 4d42 f7bb fae5 4cbd 7d51 303b
000003b0: 7ca7 46bd 788d 38bd a2f8 40b8 815e 39bd
000003c0: e1eb 9bbd a170 7ebc 8c29 b5bb 7660 87bc
000003d0: b16b b53d 6f9c 743c 7177 423d ea81 913d
000003e0: 1cf0 3fbd 4bcb abbc 7aa0 9b3d edc1 d6bc
000003f0: 5b3d 623d 18d9 183d 76d3 143c 7299 29bd

actor.pi_net.fcs.1.bias f4 [64]
0.028720407 -0.2835289 -0.14023362 -0.011998485 -0.009198401 0.14083879 0.075942144 -0.0015536672
0.039745066 0.3267271 0.0759795 0.018339392 -0.2831742 -0.05958631 0.37257627 -0.07504179
-0.19688268 -0.19119467 0.13025859 0.016930113 -0.02760025 0.2649649 0.09268894 0.02017741
0.09451082 -0.34768006 -0.008423055 -0.1442822 -0.06966058 0.08611303 0.4149843 -0.10300261
-0.2774948 0.052575883 -0.025788223 0.14810063 0.28984872 -0.033556033 -0.15284659 0.1231551
0.13459729 0.008086293 -0.23762125 0.08476296 0.19877927 0.07847582 0.056346703 0.19697525
-0.07084449 -0.023792919 0.018509505 0.03666055 -0.035084236 0.009192812 0.0005073816 0.16348436
0.47896338 0.0671858 0.012265815 -0.23657058 -0.14004546 -0.038126387 0.032145757 0.017473908
00000000: 0f47 eb3c b32a 91be 6799 0fbe 4b95 44bc
00000010: e4b4 16bc 0b38 103e 8e87 9b3d 6ca4 cbba
00000020: b9cb 223d c648 a73e 249b 9b3d 7e3c 963c
00000030: 35fc 90be c610 74bd 51c2 be3e 83af 99bd
00000040: 9d9b 49be 89c8 43be 8262 053e 05b1 8a3c
00000050: eb19 e2bc 7ba9 873e b3d3 bd3d 194b a53c
00000060: e48e c13d 1f03 b2be da00 0abc b7be 13be
00000070: 35aa 8ebd 075c b03d d278 d43e 08f3 d2bd
00000080: cc13 8ebe cf59 573d d341 d3bc b1a7 173e
00000090: 0d67 943e 0d72 09bd d183 1cbe be38 fc3d
000000a0: dfd3 093e 5f7c 043c fc52 73be 3498 ad3d
000000b0: cb8c 4b3e eeb7 a03d cdcb 663d e1b3 493e
000000c0: ea16 91bd 5ee9 c2bc 3fa1 973c 5f29 163d
000000d0: 7db4 0fbd 739d 163c ce01 053a 7268 273e
000000e0: b03a f53e b598 893d 8ff6 483c 8f3f 72be
000000f0: 1468 0fbe 6a2a 1cbd 45ab 033d 7125 8f3c

actor.pi_net.fcs.2.weight f4 [4, 64]
-0.0038652248 0.16999924 0.18830836 0.000473421 0.004530349 0.0042084567 0.22060941 0.013680912
-0.016300764 0.1215437 -0.33435687 0.003290894 0.037143737 0.012399131 0.178157 -0.011973976
-0.31851897 0.17142987 0.009066069 0.053793512 0.0022627614 -0.16112795 -0.37575072 -0.0075808875
0.0047033736 -0.034587424 0.006078347 0.11764024 0.17654185 -0.014770535 0.15852413 -0.0014504906
-0.035822175 -0.24176736 0.0033543247 -0.012286434 -0.23491722 0.0067330836 -0.010854408 0.020736296
-0.027960597 -0.38625067 0.060107652 -0.012265894 0.015786182 0.0019075572 0.0905844 -0.17128156
-0.05829238 0.041487854 -0.008760801 -0.0013854385 -0.00021394673 -0.0072572734 0.005169968 0.12798734
0.27761614 -0.28693953 0.0029085074 -0.09921468 -0.2481729 -0.0020333645 -0.02802317 -0.0075586326
-0.0051398124 -0.008632428 -0.1833142 -0.0025086815 -0.012649381 -0.0051998794 0.14567168 -0.0054073813
0.0006551864 -0.16806525 0.26905638 0.013243769 -0.032107595 0.00086484564 0.23176078 0.0050812424
-0.27345425 -0.050264865 -0.009445368 0.012102535 0.0006670854 0.29501835 -0.11847294 -0.0038640476
-0.0073608826 -0.08520101 0.0026723512 -0.5212122 0.047729127 -0.00046690804 0.28436854 0.013261114
-0.09386927 0.05160005 0.005602609 0.006418834 -0.31002197 -0.0041972757 -0.0018359667 -0.0038228554
0.12997542 -0.09707053 0.4196202 -0.13526493 0.024704931 -0.006122928 -0.46509767 -0.37140304
0.083533734 -0.045392137 0.0061442703 0.0067119296 0.007755363 -0.0058264676 -0.011225264 -0.021551171
0.14025806 -0.10715769 0.005164777 -0.28478837 0.32282776 0.0027968413 -0.01693936 -0.01876813
0.0031811537 -0.45058164 -0.21500163 -0.0022471906 0.006063268 0.004376164 0.1726884 0.008327824
0.0039526913 -0.3403209 0.033443473 -0.0049776337 0.054056037 -0.006776869 0.28689125 0.057340726
0.0447331 0.20227875 0.004887597 -0.039918326 -0.007060297 0.1707693 -0.015488568 0.006471942
-0.00059403956 -0.06717758 -0.0020757546 0.095255084 0.022400642 0.0023119499 0.1758862 0.022370743
-0.050499246 0.11374646 0.0078900205 -0.016701391 0.17493956 0.0033065693 0.016909184 0.003351054
-0.047623653 0.16462079 -0.10485567 -0.10388728 0.009937138 0.016556986 0.27426955 0.41124988
-0.099085316 0.082071826 0.001565689 -0.0019657493 -0.014771207 0.022201875 -0.019687768 -0.10587612
-0.35888916 0.12731722 0.009911638 0.19997296 0.20159198 -0.0036988766 0.024929415 0.013154837
-0.0029527682 -0.14984423 0.18555455 0.00012300703 -0.0027596564 -0.0013312608 0.0060168565 -0.0059786127
0.0049231094 0.2834207 0.1563437 -0.0034575535 -0.21425599 0.0043225535 0.25364494 0.0304494
-0.3132878 -0.079155535 -0.0046068267 0.013147897 -0.002253318 -0.50112724 -0.017948112 -0.0028553263
-0.0046069524 -0.054666772 0.0026219557 0.25745198 0.008989359 -0.0023855732 -0.05843397 -0.0059129745
0.015229736 -0.0076566315 -0.0038142377 -0.010303166 0.52662915 0.0049709557 0.007133097 0.0022843245
0.08409122 0.07851621 -0.5176602 0.11031554 0.0018908603 -0.0059394953 0.022795971 0.04289227
0.05106881 -0.1814792 -0.0025811833 -0.0071433154 -0.00059963163 0.016994666 0.005970725 0.04836015
0.2908153 0.005892985 -0.0014276056 0.4866861 -0.16388434 0.0014582683 -0.00999803 0.0055459123
00000000: b64f 7dbb 4814 2e3e e8d3 403e 7e35 f839
00000010: 5273 943b 18e7 893b 6fe7 613e e725 603c
00000020: 2e89 85bc e7eb f83d d330 abbe 0aac 573b
00000030: 0824 183d ba25 4b3c ca6e 363e 7f2e 44bc
00000040: eb14 a3be 508b 2f3e d989 143c 9656 5c3d
00000050: d64a 143b bafe 24be 6662 c0be 1869 f8bb
00000060: c21e 9a3b 8bab 0dbd df2c c73b 5eed f03d
00000070: 63c7 343e 1d00 72bc 2654 223e 631e beba
00000080: 46ba 12bd dd91 77be 3bd4 5b3b 0a4d 49bc
00000090: 248e 70be 33a1 dc3b b0d6 31bc 2adf a93c
000000a0: 9f0d e5bc a6c2 c5be 7133 763d e3f6 48bc
000000b0: 0652 813c 0007 fa3a 5084 b93d 6f64 2fbe
000000c0: fec3 6ebd 2bef 293d 7689 0fbc 9a97 b5ba
000000d0: e356 60b9 6cce edbb d668 a93b 1d0f 033e
000000e0: b423 8e3e bde9 92be a89c 3e3b 1131 cbbd
000000f0: 0921 7ebe 3242 05bb d990 e5bc 68ae f7bb
00000100: df6b a8bb 076f 0dbc b8b6 3bbe b168 24bb
00000110: 593f 4fbc c063 aabb f52a 153e 6730 b1bb
00000120: d1c0 2b3a 4c19 2cbe c2c1 893e 65fc 583c
00000130: 4183 03bd cfb6 623a b352 6d3e 8d80 a63b
00000140: 3202 8cbe 88e2 4dbd bfc0 1abc b649 463c
00000150: 58df 2e3a a50c 973e f1a1 f2bd f63b 7dbb
00000160: 8f33 f1bb de7d aebd 9d22 2f3b 2a6e 05bf
00000170: 9e7f 433d 56cb f4b9 c198 913e 2545 593c
00000180: 883e c0bd 935a 533d 1796 b73b 1555 d23b
00000190: 33bb 9ebe 4d89 89bb d2a4 f0ba df88 7abb
000001a0: 4718 053e eacc c6bd 75d8 d63e e482 0abe
000001b0: ff61 ca3c d8a2 c8bb 4821 eebe 8a28 bebe
000001c0: bc13 ab3d 1bed 39bd e055 c93b bfef db3b
000001d0: b320 fe3b f4eb bebb 2bea 37bc 158c b0bc
000001e0: cf9f 0f3e 7e75 dbbd 4a3d a93b c8cf 91be
000001f0: ae49 a53e 364b 373b 6ac4 8abc 9fbf 99bc
00000200: e77a 503b a3b2 e6be 6329 5cbe 9a45 13bb
00000210: 61ae c63b ed65 8f3b 3ad5 303e 6d71 083c
00000220: 9485 813b 8a3e aebe 06fc 083d 6b1b a3bb
00000230: dd69 5d3d 7f10 debb 69e3 923e 1cde 6a3d
00000240: 0e3a 373d 2922 4f3e 2328 a03b 6681 23bd
00000250: 105a e7bb 26de 2e3e c3c3 7dbc 9612 d43b
00000260: 52b9 1bba 6694 89bd 6209 08bb 1915 c33d
00000270: 8d81 b73c 1584 173b 831b 343e d942 b73c
00000280: 4cd8 4ebd e7f3 e83d 2545 013c 5bd1 88bc
00000290: 5b23 333e 07b3 583b 2185 8a3c 5b9d 5b3b
000002a0: 0511 43bd 5a92 283e 92be d6bd dbc2 d4bd
000002b0: 61cf 223c 84a2 873c 0f6d 8c3e 588f d23e
000002c0: 3eed cabd 4615 a83d ce37 cd3a cdd3 00bb
000002d0: ef02 72bc b5e0 b53c 3e48 a1bc 94d5 d8bd
000002e0: 52c0 b7be 725f 023e 6c64 223c b6c5 4c3e
000002f0: 216e 4e3e da68 72bb c638 cc3c 6387 573c
00000300: 3b83 41bb c470 19be 0302 3e3e 73fb 0039
00000310: 5adb 34bb b37d aeba 0d29 c53b 3de8 c3bb
00000320: 0952 a13b 851c 913e 9018 203e 1f98 62bb
00000330: ec65 5bbe 35a4 8d3b c0dd 813e 0571 f93c
00000340: 4267 a0be 4c1c a2bd ddf4 96bb 476a 573c
00000350: 67ac 13bb e049 00bf eb07 93bc 6d20 3bbb
00000360: ebf5 96bb 44ea 5fbd 1ed5 2b3b bfd0 833e
00000370: 1b48 133c 4757 1cbb 7558 6fbd a0c1 c1bb
00000380: 2586 793c 7be4 fabb 4af8 79bb 9cce 28bc
00000390: 2bd1 063f 66e3 a23b c1bc e93b 9bb4 153b
000003a0: 0438 ac3d 1bcd a03d 6185 04bf 1ded e13d
000003b0: bed6 f73a 19a0 c2bb 9ebe ba3c ceaf 2f3d
000003c0: 872d 513d afd5 39be 1229 29bb 7912 eabb
000003d0: 9930 1dba 6638 8b3c 12a6 c33b 4b15 463d
000003e0: bee5 943e f119 c13b 7f1e bbba ec2e f93e
000003f0: 4cd1 27be 5d23 bf3a c7ce 23bc 7cba b53b

actor.pi_net.fcs.2.bias f4 [4]
0.30083388 0.33048224 -0.11015416 0.030572189
00000000: e606 9a3e f834 a93e 8198 e1bd 8772 fa3c

critic.v_net.fcs.0.weight f4 [64, 17]
-5.5404067 2.0372396 -2.6169314 -2.6040683 4.2627206 0.31039858 -1.4653097 -2.298077
-0.03240784 -0.075152054 -0.18382967 -0.084140904 0.13310982 0.114106655 0.0334256 -0.10286211
0.12602206 0.47091538 1.8301977 0.59415257 -1.3619941 -0.2883646 1.5029631 -6.924012
-1.5857818 0.023170102 1.5790406 -0.06367794 -0.14924233 -0.3262276 0.0050075287 0.025167711
0.1548905 -0.14406513 -5.3235784 -2.4397554 0.87981063 -3.931339 -3.3635793 4.470006
1.653517 0.121886864 -2.275217 1.2256231 0.024824148 0.040988423 -0.21224661 0.032292932
0.13774566 -0.06309085 -0.13809317 4.992118 2.1333544 0.4291485 -0.83884764 2.813782
2.3327591 -2.4303217 1.6227543 -2.4950264 0.66401863 -0.09599417 0.2590686 0.17320211
0.020724421 -0.15568836 0.041099224 -0.07263222 -0.8218524 -2.8632834 -2.4331205 -1.1510589
0.9873508 -0.43436036 -0.4927538 -2.8586514 -2.9235888 3.6340265 0.07555211 -0.0053885356
0.012251434 0.05858638 0.09013777 -0.15624326 0.11780039 -2.9205167 1.7358932 -1.7273413
-0.14172745 1.0500959 -1.3478274 -1.6631025 1.4197026 -0.49499482 2.6710854 0.07094987
-0.06660795 -0.23019312 -0.0014088382 0.115164645 -0.07642472 -0.19824594 -3.1540692 1.736127
0.5535746 -1.2815559 -0.11812158 -6.2572203 2.4136958 -0.2670418 0.9239581 -0.8512538
-0.04858684 -0.06539957 -0.11052931 -0.040209666 0.11268214 -0.0977407 0.008460909 6.833979
5.708055 -0.2938829 -0.5254479 2.176431 1.2072101 -1.9880519 -0.8024352 -0.109104864
-0.5212877 0.061257254 0.067687154 0.1125216 0.046428584 -0.0087873535 0.0010963081 -0.040832885
0.06600234 1.0969197 3.1380408 -3.5367417 -2.47024 0.9349043 1.0547916 -2.029705
0.018723393 1.3981364 -0.22751743 -0.11785702 -0.032494508 -0.06699154 -0.021457415 -0.107168846
-0.07807365 0.7695534 4.0692215 -1.5219904 -5.2034163 0.27766407 2.9103444 -2.2482696
1.3097297 1.2213206 -1.0497286 0.026898706 -0.027661761 -0.020543553 -0.042045426 -0.048194252
0.004894963 0.016359894 4.1839304 -4.0893035 -0.23400185 -0.60971755 0.89346653 5.6176033
-1.738279 0.29606625 0.53681207 -0.31133094 0.14015312 -0.11449851 0.2663961 -0.26448694
-0.10022674 -0.11900151 0.10430427 1.9378856 -1.1267498 -2.2328496 -3.7832413 1.4121885
-1.1499827 -2.732572 1.8801618 -2.3541546 -0.8477483 0.014659832 -0.14086573 -0.20373681
0.0014711187 0.06565419 0.04601644 -0.044943135 1.6510868 1.9593602 0.3057791 -1.3835227
-0.54821974 0.21378767 -1.2952448 -0.061001897 0.6045731 1.1618633 0.0030626967 -0.14101018
0.019743385 0.0372973 0.09885336 -0.021868676 0.017347548 5.2071958 -0.20363629 1.1928098
-2.064404 3.6820846 -3.35228 1.4009295 1.7874948 -0.99002975 0.51508087 0.05078839
-0.019633554 -0.048225805 -0.058679525 0.06343197 0.1036913 -0.019614898 -0.88844126 -0.4770408
1.6896782 0.21904492 1.1005737 -4.976311 2.1743116 -0.6537241 -0.44042182 -2.0112343
0.04375055 0.2118973 -0.032121472 0.015743585 -0.07934312 0.17565686 -0.05665917 -2.1143472
00000000: 034b b1c0 2262 0240 ce7b 27c0 0ea9 26c0
00000010: 3568 8840 90ec 9e3e 458f bbbf b213 13c0
00000020: 15be 04bd 52e9 99bd d83d 3cbe 1152 acbd
00000030: f14d 083e c0b0 e93d 48e9 083d 5fa9 d2bd
00000040: ed0b 013e d21b f13e eb43 ea3f 621a 183f
00000050: d355 aebf 86a4 93be 1861 c03f 8291 ddc0
00000060: e6fa cabf 3acf bd3c 011e ca3f 9469 82bd
00000070: fbd2 18be 4e07 a7be 3216 a43b 842c ce3c
00000080: 9d9b 1e3e cf85 13be c15a aac0 f424 1cc0
00000090: 453b 613f 0f9b 7bc0 e244 57c0 4a0a 8f40
000000a0: 72a6 d33f d29f f93d 289d 11c0 38e1 9c3f
000000b0: 035c cb3c 7ae3 273d 2d57 59be 9845 043d
000000c0: 330d 0d3e c735 81bd 4c68 0dbe 6ebf 9f40
000000d0: e188 0840 5ab9 db3e b8be 56bf 0115 3440
000000e0: ed4b 1540 648a 1bc0 6ab6 cf3f 83ae 1fc0
000000f0: 20fd 293f 9798 c4bd a4a4 843e e55b 313e
00000100: 43c6 a93c c56c 1fbe a957 283d 34c0 94bd
00000110: eb64 52bf 0940 37c0 3fb8 1bc0 e655 93bf
00000120: 06c3 7c3f 7b64 debe 3a4a fcbe 25f4 36c0
00000130: 141c 3bc0 e493 6840 11bb 9a3d 5092 b0bb
00000140: 3dba 483c 46f8 6f3d 279a b83d 3cfe 1fbe
00000150: 5541 f13d bfe9 3ac0 c031 de3f 8519 ddbf
00000160: 0021 11be 8b69 863f 9c85 acbf 8be0 d4bf
00000170: d1b8 b53f f66f fdbe 10f3 2a40 2a4e 913d
00000180: c069 88bd bfb7 6bbe c4a8 b8ba 71db eb3d
00000190: 9084 9cbd fc00 4bbe 45dc 49c0 6939 de3f
000001a0: 11b7 0d3f 060a a4bf bae9 f1bd 263b c8c0
000001b0: fe79 1a40 b4b9 88be 8588 6c3f c5eb 59bf
000001c0: ff02 47bd 36f0 85bd 315d e2bd e4b2 24bd
000001d0: e5c5 e63d 472c c8bd a09f 0a3c f5af da40
000001e0: 63a8 b640 d277 96be c183 06bf a54a 0b40
000001f0: dc85 9a3f 7c78 febf 656c 4dbf 5f72 dfbd
00000200: 1c73 05bf e3e8 7a3d 909f 8a3d ba71 e63d
00000210: e62b 3e3d d5f8 0fbc ffb1 8f3a 6240 27bd
00000220: 3c2c 873d dd67 8c3f a9d5 4840 fa59 62c0
00000230: 6a18 1ec0 e355 6f3f 6903 873f b0e6 01c0
00000240: cd61 993c 22f6 b23f 54fa 68be 055f f1bd
00000250: f618 05bd dc32 89bd 76c7 afbc 577b dbbd
00000260: 14e5 9fbd 7401 453f 1037 8240 95d0 c2bf
00000270: 6382 a6c0 fc29 8e3e 1543 3a40 a6e3 0fc0
00000280: 39a5 a73f 3c54 9c3f 825d 86bf ad5a dc3c
00000290: eb9a e2bc f44a a8bc d337 2cbd 5667 45bd
000002a0: ed65 a03b 2f05 863c c2e2 8540 93db 82c0
000002b0: 2e9e 6fbe 7316 1cbf 39ba 643f 68c3 b340
000002c0: ed7f debf ff95 973e 846c 093f c566 9fbe
000002d0: 4d84 0f3e 327e eabd 1265 883e d56a 87be
000002e0: ad43 cdbd 10b7 f3bd 7a9d d53d a30c f83f
000002f0: 5639 90bf 02e7 0ec0 a020 72c0 98c2 b43f
00000300: a232 93bf 76e2 2ec0 24a9 f03f 78aa 16c0
00000310: 0806 59bf cb2f 703c 1b3f 10be 62a0 50be
00000320: 8dd2 c03a b475 863d bc7b 3c3d 4b16 38bd
00000330: d056 d33f 51cc fa3f 148f 9c3e 4617 b1bf
00000340: 2158 0cbf 28eb 5a3e 95ca a5bf 20dd 79bd
00000350: 4dc5 1a3f f0b7 943f 86b7 483b f964 10be
00000360: e1bc a13c 0ec5 183d a173 ca3d f025 b3bc
00000370: 721c 8e3c 59a1 a640 0886 50be fead 983f
00000380: 321f 04c0 46a7 6b40 c18b 56c0 a851 b33f
00000390: a1cc e43f 9772 7dbf 57dc 033f 7d07 503d
000003a0: 8cd6 a0bc 6c88 45bd f159 70bd 9fe8 813d
000003b0: 1b5c d43d 6caf a0bc e370 63bf b13e f4be
000003c0: 6047 d83f 504d 603e 99df 8c3f f13d 9fc0
000003d0: ec27 0b40 765a 27bf f87e e1be 10b8 00c0
000003e0: c733 333d 9bfb 583e ce91 03bd b1f8 803c
000003f0: a57e a2bd 64df 333e 7213 68bd 7751 07c0

critic.v_net.fcs.0.bias f4 [64]
-0.04179154 -0.7794307 -1.1164917 -0.4461133 -1.1974124 -3.7027209 1.2173197 -0.7708236
1.6951158 1.4006501 -0.022943525 -1.5274558 -3.7672968 -1.1319644 1.1448263 0.46572435
-1.4756101 0.031591956 3.557264 0.7304914 -0.052652225 3.0392258 -0.6006184 0.93428814
0.9549793 -1.0035204 -0.68904805 1.0869713 0.6861059 2.0245643 2.1739128 2.2771277
-0.11394486 -1.8590205 -3.189456 -0.122816645 -3.5807745 0.6824092 1.4982349 1.762205
2.5792744 -0.90050507 -2.0631495 1.5651048 0.13754697 -0.08303566 0.54302347 -2.5478873
-0.7806028 2.6862795 1.8149889 -2.1031823 -0.18291008 -2.595905 0.44068322 -2.0192723
0.18353723 -0.024635172 1.5181319 0.5566353 0.59284914 -0.06601669 -3.7092957 0.8575325
00000000: 9b2d 2bbd c588 47bf 33e9 8ebf f668 e4be
00000010: cf44 99bf 61f9 6cc0 22d1 9b3f b254 45bf
00000020: 8ef9 d83f 8148 b33f 0ff4 bbbc ac83 c3bf
00000030: 641b 71c0 36e4 90bf ab89 923f 6c73 ee3e
00000040: cbe0 bcbf 9166 013d 37aa 6340 7c01 3b3f
00000050: dca9 57bd ad82 4240 21c2 19bf 822d 6f3f
00000060: 8679 743f 5b73 80bf 7465 30bf e021 8b3f
00000070: a3a4 2f3f 7692 0140 6321 0b40 76bc 1140
00000080: ec5b e9bd 62f4 edbf 0c20 4cc0 4b87 fbbd
00000090: 692b 65c0 5fb2 2e3f 29c6 bf3f ef8f e13f
000000a0: d512 2540 8087 66bf a40a 04c0 5b55 c83f
000000b0: 1dd9 0c3e 9a0e aabd 9603 0b3f 9610 23c0
000000c0: 96d5 47bf 01ec 2b40 8e51 e83f 8a9a 06c0
000000d0: c84c 3bbe 4f23 26c0 3ba1 e13e c23b 01c0
000000e0: 2ff1 3b3e b3cf c9bc 2552 c23f a77f 0e3f
000000f0: f6c4 173f c233 87bd 1a65 6dc0 4087 5b3f

critic.v_net.fcs.1.weight f4 [64, 64]
0.25633574 -2.2720244 -0.04599333 -0.10882181 -3.1360302 -1.023207 -1.5654761 -1.0030013
0.60096896 0.1317035 1.128025 -0.14367864 -0.21323998 0.6668612 1.2718717 -0.19416179
-1.0798581 0.974846 0.3270509 2.0741825 1.3257401 1.0045772 -0.14760971 1.5023187
-1.4332939 1.0094057 -0.6781525 2.2011964 -0.93249017 -0.33407825 1.2871857 0.6297755
-0.91952765 -0.16566996 -0.89034635 -0.3844181 0.18779439 1.0827894 1.1407692 0.09189908
-0.07981632 0.19674124 -0.07612104 1.1883119 1.5340252 -0.22935261 0.16280983 -0.6136381
-1.673764 0.24968931 -0.17116395 -0.48888528 -0.008072985 -2.8523278 0.14966017 -4.412838
0.3355583 -0.6439922 -0.3613071 0.041441638 -2.030101 -1.0325253 -0.9189221 1.5837362
0.033168025 -0.8793715 -1.7740537 -1.136335 -0.76241505 -1.2637793 0.46814483 0.9720013
0.21664155 -0.8881911 0.3248862 -0.8715204 -1.8754042 1.4712297 -0.76899123 0.32336387
-1.6508818 0.77138597 0.44909447 0.24536924 0.0721619 -0.37763813 -0.040400106 -3.6577213
2.3173814 -0.62392455 -0.12741446 1.2982507 -0.4212889 -1.0150341 0.52284473 0.44323158
-0.43155515 0.6104895 -0.6725055 -1.1692628 -0.35560787 0.45549354 0.3165134 1.0802586
0.2922178 -0.51799536 0.098584384 -1.0457307 0.2913471 -0.5505524 2.3315969 0.6891726
-0.8414589 -0.9701231 0.05062825 0.44790575 -0.94653493 2.3599663 -0.080754444 0.926566
-0.24441546 0.20821002 1.3769286 0.77543795 1.7025412 0.22386657 -0.79127854 1.5266334
1.1047498 -1.2714822 -0.5452248 -0.06906087 0.44419867 0.5020251 -0.21651672 1.6901832
-0.42930812 -0.20632485 0.28914952 0.474213 1.9964621 0.6349396 -0.22599603 1.4443827
-0.07791151 0.29005244 -0.18359275 -1.8831476 0.611896 -0.619544 0.3207641 1.0105584
1.0032067 -0.12507737 0.4295042 1.3603673 0.29891255 -1.7688447 -2.4635942 -1.4883323
0.07165105 0.7850618 1.2940086 1.186549 -0.27416065 0.72984064 -1.7295883 0.35214013
-0.69893664 -0.49717084 1.1930134 0.5955185 0.6858547 1.0107808 -0.05830459 -0.04058674
0.7399509 -0.9911558 -1.6873266 -0.6287914 -0.0097951535 -0.23330104 -0.21616642 1.6230311
-0.678511 0.38413683 -2.1681123 0.31881478 -0.15156285 0.08966015 0.36894646 1.1832613
0.46650833 0.43604085 0.92950577 -0.79699606 -0.041348808 1.0657232 0.4080555 -0.5580295
0.531354 -1.6686847 0.60268927 0.039334495 2.5454981 0.7505678 -1.5451227 0.082309976
-0.83090717 0.5621851 -0.7804436 -0.80273646 0.4962334 -0.6601187 0.2367987 0.63446724
-0.58409417 -1.0022681 -1.5854009 0.81895083 0.5331181 0.32089642 -1.2748175 -0.27538964
-0.94610065 -0.8995882 0.81247455 -0.106760055 0.27290398 1.0321915 -0.6729885 1.0054514
-0.5661969 1.2465401 -0.39400408 -0.6365426 0.51427627 -0.87438947 0.36500412 0.6119174
-0.27674833 -0.73057616 0.7441485 0.42429 0.13404924 0.08675496 0.448936 -0.90634805
0.29290053 0.27715176 0.9082288 -1.5625656 0.47193542 0.55586326 0.87592924 0.14281598
00000000: 703e 833e d968 11c0 8163 3cbd f8dd debd
00000010: b8b4 48c0 72f8 82bf 8561 c8bf 5962 80bf
00000020: 1ad9 193f 48dd 063e 2063 903f 7e20 13be
00000030: 955b 5abe 6ab7 2a3f b1cc a23f 59d2 46be
00000040: ca38 8abf 828f 793f 3773 a73e 68bf 0440
00000050: dab1 a93f fc95 803f 0027 17be fb4b c03f
00000060: 2d76 b7bf 3534 813f 679b 2dbf 67e0 0c40
00000070: adb7 6ebf 4e0c abbe 80c2 a43f f838 213f
00000080: 2a66 6bbf 63a5 29be bded 63bf 73d2 c4be
00000090: 2c4d 403e d898 8a3f ba04 923f 9635 bc3d
000000a0: bd76 a3bd 8976 493e 59e5 9bbd 9b1a 983f
000000b0: f05a c43f 69db 6abe 9fb7 263e 6317 1dbf
000000c0: e63d d6bf 8eae 7f3e 9a45 2fbe 2c4f fabe
000000d0: 8e44 04bc 8a8c 36c0 8440 193e f835 8dc0
000000e0: 4cce ab3e acdc 24bf 3ffd b8be b5be 293d
000000f0: 2ded 01c0 ca29 84bf 7b3e 6bbf deb7 ca3f
00000100: 32db 073d 7e1e 61bf 3114 e3bf 6d73 91bf
00000110: a22d 43bf 85c3 a1bf aeb0 ef3e 14d5 783f
00000120: 48d7 5d3e 7e60 63bf 7c57 a63e f61b 5fbf
00000130: 3f0d f0bf 4151 bc3f 9cdc 44bf f38f a53e
00000140: 1850 d3bf 8d79 453f b6ef e53e 1342 7b3e
00000150: 9ec9 933d c959 c1be 957a 25bd 1b18 6ac0
00000160: fa4f 1440 85b9 1fbf f078 02be 142d a63f
00000170: 2eb3 d7be a3ec 81bf 27d9 053f 40ef e23e
00000180: ccf4 dcbe 0a49 1c3f 5229 2cbf 67aa 95bf
00000190: 3c12 b6be 7336 e93e 0b0e a23e ea45 8a3f
000001a0: 929d 953e 589b 04bf 9ce6 c93d 81da 85bf
000001b0: 722b 953e 01f1 0cbf e238 1540 9e6d 303f
000001c0: da69 57bf fd59 78bf 915f 4f3d e753 e53e
000001d0: 1d50 72bf b009 1740 9662 a5bd 6e33 6d3f
000001e0: 0c48 7abe 0235 553e 323f b03f 1a83 463f
000001f0: dfec d93f 473d 653e 3b91 4abf b968 c33f
00000200: 7168 8d3f eebf a2bf da93 0bbf c96f 8dbd
00000210: 026e e33e b884 003f 8fb6 5dbe ec57 d83f
00000220: 46ce dbbe d246 53be 680b 943e 0ccc f23e
00000230: 128c ff3f 678b 223f 816b 67be 88e1 b83f
00000240: 1290 9fbd c181 943e bdff 3bbe fb0a f1bf
00000250: 37a5 1c3f 709a 1ebf 313b a43e fa59 813f
00000260: 1469 803f 4814 00be f9e7 db3e 8420 ae3f
00000270: 110b 993e 8169 e2bf 87ab 1dc0 ac81 bebf
00000280: c9bd 923d cff9 483f 13a2 a53f d6e0 973f
00000290: c95e 8cbe d6d6 3a3f 2663 ddbf b64b b43e
000002a0: 83ed 32bf 2d8d febe aab4 983f e773 183f
000002b0: 2c94 2f3f 4461 813f cbd0 6ebd 483e 26bd
000002c0: 6c6d 3d3f 63bc 7dbf 51fa d7bf 79f8 20bf
000002d0: da7b 20bc 78e6 6ebe bb5a 5dbe 7cbf cf3f
000002e0: e6b2 2dbf 95ad c43e 5ac2 0ac0 b13b a33e
000002f0: 4b33 1bbe be9f b73d 8de6 bc3e 1b75 973f
00000300: 2eda ee3e bf40 df3e 17f4 6d3f ef07 4cbf
00000310: 5e5d 29bd 9e69 883f a7ec d03e 05db 0ebf
00000320: d106 083f 7697 d5bf d849 1a3f 351d 213d
00000330: 71e9 2240 3625 403f 95c6 c5bf 2292 a83d
00000340: 55b6 54bf 5deb 0f3f 27cb 47bf 2380 4dbf
00000350: 4e12 fe3e 8afd 28bf 5c7b 723e 726c 223f
00000360: 3287 15bf 524a 80bf 6bee cabf c3a6 513f
00000370: 6e7a 083f 894c a43e 382d a3bf dfff 8cbe
00000380: a733 72bf 6a4b 66bf 55fe 4f3f 04a5 dabd
00000390: 12ba 8b3e da1e 843f f948 2cbf a2b2 803f
000003a0: 48f2 10bf a08e 9f3f e7ba c9be 75f4 22bf
000003b0: 9ca7 033f fdd7 5fbf d2e1 ba3e 9ea6 1c3f
000003c0: f5b1 8dbe 0a07 3bbf 8480 3e3f 8a3c d93e
000003d0: 3444 093e 96ac b13d f0da e53e 6d06 68bf
000003e0: 0ff7 953e d6e6 8d3e af81 683f 2602 c8bf
000003f0: 85a1 f13e 0e4d 0e3f e63c 603f 5a3e 123e

critic.v_net.fcs.1.bias f4 [64]
1.1611421 1.2293441 -0.34220487 -1.3571745 0.39296645 0.78295386 1.4167387 -0.6758307
-1.1381999 0.31545177 0.12605661 -1.03248 -0.9567012 1.005103 1.393026 0.557774
0.3944193 1.2849834 -1.5942698 -0.73061395 -0.9128984 -0.9704338 0.7153437 -0.48409855
-1.2611943 -1.3226767 0.6753839 0.60340273 -1.086155 0.7841606 -1.0226324 0.3728201
-0.17733562 1.6546289 -0.95884657 1.0496405 0.6970737 -0.47498086 1.4459511 0.7185846
0.8768351 -0.66881675 -0.7795819 -1.1354843 -1.2568488 -0.8792897 1.0387255 -0.5275232
0.7994835 -0.38416994 0.050171204 0.9449881 0.7554878 -0.81209964 -0.59514403 -1.1315969
-1.1140505 -1.0456034 -0.74223626 -1.2424392 -0.6865872 1.3531963 -1.3837196 1.3437349
00000000: 4ea0 943f 265b 9d3f 7a35 afbe e5b7 adbf
00000010: e632 c93e aa6f 483f b257 b53f 3e03 2dbf
00000020: 89b0 91bf e582 a13e fc14 013e 4e28 84bf
00000030: 5fea 74bf 37a7 803f ad4e b23f 47ca 0e3f
00000040: 54f1 c93e 567a a43f 0811 ccbf 8409 3bbf
00000050: b6b3 69bf 596e 78bf c420 373f c4db f7be
00000060: d16e a1bf 784d a9bf f6e5 2c3f 9a78 1a3f
00000070: 2107 8bbf c0be 483f 9ee5 82bf 47e2 be3e
00000080: 7897 35be e1ca d33f f876 75bf 9f5a 863f
00000090: 6c73 323f b130 f3be ed14 b93f 29f5 373f
000000a0: 4478 603f 9337 2bbf ae92 47bf 8d57 91bf
000000b0: 6ce0 a0bf 2119 61bf f5f4 843f c30b 07bf
000000c0: f3aa 4c3f ecb1 c4be 5280 4d3d bdea 713f
000000d0: a667 413f c3e5 4fbf 5c5b 18bf 2bd8 90bf
000000e0: 3599 8ebf 55d6 85bf 3203 3ebf 3f08 9fbf
000000f0: 2ec4 2fbf 8935 ad3f b91d b1bf 81ff ab3f

critic.v_net.fcs.2.weight f4 [1, 64]
-4.215625 -2.2631865 -9.943238 19.3197 -3.5463002 -3.2084463 -3.1778033 3.228222
17.162825 -12.409697 1.3650304 3.7502584 2.3895144 -2.8587358 -3.915626 -5.3005214
-3.417977 -12.611987 3.5424821 3.5680733 3.4329004 1.7316114 -4.837891 3.1502235
4.2863092 4.0204377 -7.682147 -3.3656824 4.1439166 -3.1938856 10.277827 -8.442447
2.4913929 -14.763827 9.625766 -2.2052002 -3.7910337 -15.406402 -3.8366468 -5.425354
-14.415767 1.1992903 1.4738362 4.3271646 2.4429302 3.3875568 -2.0927014 2.263197
-2.854058 4.4121537 -2.7756205 -3.3324914 -4.2473707 1.3527739 2.014667 4.0543694
10.434137 4.327125 3.8986773 2.7623801 0.62576467 -4.231025 3.097269 -3.2641132
00000000: 66e6 86c0 0cd8 10c0 8117 1fc1 bf8e 9a41
00000010: 95f6 62c0 2f57 4dc0 2161 4bc0 309b 4e40
00000020: 774d 8941 1e8e 46c1 51b9 ae3f 3c04 7040
00000030: ceed 1840 87f5 36c0 9e99 7ac0 df9d a9c0
00000040: 23c0 5ac0 b3ca 49c1 07b8 6240 505b 6440
00000050: a4b4 5b40 71a5 dd3f 01d0 9ac0 439d 4940
00000060: 7229 8940 6da7 8040 26d4 f5c0 5767 57c0
00000070: f79a 8440 9f68 4cc0 fb71 2441 4314 07c1
00000080: fb72 1f40 a338 6cc1 2303 1a41 0022 0dc0
00000090: 4ca0 72c0 9f80 76c1 9f8b 75c0 809c adc0
000000a0: fba6 66c1 5882 993f aaa6 bc3f 2278 8a40
000000b0: f858 1c40 bbcd 5840 d2ee 05c0 38d8 1040
000000c0: e3a8 36c0 5d30 8d40 c4a3 31c0 8a47 55c0
000000d0: 76ea 87c0 b227 ad3f 4ef0 0040 65bd 8140
000000e0: 3af2 2641 cf77 8a40 ee83 7940 d6ca 3040
000000f0: 1d32 203f 8f64 87c0 a839 4640 3be7 50c0

exp_avg f4 [4]
-0.04144141 0.01554366 -0.01923794 0.0639937
00000000: 78be 29bd d6aa 7e3c e298 9dbc 210f 833d

exp_avg_sq f4 [4]
0.014699238 0.018201733 0.012085152 0.012685605
00000000: 13d5 703c cd1b 953c cd00 463c 49d7 4f3c

exp_avg f4 [64, 17]
-9.245224e-07 0.00012730171 -0.00042691847 0.00015858994 0.00035844147 -0.00033691162 1.9278095e-06 -0.00024827628
-7.1010334e-05 -0.0003922976 -0.009331302 0.0139987795 -0.01755128 0.004667326 0.0028253465 0.0023390513
0.0035466694 -0.00063253695 -0.00031094067 -0.0022774374 0.0002702843 -0.00037939317 -0.0019160634 -0.0008587838
-0.000925238 0.0005765501 -0.00061507506 0.028661294 0.010150297 0.00473144 -0.007235292 -6.934729e-06
0.0008265757 0.0012279159 -0.0010852014 0.00037925344 -0.015088239 0.0030910643 -0.0034940178 0.0010967782
-0.004625642 0.0026583516 0.002104588 0.00015677011 0.1498035 0.05726924 0.03512028 -0.021368269
-0.0029990808 0.007629282 -0.001574465 0.00044020975 -0.00020560912 0.0022908668 9.154722e-05 0.000897427
0.00069861714 0.0013460647 0.0017440951 0.000505089 3.2647615e-05 -0.011838849 -0.013145874 -0.0010189377
-0.00051890063 0.004921022 0.0012017003 -0.0020886569 -0.000626289 0.00049566483 -0.00047488054 -0.0013086135
0.0006382346 0.003395156 -0.0067766136 0.00066068413 -0.001227686 0.0010043537 -0.04886102 -0.042017173
0.0014073746 0.0059251115 -0.004475016 -0.012754374 -0.000564922 -0.00075264904 0.0010032014 0.0048502637
-0.00042320264 0.0013085786 0.0039865235 -0.0026579779 0.0019438385 0.0005840386 -0.0001848584 -0.03553497
-0.056819145 0.009738408 -0.0002797329 -0.00026551317 -0.011037466 -0.0015491019 0.0013178937 -0.0006660854
-0.005526343 -0.001719206 -0.00029397072 -0.0054541393 -0.0007075263 -0.0037682462 -0.0009803518 0.0013897101
-0.042247836 0.023362674 -0.026747141 0.013745158 -0.008201125 -0.002171051 -0.00075574504 9.6454554e-05
0.0008426021 -0.0043882336 0.00058565714 -0.0020214932 -0.0035196037 0.0020722272 -0.0011656109 0.00082151376
0.00096130365 0.05733205 0.028361276 0.007203185 -0.0073578213 -0.008138491 -0.0026150101 -0.003859613
-0.00038962785 -0.00016047693 -0.0038878408 0.00032713913 -0.00079373055 -0.0024730437 -0.0011980514 -0.0015575968
-0.00026123546 9.9009914e-05 0.024345122 0.025120595 -0.0035003105 -0.0015641013 -0.0024048996 0.002670611
0.0036715774 0.00034441426 0.00027608185 0.003718427 0.00020790038 -8.3157705e-05 -0.00016764809 0.004810321
-0.00013824929 0.0014070562 -0.00042203002 0.010579882 0.0053441087 0.002289697 -0.0010367886 -0.001841576
-8.44173e-06 -0.0019010291 0.00022303805 0.00015333673 0.0023029665 3.4358734e-05 0.0012847402 0.0011501841
-0.0009330476 0.0017387037 -0.00021432588 -0.00016925148 -0.04198656 -0.017266612 -0.013274383 -0.0019604545
0.0029877452 0.00086327374 0.0031483325 0.00025701764 -0.00081162015 -0.002413399 -0.00066835224 -0.00041704002
0.00075033883 0.0007647186 -0.002310997 0.00024340782 -0.00031380827 0.003765213 0.030052813 0.0070461635
0.0073498245 0.0025104415 0.0044666156 -0.000581737 -0.00060767325 0.00022776678 -0.0015076431 0.00018534891
-0.0005084873 -0.00031113607 -0.0011249587 -0.0003028153 0.00042139 0.00010468943 0.023944614 0.0017668202
0.0017019961 -0.0059250034 -0.0072700726 -0.0021855338 0.00031486014 0.00027117983 -3.055491e-05 0.0027497704
8.0219295e-05 -0.0004563734 0.0019976716 0.003210159 -0.0004127731 0.0010124296 0.00026028493 0.02552697
0.0028316358 0.022017026 0.0019496811 0.0012431 -0.003666666 -0.006069831 0.0007318046 -0.0004023565
-0.0041812626 -0.0010222963 -0.00028236595 -0.0019440234 -0.0006197577 -0.0023429745 -0.0006180727 0.00040589343
-0.021320337 0.028867919 -0.020158991 0.008212144 -0.0054900125 0.0028463334 0.0022164558 0.0007667179
00000000: b22c 78b5 4b7c 0539 07d4 dfb9 2a4b 2639
00000010: 33ed bb39 83a3 b0b9 845f 0136 142b 82b9
00000020: 62eb 94b8 4bad cdb9 51e2 18bc 235b 653c
00000030: b4c7 8fbc 5ef0 983b 7329 393b c54a 193b
00000040: 3d6f 683b d6d0 25ba c005 a3b9 0f41 15bb
00000050: f2b4 8d39 4ae9 c6b9 6b24 fbba 0120 61ba
00000060: ac8b 72ba 9f23 173a fd3c 21ba 17cb ea3c
00000070: 6e4d 263c 320a 9b3b 0716 edbb deb0 e8b6
00000080: 8eae 583a 05f2 a03a 513d 8eba 89d6 c639
00000090: a934 77bc 7493 4a3b e4fb 64bb c5c1 8f3a
000000a0: b392 97bb bd37 2e3b 21ed 093b a862 2439
000000b0: 1766 193e 2793 6a3d 48da 0f3d 820c afbc
000000c0: 3a8c 44bb 0eff f93b 475e ceba f4cb e639
000000d0: c798 57b9 5e22 163b 0afd bf38 4e41 6b3a
000000e0: 6723 373a 706e b03a 1f9a e43a f367 043a
000000f0: 1cef 0838 bbf7 41bc cb61 57bc e08d 85ba
00000100: d506 08ba 8640 a13b 5f82 9d3a d9e1 08bb
00000110: 8b2d 24ba 81ef 013a 63f9 f8b9 c885 abba
00000120: 334f 273a 4481 5e3b 5b0e debb c331 2d3a
00000130: 4eea a0ba 85a4 833a 7e22 48bd 331a 2cbd
00000140: a877 b83a 7027 c23b 28a3 92bb b9f7 50bc
00000150: 4617 14ba 6c4d 45ba da7d 833a f6ee 9e3b
00000160: 4ce1 ddb9 9d84 ab3a 62a1 823b 7831 2ebb
00000170: 66c8 fe3a 2b1a 193a 8dd6 41b9 1e8d 11bd
00000180: 31bb 68bd d88d 1f3c 1da9 92b9 9334 8bb9
00000190: 7dd6 34bc 3c0b cbba 2dbd ac3a 3c9c 2eba
000001a0: 5316 b5bb fb56 e1ba 1520 9ab9 a3b8 b2bb
000001b0: 4979 39ba aef4 76bb 267f 80ba ef26 b63a
000001c0: 110c 2dbd 1463 bf3c d21c dbbc 5f33 613c
000001d0: 035e 06bc 3148 0ebb 311d 46ba a547 ca38
000001e0: 12e2 5c3a 2ccb 8fbb c986 193a 077b 04bb
000001f0: 27a9 66bb 34ce 073b 69c7 98ba db5a 573a
00000200: ffff 7b3a 03d5 6a3d e855 e83c b208 ec3b
00000210: e119 f1bb 4e57 05bc 9760 2bbb 90f1 7cbb
00000220: f746 ccb9 b345 28b9 25cb 7ebb df83 ab39
00000230: 5b12 50ba ca12 22bb ef07 9dba 4728 ccba
00000240: 6ef6 88b9 8ba3 cf38 6c6f c73c b5c9 cd3c
00000250: 7765 65bb 8802 cdba 859b 1dbb 6b05 2f3b
00000260: d99e 703b 8092 b439 14bf 9039 dab0 733b
00000270: d5ff 5939 f464 aeb8 b1ca 2fb9 e69f 9d3b
00000280: 03f7 10b9 f96c b83a e943 ddb9 3e57 2d3c
00000290: a21d af3b be0e 163b dae4 87ba 0961 f1ba
000002a0: f4a0 0db7 f42b f9ba 52df 6939 04c9 2039
000002b0: 5eed 163b 691c 1038 ba64 a83a c6c1 963a
000002c0: c497 74ba 37e5 e33a aabc 60b9 1979 31b9
000002d0: 19fa 2bbd b672 8dbc cc7c 59bc f87a 00bb
000002e0: 0cce 433b 524d 623a 4154 4e3b 53c0 8639
000002f0: e8c2 54ba 1e2a 1ebb 5c34 2fba 2aa6 dab9
00000300: 63b2 443a 6677 483a 1974 17bb 4a3b 7f39
00000310: a286 a4b9 cbc1 763b 5131 f63c 81e3 e63b
00000320: ccd6 f03b 3886 243b b05c 923b b67f 18ba
00000330: 434c 1fba aed4 6e39 1c9c c5ba 385a 4239
00000340: 014c 05ba fa1f a3b9 5a73 93ba 2ec3 9eb9
00000350: 02ee dc39 b68c db38 7f27 c43c a694 e73a
00000360: 8315 df3a 8826 c2bb ca39 eebb 2c3b 0fbb
00000370: d013 a539 242d 8e39 1628 00b8 7e35 343b
00000380: 683b a838 6745 efb9 5eeb 023b 8861 523b
00000390: 7869 d8b9 80b3 843a da76 8839 f01d d13c
000003a0: f792 393b 0d5d b43c 718c ff3a 84ef a23a
000003b0: 734c 70bb 6fe5 c6bb 93d6 3f3a 60f3 d2b9
000003c0: f902 89bb 92fe 85ba 840a 94b9 9ace feba
000003d0: 3c77 22ba 978c 19bb 2806 22ba 18ce d439
000003e0: fda7 aebc 6a7c ec3c 7824 a5bc 3a8c 063c
000003f0: 90e5 b3bb 8d89 3a3b f541 113b 91fd 483a
