ptParams/model_ppo.pt (torch, 219361 bytes, 36 tensors)

actor.logstd f4 [4]
0.57335615 0.7092944 0.6430739 0.8461463
00000000: 78c7 123f 5194 353f 7ea0 243f 0b9d 583f

actor.pi_net.fcs.0.weight f4 [64, 17]
1.5480131 1.3128586 0.3397811 1.5396084 0.61918783 0.57209057 -0.26260352 0.5520935
0.8981899 0.16751686 0.19844042 0.23190266 0.049671084 -0.3144785 0.08831958 0.19712648
-0.1532774 0.7727579 0.5454102 0.17727295 0.58261067 0.5017228 0.1728829 1.2252109
0.24079473 -0.19403498 -0.6703192 -0.07813979 -0.3253569 -0.36393663 0.3116289 -0.22514446
0.10593288 -0.1063937 -1.7058132 2.3905697 0.1827741 -1.7962853 0.9798078 0.0036267557
0.36896005 -0.5573795 0.6313406 0.2638056 0.055144686 -0.09040423 0.04068089 -0.11029893
0.22015437 0.09175004 -0.087491386 0.5509077 -2.571577 0.5970547 1.4581308 -1.0410048
0.028155696 -0.3049271 0.562873 -0.9960279 0.5209815 0.041808855 0.10353717 -0.15209794
-0.08407708 0.019858925 -0.013661886 -0.0060073338 0.543938 -2.332384 0.63444066 1.9144781
-0.31080216 -0.41433945 -0.049665287 0.13776273 -1.139491 0.47355947 0.14211042 -0.09764593
-0.10484363 -0.30011588 0.08134 0.009261424 -0.15648672 -0.95487887 1.780327 -0.60467017
-0.47442153 1.0797222 0.66568446 -0.3142999 -0.4721128 0.8073862 -0.8096866 -0.0033152322
0.15321249 -0.21185254 0.09779515 -0.08174526 0.090223685 0.15397951 -1.5334169 -0.56474054
0.6572703 -0.57501614 -1.6430643 0.04632707 -0.81499565 -0.87381953 -0.076272875 0.45612627
-0.040020008 -0.09947358 -0.06306537 0.079185 -0.12241286 -0.18480836 -0.18239024 -0.15550819
-0.5897184 -0.45219314 -1.2864637 0.19762002 -0.28302905 -0.911515 0.014706807 -0.05079598
0.07410713 -0.23674648 0.5737906 0.15661937 -0.006494679 0.45978734 -0.2833465 0.22029924
-0.089247726 0.65038806 -0.28570712 0.8939892 0.88061285 -1.6187953 0.3130055 -0.057879712
-0.382815 0.060965635 -0.14704654 -0.01742187 0.109629184 -0.4886432 -0.095059596 0.2350631
-0.07464381 -0.14011675 -0.045714196 -0.35269994 -0.70123315 -0.8036155 0.7278416 -0.5672271
0.7960984 0.27466255 -0.049587507 -0.086684294 0.17109992 -0.035610262 -0.5723609 0.71838313
0.11751319 -0.43744758 -1.2410614 -0.2522571 0.6990376 -0.9390968 -1.0885504 0.065260075
-0.93375 0.10753747 -0.04217787 -0.19711551 0.049415484 -0.040508483 0.070194714 0.29699594
0.3874685 0.20984451 -0.019523136 0.8019881 -0.6013959 0.3305872 -0.37544617 1.0155115
1.9736491 0.15879174 0.08392125 -0.3649511 -0.06541795 -0.06552064 0.063184686 -0.017064622
-0.05969734 -0.07090211 -0.004472285 -0.13398828 2.034663 -1.1152613 -0.797781 0.6628293
0.075665735 0.23715173 0.6788457 0.85761577 -0.46337205 -0.53359526 0.096120305 0.13085307
0.024531418 -0.041603874 0.093340054 0.063606285 -0.10097222 1.0909975 -0.674347 -1.0014402
-0.41514695 0.4325002 -0.014696494 0.6918882 0.15973297 0.030345278 -0.7041077 0.07088406
-0.03931316 0.15472583 0.12432979 -0.035673216 -0.01293903 -0.30660623 -0.02933923 -0.24781045
0.20177315 -1.3523142 -0.18694112 -1.3527976 -0.2901457 -0.10650122 0.6246206 0.42500868
0.12548155 0.18736966 -0.26465106 -0.120569855 -0.10900586 -0.074785024 0.053912863 -0.40265182
00000000: 4b25 c63f c00b a83f caf7 ad3e e311 c53f
00000010: 1883 1e3f 8774 123f f873 86be 0056 0d3f
00000020: c6ef 653f 8a89 2b3e f733 4b3e e477 6d3e
00000030: e873 4b3d 5303 a1be e5e0 b43d 86db 493e
00000040: c0f4 1cbe 76d3 453f 01a0 0b3f 0a87 353e
00000050: f925 153f e870 003f 3708 313e b6d3 9c3f
00000060: e592 763e 1bb1 46be 0a9a 2bbf c107 a0bd
00000070: 2e95 a6be e755 babe d38d 9f3e 458c 66be
00000080: 56f3 d83d f1e4 d9bd 1658 dabf 18ff 1840
00000090: 2229 3b3e adec e5bf afd4 7a3f ddae 6d3b
000000a0: 55e8 bc3e 6cb0 0ebf 8a9f 213f 8711 873e
000000b0: 65df 613d da25 b9bd 01a1 263d 68e4 e1bd
000000c0: 2670 613e 72e7 bb3d af2e b3bd 4908 0d3f
000000d0: b894 24c0 94d8 183f 08a4 ba3f a53f 85bf
000000e0: c6a6 e63c 681f 9cbe 7218 103f affb 7ebf
000000f0: 0b5f 053f c33f 2b3d 4c0b d43d 90bf 1bbe
00000100: 9b30 acbd 2faf a23c 1ad6 5fbc 2bd9 c4bb
00000110: 853f 0b3f c845 15c0 b46a 223f 9e0d f53f
00000120: 7621 9fbe 4d24 d4be d46d 4bbd ac11 0d3e
00000130: d7da 91bf 6376 f23e 6585 113e 97fa c7bd
00000140: 42b8 d6bd caa8 99be 9695 a63d 3abd 173c
00000150: 0e3e 20be f172 74bf c1e1 e33f aacb 1abf
00000160: 61e7 f2be 5634 8a3f 4c6a 2a3f ebeb a0be
00000170: c5b8 f1be ddb0 4e3f 9f47 4fbf 5e44 59bb
00000180: bce3 1c3e dfef 58be d348 c83d 0f6a a7bd
00000190: 32c7 b83d ceac 1d3e 0147 c4bf d692 10bf
000001a0: de42 283f 4234 13bf ee4f d2bf 74c1 3d3d
000001b0: 8ea3 50bf a3b2 5fbf f434 9cbd 6289 e93e
000001c0: 05ec 23bd ceb8 cbbd 6b28 81bd bf2b a23d
000001d0: 98b3 fabd 673e 3dbe 82c4 3abe 8a3d 1fbe
000001e0: c9f7 16bf dc85 e7be d8aa a4bf e75c 4a3e
000001f0: 2fe9 90be 0c59 69bf d2f4 703c 720f 50bd
00000200: 7bc5 973d ab6d 72be f1e3 123f d460 203e
00000210: 51d1 d4bb 3f69 eb3e cb12 91be 2096 613e
00000220: 83c7 b6bd d57f 263f 3448 92be 7adc 643f
00000230: d86f 613f af34 cfbf 4242 a03e 4713 6dbd
00000240: 5400 c4be 1ab7 793d 5e93 16be 4fb8 8ebc
00000250: 4485 e03d 712f fabe 9bae c2bd 62b4 703e
00000260: dbde 98bd c47a 0fbe cf3e 3bbd 1695 b4be
00000270: 0484 33bf bfb9 4dbf d453 3a3f cc35 11bf
00000280: 1bcd 4b3f 92a0 8c3e 451c 4bbd 8987 b1bd
00000290: d134 2f3e 11dc 11bd 3e86 12bf f5e7 373f
000002a0: c1aa f03d 21f9 dfbe 1adb 9ebf d827 81be
000002b0: 21f4 323f a668 70bf 9f55 8bbf 13a7 853d
000002c0: 3d0a 6fbf 9b3c dc3d b4c2 2cbd a6d8 49be
000002d0: e467 4a3d 39ec 25bd 3fc2 8f3d da0f 983e
000002e0: 4562 c63e 7be1 563e fcee 9fbc 184f 4d3f
000002f0: 15f5 19bf ba42 a93e 7b3a c0be 48fc 813f
00000300: 89a0 fc3f 4d9a 223e e8de ab3d dfda babe
00000310: d9f9 85bd af2f 86bd f966 813d 1bcb 8bbc
00000320: 3385 74bd 2035 91bd 3f8c 92bb 3934 09be
00000330: eb37 0240 e2c0 8ebf 603b 4cbf 2eaf 293f
00000340: a3f6 9a3d e7d7 723e d5c8 2d3f b58c 5b3f
00000350: 1a3f edbe b399 08bf b9da c43d 59fe 053e
00000360: 1df6 c83c d368 2abd 1229 bf3d 0344 823d
00000370: 86ca cebd cea5 8b3f 01a2 2cbf 312f 80bf
00000380: 248e d4be ab70 dd3e 90c9 70bc 961f 313f
00000390: 0a91 233e a996 f83c 6740 34bf a92b 913d
000003a0: d606 21bd 7370 1e3e 9ea0 fe3d 141e 12bd
000003b0: 3afe 53bc 7efb 9cbe d358 f0bc 06c2 7dbe
000003c0: 9f9d 4e3e a218 adbf 7e6d 3fbe 7928 adbf
000003d0: fa8d 94be 501d dabd 23e7 1f3f bd9a d93e
000003e0: 3c7e 003e d5dd 3f3e 5880 87be 54ed f6bd
000003f0: 773e dfbd e428 99bd bcd3 5c3d 6128 cebe

actor.pi_net.fcs.0.bias f4 [64]
-0.41182542 0.41992185 0.10243125 -0.304525 -0.579386 0.5589203 0.35133746 0.08493981
-0.46853998 0.3955765 -0.19985043 0.47414032 0.10445924 0.57095563 -0.29155856 0.8529568
-0.29107407 0.41327065 0.15188882 0.36951613 0.28998208 -0.21010341 -0.10188449 -0.26885253
-0.1916587 0.63045776 -0.031408746 -0.28635916 -0.24201901 0.20205806 -0.39623722 0.36306122
-0.40692607 -0.7565873 0.36350015 -0.55981463 -0.004945866 -0.1027295 0.649653 0.08695684
0.56775403 0.05042058 -0.5265847 -0.06449595 -0.41421238 0.109833814 0.6736888 -0.5553416
-0.019178964 0.58413166 -0.26832214 -0.2791311 0.00992507 -0.31760243 0.079818256 -0.12377046
0.2703806 -0.60862565 -0.3274145 -0.5358269 0.485425 0.21516371 -0.60635906 0.1294905
00000000: c8da d2be ffff d63e 7ac7 d13d b3ea 9bbe
00000010: a452 14bf 6715 0f3f 81e2 b33e ecf4 ad3d
00000020: 79e4 efbe 0189 ca3e 97a5 4cbe 85c2 f23e
00000030: baee d53d 262a 123f 2a47 95be 605b 5a3f
00000040: a907 95be 3698 d33e be88 1b3e 3831 bd3e
00000050: 8878 943e 5925 57be d1a8 d0bd 0aa7 89be
00000060: 2e42 44be ae65 213f 75a6 00bd ab9d 92be
00000070: d5d3 77be 4fe8 4e3e 9bdf cabe 29e3 b93e
00000080: 9d58 d0be b5af 41bf b11c ba3e 0350 0fbf
00000090: ee10 a2bb d863 d2bd a94f 263f 6d16 b23d
000000a0: 5458 113f cf85 4e3d 41ce 06bf 7416 84bd
000000b0: a513 d4be 8df0 e03d df76 2c3f de2a 0ebf
000000c0: 341d 9dbc a789 153f 8561 89be 46ea 8ebe
000000d0: c39c 223c c99c a2be c177 a33d 5e7b fdbd
000000e0: 536f 8a3e e4ce 1bbf e0a2 a7be f42b 09bf
000000f0: a089 f83e e053 5c3e 593a 1bbf 2899 043e

actor.pi_net.fcs.1.weight f4 [64, 64]
0.5013998 0.120122954 -0.2836928 0.69265276 0.7750984 0.16783413 -0.23664372 -0.3235877
-0.15274088 0.054375634 -0.034400217 0.7482427 -0.017495777 0.22323601 -0.59156114 1.1021514
0.110917695 0.43660378 0.06906055 -0.32083368 -0.00019451094 -0.08743245 0.059789635 -0.40195733
-0.17890768 0.09934613 0.1254921 0.49134055 0.4012616 -0.43813357 -0.026895162 -0.0952579
0.09329854 -0.084477715 0.3293809 -0.6710871 -0.35012007 -0.36119667 0.104516886 0.21634898
0.6204955 0.3606501 -0.14738496 -0.43232465 -0.14567366 -0.24204972 -0.0767558 0.25690824
0.092533335 -0.0315865 -0.46079144 0.28333196 0.89136136 -0.2703134 -0.2791115 -0.23866652
0.4246524 0.03405878 -0.17768066 -0.5940985 -0.4472389 -0.122047 -0.4347679 0.17839426
0.103455134 0.006861097 0.10250761 0.023844544 -0.13222049 0.08607541 0.19483623 -0.0881729
-0.08339489 -0.31365463 0.026758453 0.020252964 0.047230538 -0.0016990384 0.078489706 -0.195838
-0.09122624 -0.009256832 0.20019895 0.2559232 0.07584455 -0.027147045 -0.010341155 0.08296552
-0.1918117 -0.11207579 -0.0703438 -0.026257176 0.1220418 -0.08752746 -0.12087763 -0.1984985
-0.09554456 -0.1918764 0.056590367 -0.056870867 -0.10781455 0.06895799 -0.00096667587 0.06553031
-0.09453548 -0.0952489 0.09277873 -0.19676559 0.1434556 0.095160276 0.024896357 -0.05206236
0.028341897 0.17874077 -0.11131915 -0.014139428 0.050329987 0.04127579 0.29506433 -0.060875148
-0.055510417 0.030244442 -0.09845758 -0.013397144 -0.050872877 0.043170787 -0.04624493 0.025797604
0.041089218 -0.057649493 -0.015543251 -0.016399007 -0.016128134 -0.036040258 0.06278835 -0.16856559
0.12835117 -0.038230423 -0.10926326 0.10532586 0.03274 -0.14666072 0.007586536 0.03795592
-0.08754538 -0.12261767 -0.112867706 0.14404298 0.09989715 0.028861113 -0.017684609 0.03958008
-0.08371946 0.2319483 -0.20162818 -0.004280364 0.019510143 -0.14535658 0.12581885 0.12221747
0.1052023 0.15833104 0.17493518 0.048650507 0.06569962 0.04164248 -0.18067847 -0.008142977
-0.16649036 0.18581006 0.006277894 -0.08772229 -0.24994853 0.07819987 0.033108298 0.034086738
-0.08671837 0.12001136 -0.21522203 0.12995201 0.27023807 -0.048276607 -0.107414864 -0.024738671
-0.07051077 0.013616641 0.07845383 0.067523964 -0.13471866 0.04596676 0.0539588 -0.075869024
0.30509582 -0.3652513 -0.0229208 0.77467656 0.4642585 -0.27452448 0.1795362 0.07478121
-0.30245042 -0.26360127 0.36818427 -0.048479334 -0.05358519 -0.15237194 -0.047716822 0.1442589
-0.10630546 0.046384178 -0.35009512 -0.24975784 0.089914285 0.2725693 -0.37466502 0.65373796
0.33272085 -0.20132439 -0.28296214 0.679683 0.26454577 0.41414922 -0.23894428 -0.36788285
0.46464965 0.0628612 0.53495365 -0.11466323 0.014781131 0.061820906 -0.49178675 0.21598275
-0.09722626 0.45538843 0.22764347 -0.035675917 -0.2592203 -0.59044415 -0.24784428 0.9331572
0.172203 0.081882335 0.09226565 0.049611166 0.21356906 -0.11330215 -0.2872728 0.0804377
-0.43607685 0.28590128 0.0853711 0.37310454 -0.6829164 0.17879267 0.3230995 -0.2515653
00000000: bd5b 003f 0603 f63d 2f40 91be b151 313f
00000010: d96c 463f b6dc 2b3e bb52 72be 49ad a5be
00000020: 1b68 1cbe fcb8 5e3d 3ee7 0cbd d58c 3f3f
00000030: 4e53 8fbc fb97 643e 8d70 17bf 4c13 8d3f
00000040: d128 e33d 888a df3e 9e6f 8d3d 5044 a4be
00000050: a2f5 4bb9 c90f b3bd fae5 743d 5acd cdbe
00000060: 9333 37be fc75 cb3d 0081 003e fd90 fb3e
00000070: 2972 cd3e 0b53 e0be 3e53 dcbc 9316 c3bd
00000080: 4e13 bf3d a702 adbd 9da4 a83e 5dcc 2bbf
00000090: f042 b3be c5ee b8be f30c d63d 968a 5d3e
000000a0: cbd8 1e3f 21a7 b83e 15ec 16be a859 ddbe
000000b0: 7a2b 15be e2db 77be 2532 9dbd 7a89 833e
000000c0: 1e82 bd3d d960 01bd dbec ebbe e310 913e
000000d0: 4230 643f 8566 8abe b4e7 8ebe ff64 74be
000000e0: 0a6c d93e 3881 0b3d ebf1 35be d716 18bf
000000f0: 7ffc e4be c7f3 f9bd e699 debe fcac 363e
00000100: 49e0 d33d 0ed3 e03b 83ef d13d a255 c33c
00000110: cf64 07be 4e48 b03d 2683 473e fe93 b4bd
00000120: f1ca aabd 5797 a0be 8b34 db3c 8be9 a53c
00000130: cf74 413d 45b2 deba 36bf a03d c289 48be
00000140: d3d4 babd f8a9 17bc f400 4d3e 5e08 833e
00000150: 6354 9b3d 7b63 debc f36d 29bc d4e9 a93d
00000160: 496a 44be fe87 e5bd 6910 90bd 4a19 d7bc
00000170: 0df1 f93d 9941 b3bd b18e f7bd 3143 4bbe
00000180: deac c3bd 3f7b 44be 4dcb 673d 6df1 68bd
00000190: e0cd dcbd d939 8d3d 8568 7dba c134 863d
000001a0: d19b c1bd db11 c3bd c602 be3d eb7c 49be
000001b0: 06e6 123e 64e3 c23d 72f3 cb3c 573f 55bd
000001c0: 442d e83c d207 373e 4bfb e3bd 0fa9 67bc
000001d0: d126 4e3d ce10 293d ac12 973e 3858 79bd
000001e0: e45e 63bd 31c3 f73c 21a4 c9bd b27f 5bbc
000001f0: 1460 50bd dad3 303d 536b 3dbd 7f55 d33c
00000200: 2b4d 283d e021 6cbd 1fa9 7ebc 3657 86bc
00000210: 261f 84bc f39e 13bd 2e97 803d 759c 2cbe
00000220: 7d6e 033e 8197 1cbd 6bc5 dfbd 16b5 d73d
00000230: 611a 063d 3a2e 16be 7a98 f83b ab77 1b3d
00000240: fe4a b3bd f91e fbbd 2f27 e7bd 0180 133e
00000250: e196 cc3d 246e ec3c 50df 90bc b91e 223d
00000260: 1c75 abbd db83 6d3e 9e77 4ebe 4c42 8cbb
00000270: bcd3 9f3c 5bd8 14be a8d6 003e 274d fa3d
00000280: 4e74 d73d 8821 223e 3522 333e c145 473d
00000290: 868d 863d 4e91 2a3d c703 39be 1f6a 05bc
000002a0: 737c 2abe fe44 3e3e cbb6 cd3b bea7 b3bd
000002b0: 82f2 7fbe 4127 a03d 919c 073d 899e 0b3d
000002c0: 6799 b1bd 84c8 f53d 2a63 5cbe 2412 053e
000002d0: a55c 8a3e b1bd 45bd 53fc dbbd c1a8 cabc
000002e0: f367 90bd 5518 5f3c 67ac a03d 014a 8a3d
000002f0: b0f3 09be a447 3c3d e703 5d3d 3861 9bbd
00000300: 8535 9c3e 3802 bbbe 67c4 bbbc 3451 463f
00000310: 4ab3 ed3e 798e 8cbe 56d8 373e e426 993d
00000320: c8da 9abe bff6 86be a682 bc3e 4492 46bd
00000330: 257c 5bbd 6407 1cbe b772 43bd 9bb8 133e
00000340: adb6 d9bd 56fd 3d3d ab3f b3be 85c0 7fbe
00000350: fb24 b83d 348e 8b3e 18d4 bfbe 5f5b 273f
00000360: 635a aa3e fb27 4ebe 6ae0 90be b5ff 2d3f
00000370: 8b72 873e 5e0b d43e cfad 74be 245b bcbe
00000380: 8fe6 ed3e 5fbd 803d b9f2 083f 8ed4 eabd
00000390: 8f2c 723c eb37 7d3d 79cb fbbe 952a 5d3e
000003a0: 901e c7bd ac28 e93e 5f1b 693e e920 12bd
000003b0: 86b8 84be 5927 17bf e4ca 7dbe 64e3 6e3f
000003c0: fc55 303e edb1 a73d c6f5 bc3d 1435 4b3d
000003d0: d9b1 5a3e f50a e8bd 6c15 93be 85bc a43d
000003e0: 7745 dfbe a761 923e 0bd7 ae3d 8f07 bf3e
000003f0: 9cd3 2ebf 6d15 373e 4c6d a53e 2bcd 80be

actor.pi_net.fcs.1.bias f4 [64]
0.2842388 0.13501559 -0.023480432 -0.3921185 0.23661551 0.18260582 0.069155104 0.16421083
0.08375501 0.033641193 -0.112138666 0.2894089 -0.020320596 -0.025095304 -0.026657576 -0.37118456
-0.044911288 -0.03974576 0.25485784 -0.28087658 0.23647724 -0.33529142 0.16836701 0.14611977
0.039053872 -0.26484755 0.055023998 -0.056161135 0.051924523 -0.41763848 0.06271749 0.05009035
-0.058931965 0.5970593 -0.24120454 -0.040219836 -0.12846729 -0.25304472 -0.020797597 0.4498819
-0.14083898 0.6469904 0.35548574 0.24105568 -0.08075693 -0.008368833 -0.11479485 -0.16271262
0.14048742 -0.33161223 -0.12965578 -0.31668213 -0.17536421 -0.077607825 0.48995 -0.16447906
0.08646697 0.38088697 -0.1541154 -0.028625412 -0.04771276 0.10965383 -0.051437523 0.070822775
00000000: bf87 913e 8741 0a3e 095a c0bc c2c3 c8be
00000010: 564b 723e 05fd 3a3e 31a1 8d3d e226 283e
00000020: bf87 ab3d 59cb 093d f5a8 e5bd 672d 943e
00000030: 6177 a6bc ab94 cdbc fd60 dabc e70b bebe
00000040: e6f4 37bd 73cc 22bd ba7c 823e 0ecf 8fbe
00000050: 1727 723e 51ab abbe 6768 2c3e 6ca0 153e
00000060: f4f6 1f3d 199a 87be d860 613d 3809 66bd
00000070: cfae 543d b6d4 d5be 0772 803d 8a2b 4d3d
00000080: a562 71bd e1d8 183f 53fe 76be 8ebd 24bd
00000090: ee8c 03be 148f 81be b95f aabc ec56 e63e
000000a0: 1838 10be 2aa1 253f 3a02 b63e 4dd7 763e
000000b0: e463 a5bd 6e1d 09bc 9019 ebbd 239e 26be
000000c0: efdb 0f3e 14c9 a9be 7cc4 04be 2924 a2be
000000d0: ad92 33be daf0 9ebd bada fa3e 336d 28be
000000e0: 9815 b13d 9e03 c33e 6dd0 1dbe d77f eabc
000000f0: 746e 43bd 3092 e03d 27b0 52bd 880b 913d

actor.pi_net.fcs.2.weight f4 [4, 64]
0.47858578 -0.003162633 -0.004389158 -0.17457877 0.00068266055 -0.32279512 -0.010570984 0.00026308838
0.034349147 -0.03482996 0.0010240684 0.31400695 -0.54286176 0.01876427 -0.027232857 -0.4924078
-0.028082918 -0.0116723785 -0.064867005 0.01546466 0.17061938 0.01416063 -0.028510543 -0.0014824329
-0.06421202 0.3573251 0.0008273831 -0.010915441 0.08568385 0.056634333 0.07590073 -0.0070181172
0.012698959 0.34232748 0.5091238 -0.010731419 -0.009253386 0.3988511 0.16618374 -0.8655467
-0.026866484 0.06332243 0.052002173 -0.10070402 0.10389369 -0.013831743 0.056029014 -0.46462432
0.035495784 -0.1784497 -0.011894151 -0.24638103 0.016684996 0.00670556 -0.6054765 -0.08773338
0.004552021 -0.09238186 0.40324026 0.061962936 -0.019436514 -0.03960163 0.044368397 -0.41974372
-0.41681138 0.010604917 0.0030235143 -0.2646834 -0.012564078 0.36971366 -0.007057777 -0.055274997
-0.06892209 0.10024487 -0.018992268 0.2822349 0.08712698 0.027070288 -0.0073552765 -0.2404077
-0.021079475 0.09620562 0.16036846 0.03863711 0.06295496 0.07897044 -0.03729534 0.104231015
0.1129231 0.007265024 0.44661584 0.05307369 0.021536186 -0.27617586 -0.10893409 -0.00839906
0.040385783 0.13439526 0.21094306 0.015927296 -0.02743184 -0.10499717 0.64920956 -0.2637256
-0.059420284 -0.79833317 -0.11159222 -0.09963777 -0.0048370133 0.012903625 0.0521431 -0.2121381
-0.59036034 -0.4924682 0.0012448209 -0.55466413 -0.23980373 0.031831533 -0.39694124 -0.18083055
0.017303344 0.10304307 -0.8569467 -0.11502871 -0.0027784803 -0.009467247 -0.08920446 0.04539822
-0.4178108 0.0042877416 -0.0074064783 -0.22236721 0.018504767 0.12240239 -0.009766271 0.010728926
0.42192626 -0.0049615987 0.025899922 -0.50764894 0.5910851 0.048563577 0.026540857 0.79259783
0.015195534 -0.06467909 0.15576883 -0.0012887762 -0.74659365 -0.35094282 -0.032198094 -0.045351908
0.08547368 -0.5854443 -0.064304784 -0.022174459 -0.01324675 -0.3891225 -0.040907122 0.0049167117
-0.0011227657 0.4846284 -0.49845478 -0.03163713 0.027969275 -0.5289738 -0.016009293 0.2961425
-0.06278683 0.043368164 0.06018351 0.12468617 -0.3129697 -0.03994197 0.01576297 -0.24857008
-0.51057816 -0.07076814 -0.02695813 0.14035518 -0.10378244 -0.002274654 0.18501653 -0.07390749
0.019130869 0.23464681 0.18614389 -0.38020197 -0.022566734 -0.01170171 0.27581134 0.12764092
0.38482895 -0.011493707 -0.043472182 -0.5364588 -0.0014648022 -0.49363008 -0.021947844 0.04715959
-0.25675583 0.058122467 -0.025287922 -0.45136395 -0.13513982 0.024815138 -0.06084798 0.10510829
-0.07974911 0.059921935 -0.09354028 0.013106192 0.2720531 0.42941254 -0.06427286 0.023225378
0.011560022 -0.41316804 -0.31451273 0.002310116 -0.25910908 0.37899098 0.012584817 -0.011786707
0.030090502 0.347766 -0.18016334 0.095673285 0.012805669 0.51136947 -0.8307186 0.085768186
0.15442328 0.7291102 0.42444637 0.3532198 0.17431055 0.010451344 -0.007848028 -0.11344825
0.22965764 0.7916739 -0.019429754 -0.3155165 -0.24887253 -0.0063424995 0.33249164 0.013896475
-0.007950545 0.3573138 0.7955798 -0.07789187 0.0063657085 -0.032174565 -0.5069216 0.35668233
00000000: 3209 f53e 2d44 4fbb edd2 8fbb c7c4 32be
00000010: 93f4 323a 6745 a5be ec31 2dbc 20ef 8939
00000020: b1b1 0c3d dca9 0ebd 093a 863a 85c5 a03e
00000030: fdf8 0abf 87b7 993c 7117 dfbc e01c fcbe
00000040: 260e e6bc 813d 3fbc fed8 84bd 7c5f 7d3c
00000050: d9b6 2e3e fd01 683c f18e e9bc 324e c2ba
00000060: 9781 83bd 51f3 b63e bde4 583a aed6 32bc
00000070: 047b af3d 67f9 673d d871 9b3d 3cf8 e5bb
00000080: 4b0f 503c 8c45 af3e f055 023f d5d2 2fbc
00000090: 849b 17bc 3636 cc3e 122c 2a3e 7894 5dbf
000000a0: 1a17 dcbc 31af 813d 3b00 553d e93d cebd
000000b0: 37c6 d43d 899e 62bc ae7e 653d 3de3 edbe
000000c0: 0764 113d 85bb 36be afdf 42bc 4f4b 7cbe
000000d0: f9ae 883c 50ba db3b 8200 1bbf 8fad b3bd
000000e0: 1f29 953b b332 bdbd 8275 ce3e d9cc 7d3d
000000f0: 5339 9fbc 5235 22bd a3bb 353d a6e8 d6be
00000100: 4d68 d5be 3fc0 2d3c 2726 463b 9584 87be
00000110: 90d9 4dbc 1c4b bd3e ed44 e7bb 0968 62bd
00000120: 0627 8dbd 2f4d cd3d ac95 9bbc 1881 903e
00000130: a16f b23d 82c2 dd3c 8804 f1bb 702d 76be
00000140: ddae acbc 7407 c53d a137 243e f241 1e3d
00000150: 88ee 803d 41bb a13d 00c3 18bd 1277 d53d
00000160: 3a44 e73d 700f ee3b d5aa e43e cc63 593d
00000170: a86c b03c ec66 8dbe d618 dfbd 369c 09bc
00000180: 906b 253d e99e 093e 7501 583e f679 823c
00000190: bdb8 e0bc c208 d7bd 9932 263f 0b07 87be
000001a0: af62 73bd 905f 4cbf 768a e4bd e30e ccbd
000001b0: cf7f 9ebb ba69 533c 0194 553d bb3a 59be
000001c0: db21 17bf cb24 fcbe 4229 a33a 78fe 0dbf
000001d0: 1c8f 75be c861 023d e23b cbbe a52b 39be
000001e0: bebf 8d3c 3f08 d33d dc60 5bbf 2c94 ebbd
000001f0: 2a17 36bb 831c 1bbc d4b0 b6bd 7cf3 393d
00000200: 4ceb d5be 2f80 8c3b 0bb2 f2bb 3bb4 63be
00000210: 4f97 973c 1bae fa3d b602 20bc 61c8 2f3c
00000220: b806 d83e e894 a2bb 132c d43c 48f5 01bf
00000230: 5a51 173f 9aea 463d 366c d93c b1e7 4a3f
00000240: b0f6 783c 7976 84bd dd81 1f3e 27ec a8ba
00000250: c320 3fbf c7ae b3be 26e2 03bd ecc2 39bd
00000260: d30c af3d addf 15bf 3ab2 83bd 36a7 b5bc
00000270: e608 59bc 103b c7be 3a8e 27bd 5e1c a13b
00000280: c429 93ba 3721 f83e 7735 ffbe ef95 01bd
00000290: d21f e53c d46a 07bf ec25 83bc fd9f 973e
000002a0: 6296 80bd d1a2 313d fc82 763d 765b ff3d
000002b0: 913d a0be 319a 23bd 5821 813c 2889 7ebe
000002c0: 40b5 02bf e3ee 90bd 4cd7 dcbc 45b9 0f3e
000002d0: e38b d4bd 5d12 15bb f974 3d3e cf5c 97bd
000002e0: 57b8 9c3c 4147 703e 819c 3e3e d5a9 c2be
000002f0: dfdd b8bc 87b8 3fbc 2537 8d3e 4db4 023e
00000300: 4d08 c53e 1a50 3cbc e30f 32bd 5d55 09bf
00000310: 9bfe bfba 15bd fcbe f7cb b3bc 6a2a 413d
00000320: 8075 83be d311 6e3d 9e28 cfbc 2d19 e7be
00000330: 1862 0abe 1e49 cb3c bb3b 79bd 0443 d73d
00000340: 8053 a3bd b470 753d 0c92 bfbd 5bbb 563c
00000350: 8b4a 8b3e f6db db3e 7da1 83bd 2643 be3c
00000360: 3f66 3d3c c38a d3be d007 a1be 5165 173b
00000370: f2a9 84be 1b0b c23e 8c30 4e3c 081d 41bc
00000380: 5b80 f63c 630e b23e bd7c 38be 5bf0 c33d
00000390: dece 513c 1ce9 023f f9a9 54bf 3ba7 af3d
000003a0: 2321 1e3e f7a6 3a3f 0951 d93e 3ad9 b43e
000003b0: 777e 323e 1d3c 2b3c 0495 00bc 8e57 e8bd
000003c0: 5f2b 6b3e 24ab 4a3f 262b 9fbc 618b a1be
000003d0: 71d8 7ebe bed4 cfbb 583c aa3e 0aae 633c
000003e0: 0143 02bc d6f1 b63e 1eab 4b3f c685 9fbd
000003f0: 6f97 d03b 7ac9 03bd 9dc5 01bf 119f b63e

actor.pi_net.fcs.2.bias f4 [4]
0.21756801 -0.078404464 0.5055876 0.14354962
00000000: 26ca 5e3e 8592 a0bd 306e 013f acfe 123e

critic.v_net.fcs.0.weight f4 [64, 17]
1.3674208 3.2556336 1.4395348 -1.3410509 -2.9679425 0.3066496 3.2417746 -0.70107967
-3.643276 -1.1507137 -0.074552685 0.008749902 -0.76387846 1.1386846 0.3082971 -0.36454695
0.4972026 -0.4665951 -1.2447033 -1.0349495 8.624662 3.57131 -1.1972278 -3.5214639
0.46876696 0.28859848 1.7415421 -0.01193609 -0.010824986 0.20347811 0.16800667 -0.1039766
-0.0675101 -0.002248963 3.3588614 -2.468132 0.8957757 3.2721539 -1.059135 -5.260895
-0.8096128 2.4226234 -3.3758593 -0.4500702 -0.27628568 -0.15365943 0.5653711 -0.014366396
-0.15019318 -0.037664495 0.019747913 0.5840124 -3.1998062 -0.4164709 2.6268427 0.061370537
-6.4386296 1.3922925 -4.787381 1.7455246 -3.596621 -0.0016563624 0.044858996 0.12072014
0.09739405 0.018016547 0.08416709 0.049004436 3.4301121 1.5607697 1.5401918 2.600376
-1.527465 2.8659077 3.527475 -2.0711353 0.6465096 -1.3398802 -0.3295924 -0.38049078
0.14423953 -0.11209459 -0.1264742 0.22508107 -0.21773353 -1.0322651 4.3330507 -2.5695581
-6.5812263 3.378304 -0.5329526 -0.7319704 -0.50644296 1.3981562 -2.3192778 -0.26028875
-0.13702731 -0.2323864 -0.075327285 0.036859084 -0.06431219 -0.044268876 5.3515778 -1.9756694
-0.24744435 -1.5194491 -1.8326187 -1.059938 -2.4038918 -5.211049 1.415978 -3.2378848
-0.09850988 -0.36471382 -0.24081789 -0.022621619 0.16759148 0.22535364 0.17653285 0.7344581
3.8304887 -3.2119486 -0.23469959 3.2416086 -2.360831 -3.3015149 -0.8907923 0.84885776
2.0952451 -0.06471048 -0.07865279 -0.19020335 0.45206967 0.45184243 -0.2850283 -0.18096168
-0.27109423 3.271708 2.2313259 -5.9594345 -0.29007584 1.8971162 2.0716035 -0.9724149
0.7193006 -2.6242533 0.43937868 -0.14569053 0.40243405 -0.26276767 0.27899808 -0.03252778
-0.1421671 -7.8669386 5.453294 -3.936554 -1.7386007 0.14326036 0.53063655 -1.1416599
-2.9517052 2.613428 0.70363253 0.0014474451 0.058075838 -0.06666916 0.038417988 0.015305973
-0.051646523 -0.057175167 7.06018 5.9469295 -0.06530731 1.1089503 -0.26650724 -4.002456
5.420686 -0.8099175 -2.1734345 0.26460454 0.20868222 0.026173225 0.31566557 0.029812729
-0.1679672 0.12007496 -0.09028197 6.656792 2.3901694 0.80333656 6.045642 -1.5855482
-4.4110703 0.3732977 2.7447252 2.3597233 1.6363221 0.04077607 0.0004384745 -0.5409466
0.0492313 0.33143142 0.19762865 0.031862214 -6.5147877 -3.118427 3.9979112 -1.4611202
1.7763239 -1.580831 0.7699607 -2.442268 -1.0808045 0.21836138 -0.13799033 0.14652252
0.034945257 -0.07836572 -0.01606137 0.0806563 -0.015152335 1.3042217 6.3708663 -2.91635
5.1620207 -2.9711404 -2.2486727 0.597869 4.842826 -3.9328933 0.090441264 -0.091353044
0.08678471 0.2456796 0.24645829 0.031212714 -0.10611883 0.016829545 6.151962 9.529309
-0.31377667 1.397712 1.5723349 -0.25485218 0.008217825 -0.36294264 3.8204784 0.9956315
-0.06839651 -0.04374786 0.42334935 0.1721728 -0.07005957 -0.0070724543 -0.11177798 3.7363539
00000000: a507 af3f 4d5c 5040 ad42 b83f 8ea7 abbf
00000010: c5f2 3dc0 2d01 9d3e 3c79 4f40 f579 33bf
00000020: 6f2b 69c0 964a 93bf 14af 98bd c05b 0f3c
00000030: 8a8d 43bf 6bc0 913f 1ed9 9d3e e6a5 babe
00000040: 5791 fe3e 8ee5 eebe 7052 9fbf 3a79 84bf
00000050: 9efe 0941 5890 6440 c33e 99bf aa5f 61c0
00000060: 3902 f03e 2ec3 933e daea de3f 978f 43bc
00000070: 485b 31bc 915c 503e f109 2c3e aff1 d4bd
00000080: bc42 8abd 5763 13bb 96f7 5640 e0f5 1dc0
00000090: 8e51 653f f86a 5140 bc91 87bf 4059 a8c0
000000a0: c942 4fbf 430c 1b40 140e 58c0 9a6f e6be
000000b0: 5175 8dbe e658 1dbe 29bc 103f 0861 6bbc
000000c0: 3ecc 19be 1646 1abd 60c6 a13c d681 153f
000000d0: a0c9 4cc0 ac3b d5be 311e 2840 ac5f 7b3d
000000e0: 4109 cec0 a436 b23f 3a32 99c0 5a6d df3f
000000f0: 0a2f 66c0 4d1a d9ba 11be 373d 1f3c f73d
00000100: 8876 c73d 7097 933c cc5f ac3d e0b8 483d
00000110: f586 5b40 4dc7 c73f 0125 c53f 8f6c 2640
00000120: f983 c3bf 086b 3740 27c2 6140 7b8d 04c0
00000130: a781 253f 3281 abbf 56c0 a8be b0cf c2be
00000140: 87b3 133e d991 e5bd 7482 01be a77b 663e
00000150: 8af5 5ebe 4321 84bf 5aa8 8a40 a473 24c0
00000160: 6899 d2c0 2236 5840 956f 08bf 6a62 3bbf
00000170: 3fa6 01bf c8f6 b23f 0c6f 14c0 9144 85be
00000180: e350 0cbe b3f6 6dbe 3145 9abd 8df9 163d
00000190: 1cb6 83bd 4853 35bd 2040 ab40 bce2 fcbf
000001a0: 0d62 7dbe 4f7d c2bf 4093 eabf 0cac 87bf
000001b0: 5dd9 19c0 eac0 a6c0 c43e b53f 8139 4fc0
000001c0: 8cbf c9bd c5bb babe f798 76be f950 b9bc
000001d0: 1a9d 2b3e 1bc3 663e 07c5 343e 7205 3c3f
000001e0: ba26 7540 9190 4dc0 1755 70be 8476 4f40
000001f0: db17 17c0 054c 53c0 f70a 64bf be4e 593f
00000200: 7f18 0640 ee86 84bd b714 a1bd abc4 42be
00000210: ad75 e73e e457 e73e 3bef 91be 054e 39be
00000220: ddcc 8abe aa63 5140 0bce 0e40 b0b3 bec0
00000230: d284 94be b4d4 f23f 2795 0440 2ff0 78bf
00000240: 1624 383f c4f3 27c0 3ef6 e03e e62f 15be
00000250: d60b ce3e 7c89 86be d6d8 8e3e d93b 05bd
00000260: 4194 11be f6bd fbc0 6281 ae40 80f0 7bc0
00000270: 788a debf d8b2 123e ccd7 073f e921 92bf
00000280: bde8 3cc0 6842 2740 4321 343f 33b8 bd3a
00000290: eee0 6d3d d789 88bd 2e5c 1d3d e7c5 7a3c
000002a0: 4e8b 53bd 8230 6abd ffec e140 3f4d be40
000002b0: d7bf 85bd 15f2 8d3f a373 88be 1f14 80c0
000002c0: 4276 ad40 c156 4fbf 8d19 0bc0 3f7a 873e
000002d0: cbb0 553e 3b69 d63c eb9e a13e d339 f43c
000002e0: 98ff 2bbe dce9 f53d c1e5 b8bd 7104 d540
000002f0: 89f8 1840 77a7 4d3f e675 c140 3ef3 cabf
00000300: 7d27 8dc0 e020 bf3e 94a9 2f40 b505 1740
00000310: 0173 d13f cf04 273d 0de3 e539 7a7b 0abf
00000320: c2a6 493d 61b1 a93e 2a5f 4a3e f481 023d
00000330: 2479 d0c0 4f94 47c0 c7dd 7f40 fd05 bbbf
00000340: 955e e33f ac58 cabf 251c 453f 1e4e 1cc0
00000350: cd57 8abf 209a 5f3e 564d 0dbe 000a 163e
00000360: c222 0f3d 357e a0bd 2293 83bc 212f a53d
00000370: 8041 78bc bdf0 a63f 23de cb40 7aa5 3ac0
00000380: 462f a540 2a27 3ec0 41ea 0fc0 f10d 193f
00000390: 6ef8 9a40 86b4 7bc0 4539 b93d 4e17 bbbd
000003a0: 2fbc b13d 6f93 7b3e 905f 7c3e ceb1 ff3c
000003b0: d454 d9bd 1dde 893c dfdc c440 0d78 1841
000003c0: 56a7 a0be 3ae8 b23f 4542 c93f fc7b 82be
000003d0: 0ea4 063c 9ed3 b9be b882 7440 b5e1 7e3f
000003e0: 7813 8cbd f530 33bd 3fc1 d83e 114e 303e
000003f0: 647b 8fbd 0cc0 e7bb dbeb e4bd 6c20 6f40

critic.v_net.fcs.0.bias f4 [64]
3.7381282 -0.72627306 -3.1404886 -0.09578536 2.9631374 -1.0976992 0.97365814 -2.3990006
4.2071786 1.1726527 1.190697 0.7947238 -0.7180265 -1.4166924 1.5578357 3.3239934
-0.4988659 2.5790105 -0.36576608 -4.6658444 2.6310184 1.2784303 0.9807254 3.196933
3.8182876 -1.9746321 0.32669884 1.5528193 -2.8357785 1.2810384 -1.7404879 -1.7343427
-1.5957776 -2.6955838 3.8825374 1.822343 2.5998313 0.13897374 1.7663653 2.1787665
-3.997355 3.3898585 1.3460944 -2.3924956 1.8457072 2.0981417 -0.8933571 -2.039722
-2.5076854 3.234226 2.7893496 -4.2544317 1.4163297 -1.6333529 2.3496947 -1.8542272
0.6804285 -2.5400972 2.6036336 1.1150535 3.1286163 0.81241333 -1.7882965 -2.1454942
00000000: 7e3d 6f40 08ed 39bf c4fd 48c0 1d2b c4bd
00000010: 0ba4 3d40 6881 8cbf a941 793f 3a89 19c0
00000020: 35a1 8640 7c19 963f c268 983f 0573 4b3f
00000030: 96d0 37bf 2d56 b5bf 2967 c73f 4fbc 5440
00000040: 5a6b ffbe 820e 2540 b145 bbbe 994e 95c0
00000050: 9b62 2840 9ba3 a33f d210 7b3f 8d9a 4c40
00000060: d35e 7440 bfc0 fcbf 1245 a73e c8c2 c63f
00000070: 657d 35c0 11f9 a33f 4fc8 debf f1fe ddbf
00000080: 7142 ccbf 7284 2cc0 7e7b 7840 8942 e93f
00000090: a363 2640 224f 0e3e 4218 e23f e970 0b40
000000a0: aad4 7fc0 71f3 5840 d24c ac3f a61e 19c0
000000b0: 2240 ec3f f447 0640 0db3 64bf ce8a 02c0
000000c0: eb7d 20c0 8ffd 4e40 b484 3240 4e24 88c0
000000d0: 4b4a b53f b511 d1bf 6661 1640 5157 edbf
000000e0: 9030 2e3f f490 22c0 efa1 2640 13ba 8e3f
000000f0: 403b 4840 52fa 4f3f e6e6 e4bf c74f 09c0

critic.v_net.fcs.1.weight f4 [64, 64]
0.7824473 -0.4600612 -0.33602434 0.0065211817 0.26257664 -0.48746577 0.9734551 -0.98054355
0.5336531 -0.5339204 0.90282834 -0.68435484 1.0148622 -0.95272124 -0.43511885 0.84215343
0.28477234 0.7389862 0.6026141 0.46982017 1.1118257 -0.2362822 0.0674043 0.489326
1.1651467 -0.42069685 -0.016987126 0.5442365 -0.59198105 0.6032486 -0.5510216 -0.7045556
-0.4760155 0.3166994 0.81671345 0.3407911 0.04252522 -0.54975307 0.5721378 -0.04986227
-0.8500413 0.21875425 0.8067038 -0.19267476 0.82106394 0.24169673 -0.42536414 -0.5820241
-0.31073472 0.64705074 1.0668756 0.2359266 0.858942 -1.0279162 0.66290396 -0.30099925
0.12847885 -0.72966635 0.5122889 0.72832847 0.587598 0.37432075 0.15072957 -0.6365815
1.029264 -1.3114039 -0.49609184 0.7078621 -0.24128133 -1.4019656 -0.38486552 -0.28994524
1.1367124 0.81879973 1.7897921 -0.89270073 0.8844297 0.16591908 -0.6240788 -0.5111333
-0.08025419 0.3437041 0.2820334 -1.9131861 0.47098476 -0.19641459 1.8856506 1.2103794
-1.3541132 -0.20679945 2.6345923 0.21725143 0.44531888 -0.47212246 -1.6657091 0.16939706
-2.9981785 -1.1489213 -0.95482314 0.2025444 0.7271545 -2.8433526 1.5729496 0.12967394
0.8089725 0.85992885 0.23262559 -1.1093404 0.9983944 0.47630683 0.22795208 -2.6313584
-0.793587 2.128108 0.19791184 -0.29444396 0.70307946 -0.087938175 0.044055417 -1.8835261
0.63773835 -0.50159067 -0.16245659 -0.045178708 0.97479254 0.4779246 -0.16634451 -0.085070774
0.7876496 -0.5498301 -0.25547794 -0.06870393 0.39380965 -0.39774537 0.9105179 -0.7799156
0.5828169 -0.6198783 0.90186507 -0.7226972 1.0693418 -0.8766032 -0.43732545 0.6830972
0.087604485 0.7803427 0.57159287 0.42821777 1.0544497 0.011205468 0.10229732 0.65340894
1.1747535 -0.49494913 -0.00138381 0.58575535 -0.60485715 0.54596657 -0.51094574 -0.7371134
-0.43654004 0.40644315 0.6855671 0.45261413 -0.0058240197 -0.41609904 0.38644364 -0.059557844
-0.7743356 0.255537 0.68164086 -0.08753456 0.9206075 0.41943312 -0.4825621 -0.7873516
-0.2769987 0.51250595 1.1762514 0.35862356 0.70625 -1.0996453 0.51583636 -0.48480567
-0.11118284 -0.7597525 0.6158144 0.72168785 0.49343374 0.42467743 0.32462606 -0.60476273
0.7353651 -1.3018272 -4.024693 0.9813924 0.446188 -1.2995319 0.53099215 -1.4458574
0.40572506 -3.309672 0.44925383 0.43447855 -0.2720205 0.6148354 -0.1796031 -0.45350456
2.3425877 0.35224944 -0.22172292 -2.5885527 -0.1177857 -0.49886933 0.29717094 -0.5757336
0.041434374 0.74163413 1.9044765 -0.580577 -2.9982185 2.2198577 0.6378727 -1.030717
0.45155483 -1.1546948 0.18558738 0.14439818 -1.0048186 -0.1657548 1.3468121 0.4359261
-2.4311156 1.1927491 0.70319813 -1.3709927 -0.50255436 -0.57978314 0.893499 0.26957366
0.51643085 0.3565051 1.1823708 -0.026508339 -0.11085984 -0.09154645 4.192957 -0.7764533
1.0198457 0.72089964 -0.9986256 -0.6910017 -0.6062657 -0.3133882 0.35871962 -1.1187854
00000000: 774e 483f 248d ebbe 620b acbe a3af d53b
00000010: 7270 863e 1d95 f9be 5a34 793f e704 7bbf
00000020: 7d9d 083f 02af 08bf c21f 673f e131 2fbf
00000030: 01e7 813f 8ae5 73bf e6c7 debe 5e97 573f
00000040: aecd 913e 332e 3d3f eb44 1a3f 458c f03e
00000050: 4e50 8e3f f6f3 71be 440b 8a3d f088 fa3e
00000060: 8723 953f 9465 d7be 9628 8bbc 1553 0b3f
00000070: 128c 17bf 806e 1a3f c00f 0dbf c15d 34bf
00000080: 4eb8 f3be 6c26 a23e 2214 513f 2c7c ae3e
00000090: ed2e 2e3d 9ebc 0cbf 9f77 123f 613c 4cbd
000000a0: 4e9c 59bf 1d01 603e 2484 4e3f 884c 45be
000000b0: 3f31 523f 597f 773e 54c9 d9be 88ff 14bf
000000c0: 9f18 9fbe 1ea5 253f 618f 883f be96 713e
000000d0: 9fe3 5b3f c292 83bf 13b4 293f 931c 9abe
000000e0: f68f 033e 6acb 3abf 5e25 033f bc73 3a3f
000000f0: d36c 163f f8a6 bf3e da58 1a3e 01f7 22bf
00000100: ecbe 833f 15dc a7bf c0ff fdbe 7336 353f
00000110: 7412 77be 9c73 b3bf 180d c5be b473 94be
00000120: cb7f 913f dc9c 513f e817 e53f 0988 64bf
00000130: fc69 623f b1e6 293e a1c3 1fbf a2d9 02bf
00000140: 4f5c a4bd fcf9 af3e af66 903e 48e3 f4bf
00000150: ea24 f13e e820 49be 005d f13f b6ed 9a3f
00000160: 9553 adbf 3cc3 53be 299d 2840 2977 5e3e
00000170: d600 e43e 09ba f1be f535 d5bf 6c76 2d3e
00000180: 28e2 3fc0 da0f 93bf 4a6f 74bf cd67 4f3e
00000190: cc26 3a3f 7df9 35c0 6a56 c93f 3fc9 043e
000001a0: d218 4f3f 4c24 5c3f 6735 6e3e defe 8dbf
000001b0: c796 7f3f 7dde f33e 456c 693e 2d68 28c0
000001c0: 8528 4bbf ec32 0840 67a9 4a3e 5cc1 96be
000001d0: 04fd 333f ee18 b4bd 7473 343d 6217 f1bf
000001e0: d242 233f 3f68 00bf 055b 26be 4f0d 39bd
000001f0: 018c 793f 88b2 f43e 3756 2abe 9639 aebd
00000200: 67a3 493f aac1 0cbf 01ce 82be a5b4 8cbd
00000210: 6ba1 c93e 48a5 cbbe b317 693f 8ca8 47bf
00000220: 7d33 153f 58b0 1ebf a1e0 663f af02 39bf
00000230: 31e0 883f 1169 60bf 1fe9 dfbe 75df 2e3f
00000240: fb69 b33d 8ac4 473f e953 123f 5c3f db3e
00000250: 35f8 863f 2497 373c 4281 d13d cf45 273f
00000260: 535e 963f f969 fdbe f560 b5ba 10f4 153f
00000270: ebd7 1abf 77c4 0b3f 57cd 02bf 77b3 3cbf
00000280: 2d82 dfbe 5119 d03e 5381 2f3f 0abd e73e
00000290: 6bd7 bebb ef0a d5be f1db c53e edf2 73bd
000002a0: dc3a 46bf bfd5 823e 0480 2e3f 5245 b3bd
000002b0: efac 6b3f f0bf d63e 6112 f7be e08f 49bf
000002c0: c6d2 8dbe 9733 033f 688f 963f 829d b73e
000002d0: cdcc 343f 2dc1 8cbf da0d 043f 7338 f8be
000002e0: d4b3 e3bd 247f 42bf 03a6 1d3f 89c0 383f
000002f0: 59a3 fc3e 526f d93e 6335 a63e bbd1 1abf
00000300: e340 3c3f 46a2 a6bf 49ca 80c0 883c 7b3f
00000310: c172 e43e 1057 a6bf 1aef 073f db11 b9bf
00000320: 32bb cf3e abd1 53c0 9904 e63e f973 de3e
00000330: 4546 8bbe da65 1d3f e0e9 37be c031 e8be
00000340: f5ec 1540 0a5a b43e 550b 63be d9aa 25c0
00000350: a139 f1bd cd6b ffbe ca26 983e 4763 13bf
00000360: 17b7 293d bcdb 3d3f e3c5 f33f b2a0 14bf
00000370: d0e2 3fc0 2612 0e40 a04b 233f 89ee 83bf
00000380: 3232 e73e 0acd 93bf 9e0a 3e3e 1edd 133e
00000390: e59d 80bf a0bb 29be 5764 ac3f b531 df3e
000003a0: 6697 1bc0 01ac 983f cb04 343f b07c afbf
000003b0: 67a7 00bf ab6c 14bf 5abc 643f 8f05 8a3e
000003c0: d034 043f d687 b63e ed57 973f 0428 d9bc
000003d0: 7c0a e3bd b57c bbbd b42c 8640 a5c5 46bf
000003e0: 4e8a 823f e18c 383f eda5 7fbf 7de5 30bf
000003f0: 3b34 1bbf 6b74 a0be 19aa b73e 5c34 8fbf

critic.v_net.fcs.1.bias f4 [64]
1.2658683 0.6330197 1.2493888 0.6510812 -0.7292305 -1.1532803 0.21548896 -0.7562671
0.85587865 1.6461754 -0.640954 1.3013786 -0.960522 -1.3633231 0.7604751 -1.4208872
1.2815803 1.4133941 1.1601487 1.1812938 -0.74519175 -1.6239743 1.3147058 -1.3016742
-0.0223881 -1.2896557 -1.4311726 1.3512949 -0.20932508 -0.3611488 0.92542243 -1.3242748
-1.2567027 0.9588667 0.7699406 1.4268336 -1.37996 -0.9298067 -1.3135266 -1.2527694
0.77529 -0.6312067 1.2986048 -1.7192942 1.0332526 0.43608993 -1.3245167 -1.1901803
1.498338 1.344305 -0.9307297 0.9441189 1.1339221 1.2157888 1.3056576 -1.618258
-1.2089291 -0.1673079 1.1606408 1.3942347 -1.2125494 -1.2376857 -1.3349062 1.0097357
00000000: f907 a23f 940d 223f f9eb 9f3f 42ad 263f
00000010: daae 3abf b09e 93bf 23a9 5c3e b89a 41bf
00000020: dd1a 5b3f e0b5 d23f 9015 24bf 9393 a63f
00000030: c5e4 75bf 5f81 aebf 7fae 423f a2df b5bf
00000040: d30a a43f 19ea b43f c17f 943f a334 973f
00000050: e3c4 3ebf 64de cfbf 4848 a83f 439d a6bf
00000060: 4067 b7bc 7013 a5bf aa30 b7bf 3bf7 ac3f
00000070: 5059 56be 7fe8 b8be 7ce8 6c3f d681 a9bf
00000080: a2db a0bf 4a78 753f d41a 453f 7ca2 b63f
00000090: 87a2 b0bf d007 6ebf a421 a8bf bf5a a0bf
000000a0: 6879 463f c396 21bf af38 a63f d511 dcbf
000000b0: 9f41 843f 2e47 df3e c389 a9bf d457 98bf
000000c0: 8ac9 bf3f 3012 ac3f 4d44 6ebf c7b1 713f
000000d0: 5c24 913f f89e 9b3f ca1f a73f 1423 cfbf
000000e0: 30be 9abf c352 2bbe e18f 943f 4876 b23f
000000f0: d234 9bbf 7c6c 9ebf 35de aabf 053f 813f

critic.v_net.fcs.2.weight f4 [1, 64]
-1.4674139 -3.7019033 -1.4953412 -3.4094834 4.4908495 1.4314942 -34.60285 3.3654845
-3.5917306 -16.60614 4.923339 -1.5163815 1.8247839 1.4357339 -4.641594 1.5136461
-3.32911 -1.4730048 -1.4801946 -1.418426 2.7331734 3.1751225 -1.7365168 1.5256594
-17.352142 1.5012026 1.4337052 -1.4196851 4.1912074 4.140196 -3.4560275 19.191809
1.5226532 -26.120106 -3.6669753 -1.5113667 1.4890823 2.690974 1.4737501 1.4411811
-3.9037335 2.953522 -1.4799207 26.209316 -3.2698154 -2.4081323 3.9213173 1.423808
-0.571108 -1.4314184 2.971811 -4.928503 -1.4231077 -1.4553202 -1.510539 3.792331
1.4859189 5.3971977 -1.4960463 -1.3894581 1.6494447 5.305375 1.420021 -1.5066429
00000000: 38d4 bbbf fceb 6cc0 5767 bfbf fa34 5ac0
00000010: 0ab5 8f40 343b b73f 5269 0ac2 1964 5740
00000020: eade 65c0 60d9 84c1 fe8b 9d40 ca18 c2bf
00000030: 8592 e93f 21c6 b73f f087 94c0 28bf c13f
00000040: 2310 55c0 6c8b bcbf 0477 bdbf fc8e b5bf
00000050: 50ec 2e40 3535 4b40 2f46 debf cf48 c33f
00000060: 30d1 8ac1 6827 c03f a783 b73f 3eb8 b5bf
00000070: 5f1e 8640 7c7c 8440 8e2f 5dc0 d388 9941
00000080: 4de6 c23f faf5 d0c1 b9af 6ac0 7774 c1bf
00000090: 409a be3f eb38 2c40 d8a3 bc3f 9f78 b83f
000000a0: c5d6 79c0 8106 3d40 0b6e bdbf aeac d141
000000b0: a844 51c0 d71e 1ac0 ddf6 7a40 573f b63f
000000c0: 2234 12bf b838 b7bf 2732 3e40 4cb6 9dc0
000000d0: 6528 b6bf ef47 babf 5859 c1bf 8db5 7240
000000e0: 9732 be3f d8b5 ac40 727e bfbf c3d9 b1bf
000000f0: 0121 d33f a2c5 a940 40c3 b53f add9 c0bf

exp_avg f4 [4]
0.017239833 0.013658771 -0.04855036 0.0034961367
00000000: 8d3a 8d3c 0ac9 5f3c bedc 46bd 711f 653b

exp_avg_sq f4 [4]
0.016306574 0.013338093 0.014736319 0.013610735
00000000: 5d95 853c 0488 5a3c 9a70 713c 8fff 5e3c

exp_avg f4 [64, 17]
-0.00024238015 -8.724826e-05 0.000779736 0.0003235383 -0.00025588094 -0.00055168715 -9.607975e-05 -0.00023193697
7.306052e-05 -4.7407568e-05 -0.0037885315 0.00015890789 0.001567155 -0.0032535417 0.0004956561 -0.0011787387
0.00063055265 0.00016608491 8.858243e-05 -0.000609522 -0.00030346698 3.5288624e-05 0.00074106274 -0.0003824792
0.00022306232 -0.0002874494 -5.969745e-05 -0.0058176653 -0.0021929084 0.003550904 0.002690597 -0.001187112
-0.0008435534 0.005373956 -0.0005572121 -0.00082444825 0.004438746 -0.0012936266 0.0013114044 0.002026549
0.0018699637 0.0027328674 -0.0012735858 -0.0013428897 -0.006070061 -0.024805058 0.02689132 0.0051212437
-0.007926745 -0.005233791 -0.0031928148 -0.00046602078 0.0007852172 -0.003995031 0.0012099311 -0.0012904373
-0.0042578103 -0.00046553437 -0.0011898688 0.0005429568 0.00089382887 0.008473365 0.0066188904 -0.0138958935
-0.0044015734 0.0035012097 0.009293656 0.010228917 -0.00091899815 -4.5421693e-05 0.0012886821 0.00030811742
0.00010714696 -0.00070563034 0.0018691712 -0.00023407763 -0.0011778563 0.00023869517 -0.0047489046 -0.00042137998
0.009065167 0.0013764962 -0.0046459013 0.00798898 0.006986576 0.00037650604 -0.00024228821 0.0014240454
-0.00016809274 0.0005331763 0.0010963856 0.00029828944 -0.00030088125 -0.00035141537 -5.1223455e-05 -0.0091083255
0.005561981 0.004233174 0.00521378 -0.003946429 -0.0024884383 -0.0002285702 -0.00051746774 -0.00013415737
0.001844881 -0.00020508666 0.00051028276 -5.401922e-05 0.0014905183 0.0010481711 9.3605e-05 1.2653756e-05
0.008036363 -0.011835836 0.009661294 -0.0005676647 -0.001363934 0.00733584 0.005138848 7.3997326e-05
7.85385e-05 -0.00044881614 0.00020735757 -0.00023726736 -0.00022017754 -0.0002206688 0.00015938292 -9.3907925e-05
-0.0002539858 0.00067789044 0.0011276363 0.0013127882 -0.0020851337 0.0010829965 -0.0001656999 0.0013021086
-3.5879824e-05 -3.742792e-06 0.00043846222 -0.00024699455 2.0063819e-05 0.00020117099 0.00030270114 0.0005848674
-0.00029875748 -5.4409138e-05 -0.0049894843 -0.0044657034 0.001134628 0.0002680274 -0.0012355999 -0.0014109706
-0.0038488072 -5.7615347e-05 -3.959136e-05 -0.00059031503 -3.6450667e-06 3.6762005e-05 -0.00061442977 -0.00019773602
-2.1171312e-05 0.00010800123 0.00010854695 0.002361738 -0.00013922722 -0.0003818744 -0.002094283 0.000785947
0.00049106765 0.004139625 -0.00025324416 -0.00012624974 0.00057229 3.076087e-05 0.00015593087 -0.00075452303
0.0008436906 0.00036213704 -0.00013431867 5.7886555e-05 0.0031519884 -0.0037287169 0.0027439161 -0.00085318804
0.0014820354 0.0010848629 0.0007226125 -0.0003546307 -0.0002171163 0.001403265 -0.00012551925 0.0002478176
-0.00012713825 0.0012448188 0.00046237803 -0.00070474064 -0.00040408567 -0.0029871354 -0.0040897666 0.012193137
-0.0037339034 -0.0017829438 0.00017901933 0.0022601378 0.001683788 0.00088363735 -0.005914156 0.0015515556
-0.0013844608 -0.0016190462 -0.0033853245 -0.0040505547 0.002049179 0.0015892725 0.0046458063 0.034939483
-0.033144917 -0.00039263009 0.005767741 0.0038644152 0.0027641556 0.002222165 0.0007148242 -0.0043656826
0.00097593066 -0.0009264613 0.0013220245 -0.003779087 -0.0033605767 0.0025192942 0.0015726432 -0.0023190393
0.021353101 -0.03135718 0.016380545 0.009730652 0.0026936436 -0.00023093903 2.8222012e-05 -5.7467954e-05
-0.00045242556 -0.00013416118 9.758033e-05 0.0010708902 -0.00087849115 0.00028095752 0.00032781682 -7.913638e-05
-0.00015244141 0.0009497439 -0.0030542419 0.002121838 -0.0023389566 -0.0025053036 0.000510318 1.4758095e-06
00000000: 6d27 7eb9 0ef9 b6b8 3267 4c3a 93a0 a939
00000010: c227 86b9 199f 10ba 6c7e c9b8 1b34 73b9
00000020: 1138 9938 7dd7 46b8 0349 78bb 83a0 2639
00000030: ff68 cd3a 5f39 55bb ebee 013a e87f 9aba
00000040: ac4b 253a 1427 2e39 54c5 b938 54c8 1fba
00000050: a61a 9fb9 df02 1438 e143 423a 7d87 c8b9
00000060: d6e5 6939 ceb4 96b9 a663 7ab8 1da2 bebb
00000070: e6b6 0fbb 49b6 683b ba54 303b de98 9bba
00000080: e921 5dba 0318 b03b df11 12ba c91f 58ba
00000090: e672 913b e88e a9ba 6ee3 ab3a dacf 043b
000000a0: 9219 f53a e819 333b 73ee a6ba e703 b0ba
000000b0: 5de7 c6bb fa33 cbbc 2f4b dc3c 1bd0 a73b
000000c0: 2edf 01bc 3980 abbb 8b3e 51bb 4054 f4b9
000000d0: 09d7 4d3a c0e8 82bb 8d96 9e3a e423 a9ba
000000e0: 1a85 8bbb f712 f4b9 5ff5 9bba 3755 0e3a
000000f0: d74f 6a3a ded3 0a3c 47e3 d83b 9aab 63bc
00000100: 133b 90bb 8d74 653b 6b44 183c 3097 273c
00000110: ece8 70ba 2c83 3eb8 ffe8 a83a d28a a139
00000120: 16b4 e038 0dfa 38ba fafe f43a bc72 75b9
00000130: 4d62 9aba 3f4a 7a39 b39c 9bbb aaec dcb9
00000140: 1186 143c 8c6b b43a a53c 98bb 36e4 023c
00000150: a6ef e43b c965 c539 bf0e 7eb9 09a7 ba3a
00000160: 0d42 30b9 dbc4 0b3a 99b4 8f3a bb63 9c39
00000170: 99bf 9db9 2c3e b8b9 c4d8 56b8 163b 15bc
00000180: 4741 b63b 70b6 8a3b 5bd8 aa3b 0c51 81bb
00000190: 1115 23bb 59ac 6fb9 aca6 07ba 98ac 0cb9
000001a0: efcf f13a 880c 57b9 7fc4 053a b292 62b8
000001b0: 7f5d c33a c962 893a cd4d c438 784b 5437
000001c0: f3aa 033c 18eb 41bc 674a 1e3c 55cf 14ba
000001d0: 08c6 b2ba 7c61 f03b c863 a83b 032f 9b38
000001e0: 09b5 a438 154f ebb9 206e 5939 f9ca 78b9
000001f0: 75df 66b9 5463 67b9 0720 2739 6ff0 c4b8
00000200: 6629 85b9 75b4 313a 32cd 933a dd11 ac3a
00000210: bda6 08bb 55f3 8d3a babf 2db9 84ab aa3a
00000220: ab7d 16b8 ad2c 7bb6 67e1 e539 0c7f 81b9
00000230: b94e a837 6df1 5239 dcb3 9e39 c951 193a
00000240: 8da2 9cb9 5e35 64b8 d47e a3bb 0955 92bb
00000250: ccb7 943a 0786 8c39 daf3 a1ba 51f0 b8ba
00000260: 453c 7cbb 02a8 71b8 e60e 26b8 5fbf 1aba
00000270: c59d 74b6 e730 1a38 af11 21ba 5c57 4fb9
00000280: 0c99 b1b7 b87e e238 b3a3 e338 63c7 1a3b
00000290: 86fd 11b9 5036 c8b9 3d40 09bb 0308 4e3a
000002a0: feba 003a b1a5 873b dbc5 84b9 e861 04b9
000002b0: bb05 163a 3c05 0138 6081 2339 2fcb 45ba
000002c0: 1e2b 5d3a 36dd bd39 e5d7 0cb9 37cb 7238
000002d0: 9791 4e3b 7d5d 74bb 46d3 333b 7ba8 5fba
000002e0: db40 c23a f531 8e3a b46d 3d3a baed b9b9
000002f0: b7a9 63b9 c3ed b73a d19d 03b9 84ed 8139
00000300: 6a50 05b9 3029 a33a 546b f239 58be 38ba
00000310: 76db d3b9 d1c3 43bb 7303 86bb b9c5 473c
00000320: 81b4 74bb abb1 e9ba 23b7 3b39 d21e 143b
00000330: 8db2 dc3a e6a3 673a 89cb c1bb 915d cb3a
00000340: cc76 b5ba 2d36 d4ba 52dc 5dbb 84ba 84bb
00000350: 854b 063b 234f d03a d93b 983b b41c 0f3d
00000360: f7c2 07bd ebd9 cdb9 51ff bc3b 2142 7d3b
00000370: d626 353b bea1 113b 0a63 3b3a 000e 8fbb
00000380: 99d5 7f3a c4dd 72ba c847 ad3a 8faa 77bb
00000390: 1f3d 5cbb be1a 253b 2621 ce3a 06fb 17bb
000003a0: b3ec ae3c 6370 00bd 7e30 863c 506d 1f3c
000003b0: d787 303b 3928 72b9 4fbe ec37 bf09 71b8
000003c0: 8833 edb9 9ead 0cb9 0aa4 cc38 1d5d 8c3a
000003d0: 8b4a 66ba 7b4d 9339 d4de ab39 05f6 a5b8
000003e0: aed8 1fb9 3cf8 783a ad29 48bb 890e 0b3b
000003f0: 2e49 19bb 0530 24bb dcc6 053a 6e14 c635
