ptParams/model_latest.pt (torch, 219489 bytes, 36 tensors)

actor.logstd f4 [4]
000000 33 10 2e 3d 0a 78 60 3e 8d 11 46 3e d0 b9 14 3e
       0.042495918 0.21920791 0.19342633 0.14524007

actor.pi_net.fcs.0.weight f4 [64, 17]
000000 ae d7 00 bf 05 1a d1 3f 8a d3 5f 3f ef 36 17 c0
       -0.503291 1.6336066 0.8743216 -2.3627279
000010 87 15 cb be 0a 60 0d 3f 23 f4 3e bf 0f bc b0 be
       -0.39664862 0.5522467 -0.74591273 -0.34518477
000020 7a 1a 2a 3f cf fc 5d 3f df 84 21 be 13 8a 95 3d
       0.6644665 0.8671388 -0.15773343 0.07301726
000030 7e 80 a3 3c 4f ca ee 3d 3e 57 18 3d a9 0e 65 be
       0.01995873 0.11659681 0.037192576 -0.22368874
000040 cf 29 32 be ed 99 63 3f d2 33 7f 3d 08 f2 fc 3e
       -0.17398761 0.8890675 0.06230528 0.49403405
000050 ad a8 65 3f 92 4a b3 3f 44 65 1c bf 13 ea 8f 3e
       0.89710504 1.4007132 -0.6109202 0.28108272
000060 1d ea 43 3e 49 ed 2f 3f e0 c4 a3 bd 3c 72 73 3e
       0.19132276 0.68721443 -0.07996535 0.23774046
000070 8b 97 05 bf b2 c1 b2 be 43 54 a1 bc e0 42 c1 be
       -0.5218436 -0.34913403 -0.0196935 -0.37746334
000080 5d cb 08 3e c3 bf 39 3e 5c 07 9c 3f 8d f2 4e bf
       0.13358827 0.18139558 1.2189746 -0.80838853
000090 f0 47 18 3f 39 3c 5b bf ff 48 1d bf a2 05 20 3f
       0.5948477 -0.8563877 -0.6143951 0.62508595
0000a0 03 45 92 bf d0 50 0a 3e 28 0d 3d bf aa 96 53 3c
       -1.1427311 0.1350739 -0.738482 0.012914339
0000b0 6c b2 e4 3d 82 dc 4d bd 7d e6 f8 bc c7 e4 97 be
       0.11166844 -0.05025912 -0.030383343 -0.2966673
0000c0 a8 3e 0b bc a7 9b c4 3e 55 78 84 3e c2 e9 5b bf
       -0.008498825 0.38400003 0.25873056 -0.8590356
0000d0 59 73 5a 3e 18 78 48 3c 27 1f d3 3c 49 f5 0b bf
       0.21333064 0.012235664 0.02577169 -0.5467115
0000e0 07 26 f7 3d c7 78 16 bd e5 81 0c be 4d fe 03 3f
       0.120678 -0.036736276 -0.13721426 0.5155991
0000f0 ba 9d 6f 3f e0 35 27 3e ae 18 b7 3e 75 c8 29 3e
       0.93600047 0.16329145 0.35761017 0.16580375
000100 25 3e be be 41 59 31 3e 47 02 7a bf 5d 3e b7 bc
       -0.37156788 0.17319204 -0.97659725 -0.022368604
000110 34 a9 98 be 03 6f 9c 3f 65 e3 c3 be 05 04 ea be
       -0.29816592 1.2221378 -0.38259426 -0.45706192
000120 6e d5 48 3f af 8d d7 bf 42 90 11 bf e8 3b ee be
       0.7845067 -1.6840113 -0.56860745 -0.4653008
000130 0b f7 12 be 9d 72 f0 3e c3 a1 87 3c 9f 7a 2b 3e
       -0.14352052 0.46962443 0.016556626 0.16745995
000140 61 20 c6 3d 87 db cd be ff f7 af 3e 50 51 fc 3d
       0.096741445 -0.4020655 0.34368894 0.12320197
000150 32 bc 8a 3e ef 6e 02 be 97 5b 5b bf f9 70 f5 3e
       0.27096707 -0.1273763 -0.8568663 0.47937754
000160 20 76 ca bc 25 1e fc bf 41 74 9b 3f 0f ba 9a be
       -0.02471453 -1.9696699 1.2144853 -0.30220076
000170 99 e1 60 bd 1e 31 8c be 62 3b 1f bf b1 db 48 bd
       -0.054902647 -0.27381223 -0.62199986 -0.04903764
000180 05 0a 8f bd d6 77 89 3c e9 51 83 ba 71 3e 40 3e
       -0.06984333 0.016780775 -0.0010018918 0.1877382
000190 33 53 97 be ed 09 c1 3d 48 83 9f bf fd 45 97 bf
       -0.29555663 0.09425721 -1.2461939 -1.1818234
0001a0 94 d8 b2 be f3 45 c8 3f 38 e5 1e bf d3 31 06 bd
       -0.3493086 1.5646347 -0.6206851 -0.03276236
0001b0 d3 e0 7d 3d b1 ab 6f bf 3d 5b 92 bf c5 6f b8 be
       0.061981987 -0.93621355 -1.1434094 -0.36022773
0001c0 42 48 93 3e 44 10 23 be 21 67 20 bd 38 3f ab be
       0.28766066 -0.15924174 -0.03916085 -0.3344667
0001d0 0b 4e c9 3e 6c 99 3e 3e a7 62 c4 3e e2 10 ef bd
       0.39317355 0.18613213 0.38356516 -0.11673142
0001e0 a2 a7 a8 3f 0a 58 f7 bd 09 20 98 3d dd 84 53 3f
       1.3176157 -0.12077339 0.07427985 0.8262461
0001f0 fe 93 93 be 82 d9 2f 3f 7e b3 37 3d 13 ca c7 3e
       -0.28823847 0.68691266 0.04484891 0.39021358
000200 14 6c aa be 55 44 32 bb d8 1c 0c 3e c5 52 b6 3d
       -0.33285582 -0.0027201374 0.13682878 0.08902506
000210 27 b0 ab bf 14 69 54 3e 68 7d ad 3e 79 ee 86 bd
       -1.3413132 0.20743209 0.3388474 -0.06588454
000220 9d 22 8b 3f 25 64 73 bf 1f 05 02 3f 02 8f 99 3f
       1.0869938 -0.95074683 0.50789064 1.1996768
000230 08 4c 83 3f eb 27 27 bf ef d3 ca be f0 10 52 be
       1.0257578 -0.65295285 -0.39614818 -0.20514274
000240 14 cb 03 bf c7 3b e5 be 5e 6a 1c 3e 1e c9 79 bc
       -0.5148175 -0.4477217 0.15274951 -0.015245704
000250 f1 f5 4a bd 84 91 bc 3e 99 10 14 be cb ab 59 be
       -0.049550954 0.3682977 -0.14459457 -0.2125694
000260 fd 1b 8e be 22 96 b4 3f dc c3 f2 be 57 59 5c 3e
       -0.27755728 1.4108317 -0.47415054 0.21518455
000270 58 dd 32 3f cd 14 af 3e f9 e8 2e 3f c1 dd b9 be
       0.69868994 0.34195557 0.6832424 -0.36301997
000280 94 f9 7a 3f 1c fb a8 be 28 98 4f bf ed 29 12 bf
       0.98037076 -0.3300408 -0.81091547 -0.57095224
000290 51 28 bf 3c eb 4a 6f be f9 9f 5f 3e dd 85 c1 3c
       0.023334654 -0.23368423 0.21838368 0.023623401
0002a0 ef 2f 51 3e 4f 92 92 3e 73 8a f7 3f 25 cf 24 bf
       0.20428441 0.2862725 1.9339126 -0.6437858
0002b0 6b c5 fe 3e 15 88 f3 3e 56 ee 8e 3e 12 f8 85 3e
       0.49759993 0.4756476 0.2791621 0.26165825
0002c0 0b 0c 48 3d b6 b1 6c 3f e3 6d 3e 3e 00 c0 45 3f
       0.04883961 0.92458665 0.18596606 0.77246094
0002d0 70 c2 dd b8 c9 d6 ed 3a 98 d3 a6 3e e8 8b 9b 3e
       -0.00010574318 0.0018145676 0.32583308 0.30380177
0002e0 c1 66 2b 3f 7c 3a b2 3e 80 49 e1 3d dc 8a 1b 40
       0.66953665 0.34810245 0.11000347 2.4303503
0002f0 6d f0 11 be fa a8 5e 3e c3 b9 2a be e7 1f 3e 40
       -0.14251871 0.21744147 -0.16672425 2.9706972
000300 d1 ba ed be e0 ca ae 3d 15 91 cb 3f 7c 46 6f be
       -0.46431592 0.08534789 1.590365 -0.23366731
000310 93 77 a2 3d b2 2f 90 3d d4 2e 3a 3e 94 13 21 3e
       0.07932963 0.07040347 0.18181926 0.15730125
000320 71 0a 48 bd ca d1 92 bd 46 5a 12 3c 19 c1 e7 3d
       -0.048838083 -0.0716892 0.008932656 0.11316127
000330 67 14 db bf 24 f8 e2 be c5 44 66 be 7a c3 16 bf
       -1.7115601 -0.4432994 -0.22487171 -0.58892024
000340 c6 5e cb be 88 6a 35 bf e8 a5 cf bd 74 cc 18 be
       -0.39720744 -0.7086568 -0.10139066 -0.14921743
000350 be 10 5e bf 0c ab 22 bf af e0 f2 3b 4b c3 47 be
       -0.86744297 -0.63542247 0.0074120383 -0.19508092
000360 8a 67 c3 bb ad 14 8e 3e b8 dc 9c 3e 02 c7 03 bf
       -0.0059632706 0.2775015 0.30637145 -0.51475537
000370 51 9a 80 3e eb 74 04 bf 13 f8 44 be 07 53 54 bf
       0.25117734 -0.517409 -0.19235258 -0.8293919
000380 58 a4 0a bd 18 e4 e9 be 91 a1 2c 3e ff da 29 3f
       -0.033848137 -0.45681834 0.16858508 0.66349787
000390 61 b8 56 be e5 58 ea 3e 0e 10 87 bf e5 b2 fb 3c
       -0.20968772 0.45770946 -1.0551775 0.030724952
0003a0 82 85 f7 3b c9 31 d5 be c5 8a d7 3e 44 5d b3 3d
       0.007553757 -0.41639546 0.4209806 0.087580234
0003b0 2a c3 8d be 99 7c cf be c1 96 9d 3f 94 d9 f8 3e
       -0.2768796 -0.40524748 1.2311631 0.486035
0003c0 31 29 0a 3f b0 bc 2e 3f 9d ea 08 40 7c be 74 be
       0.53969103 0.68256664 2.1393197 -0.23900789
0003d0 60 6b 9d 3e 25 89 09 3f d4 30 25 3f c5 67 3c bf
       0.30745983 0.5372489 0.6452763 -0.7359584
0003e0 8f 58 83 3e ac f0 9d 3c 2c 8e 56 be 0a 8b 02 be
       0.25653502 0.0192798 -0.20952672 -0.12748352
0003f0 49 49 ec 3d e7 2b c6 be fc d4 fd 3e 0d d2 f2 3d
       0.115374155 -0.3870537 0.49576557 0.1185647

actor.pi_net.fcs.0.bias f4 [64]
000000 48 33 8b be d1 9f ec bd bb 6f 1d 3c 0a d2 10 bf
       -0.27187562 -0.1155392 0.009609158 -0.56570494
000010 5b 33 20 bf 17 2c a9 3e 3d 52 8a 3d 51 1b f8 bd
       -0.6257836 0.3304145 0.06753967 -0.12114585
000020 03 cb 7d be 61 1e 77 3e cc ed e1 be e5 f9 2b be
       -0.24784474 0.24132682 -0.44126737 -0.16794546
000030 98 b8 fc 3d 7f 2d 62 3e 49 13 1c 3e 8e db df be
       0.12339896 0.22087668 0.15241732 -0.43722194
000040 b4 ce 32 3f 4f 2e 16 3e 60 e0 b4 3e 86 f0 c3 be
       0.69846654 0.14666103 0.35327435 -0.38269442
000050 73 29 f2 3e b4 7d 52 be 5c 54 01 be a0 46 4a 3d
       0.47297248 -0.20555764 -0.12629837 0.04938376
000060 36 d1 09 bf a4 7a 33 be bb ec 96 be b1 77 62 be
       -0.53834856 -0.17527252 -0.29477486 -0.22115971
000070 c1 a0 05 be 31 93 be bc f7 7f ea 3d 70 2f d8 3e
       -0.13049604 -0.023263546 0.114501886 0.42223692
000080 a0 c0 20 be 09 d8 62 3e 2d 23 b2 bd 4f f6 bf bd
       -0.1569848 0.22152723 -0.086981155 -0.093731515
000090 65 87 78 3e 89 d1 c8 be bd 2f bc bc 75 75 ed 3c
       0.24270399 -0.39222363 -0.022971982 0.028986672
0000a0 3f 37 b4 3e 06 76 c2 3c 2a 16 68 3f f6 38 3a 3e
       0.351984 0.023737919 0.9065882 0.18185791
0000b0 70 6b cf bd b2 01 a0 be ba 29 d2 be ac fc 00 3e
       -0.10127914 -0.31251293 -0.4104746 0.12596387
0000c0 1a c9 b0 be 96 8c 9e 3e 03 98 af 3d 18 6b 34 bf
       -0.34528428 0.30966634 0.08573916 -0.7047591
0000d0 59 9e 00 bf db 27 9d be d5 58 54 bd 2d dc cb be
       -0.5024162 -0.3069447 -0.05184253 -0.39816418
0000e0 c4 7a aa 3e 4d 91 62 3e 00 84 df be 4c e2 48 3e
       0.33296788 0.2212574 -0.43655396 0.19617575
0000f0 63 f1 12 3e b8 67 0c bf 8c b3 b7 be ec 7d 17 be
       0.14349894 -0.5484576 -0.3587917 -0.14794129

actor.pi_net.fcs.1.weight f4 [64, 64]
000000 cb db 12 bc 12 61 82 bc ca 1d e2 3d b4 6b a3 3c
       -0.008963536 -0.015915427 0.11040838 0.019948818
000010 ff 1a bc 3c 9e 54 4d bd 28 96 2b bd 3a e4 e6 bc
       0.022962091 -0.050129525 -0.041891247 -0.028184999
000020 ed ef 15 bd ff 89 84 bc 92 00 e0 bd 4f b8 21 bd
       -0.036605764 -0.016179083 -0.10937609 -0.03948241
000030 9c 7a 4d 3d 3e 43 b1 3c 2c 5f a2 3d f1 e9 9c 3c
       0.050165758 0.021638509 0.07928309 0.01915452
000040 c1 ac ad bc 75 a2 a5 bd 9d ae 9c 3c fa d9 fa bc
       -0.02120054 -0.08087627 0.01912623 -0.030621517
000050 87 bb 1d bd 48 8b dd bc b4 ff b3 bc 10 1d 63 bc
       -0.038508918 -0.027043954 -0.021972515 -0.0138619095
000060 32 30 40 bd d8 9b cc 3d 05 2f 89 bb 42 f4 81 bc
       -0.046920963 0.09990662 -0.0041865134 -0.015863542
000070 34 cf 0d 3e 6c e3 5d 3d e1 d2 70 3d 1d 3a 7c bd
       0.13848573 0.054171965 0.05879486 -0.06157886
000080 b5 c2 89 3c d5 e8 ff 3c 20 c7 e5 3c b6 5d 8d bd
       0.016816476 0.031238953 0.028049052 -0.069026396
000090 46 5e de 3c 15 ec 11 bd 7e 96 a5 3c 25 63 c3 bc
       0.027144562 -0.035625536 0.020213362 -0.023850987
0000a0 d8 07 28 3d ea 81 12 bc ca b9 2f bc e6 78 d9 3c
       0.041023105 -0.008942107 -0.010725448 0.026546907
0000b0 7f be 27 bd 62 ed f6 3c 51 ef 06 bd e3 6f 48 3d
       -0.040953156 0.03014249 -0.032943074 0.04893483
0000c0 c2 79 5d bd ca 9a ae 3d c3 22 93 bc 49 76 e7 bb
       -0.054071195 0.085256174 -0.017960912 -0.0070636612
0000d0 d2 b5 75 3d 7c 9b 0e bd fd c8 35 3d 5e dc b4 bb
       0.05998785 -0.03481625 0.04438113 -0.005519434
0000e0 29 60 60 bd 3f 24 16 bd a6 77 a5 3d bb 05 d9 3c
       -0.054779205 -0.03665566 0.08079462 0.02649199
0000f0 4a 11 ae bb 19 1d 54 bd fe 2a 8e bc 4b 84 1e bc
       -0.0053121196 -0.051785562 -0.017354485 -0.009675096
000100 f9 c6 23 be 2a b4 fa bd b4 73 85 be a1 9b b4 bd
       -0.15993871 -0.12241395 -0.26064837 -0.08818746
000110 3c f5 fb 3e af 23 b2 be ae ee 74 be 9e 09 11 3e
       0.49210536 -0.3479285 -0.23919174 0.14163825
000120 bb 30 b6 3d 21 87 c5 bd d3 de c3 3e 7c 29 0b 3f
       0.08896013 -0.096449144 0.3825594 0.54360175
000130 cb 2d 3c be 14 5a f9 3c f6 60 b8 3d 7b 22 9d 3e
       -0.18376844 0.03043846 0.09002869 0.3069037
000140 76 b2 10 bb e8 97 e0 bd 87 67 c0 be 90 51 cf be
       -0.0022079027 -0.10966474 -0.37578985 -0.40491915
000150 24 4f 40 3f 7d d2 17 bf 5a 09 3d 3e 14 2f 4e 3e
       0.7512076 -0.59305555 0.18460599 0.20135146
000160 93 5b ad bd 62 c7 22 bd 85 95 6f be 18 44 01 3e
       -0.08464732 -0.039740928 -0.23396881 0.12623632
000170 c3 0e 8d 3e 6a 53 5c 3e 74 0c d9 be 39 8b 03 be
       0.27550325 0.21516195 -0.42392313 -0.12846078
000180 c7 62 3d 3d 21 a6 98 be f6 7b ed 3e cd 7f 4f 3e
       0.04623678 -0.29814246 0.46383637 0.20263596
000190 84 dd 11 3e e1 0a ad 3e 70 c4 27 3e 15 44 8e 3e
       0.14244658 0.33797362 0.16383529 0.27786317
0001a0 79 33 a9 3c 13 80 2e bf 7b be 94 be 08 00 ae 3b
       0.020654427 -0.68164176 -0.29051575 0.0053100623
0001b0 70 b0 b3 3e dc 1d b5 3d 99 27 7b be 8c 9f 03 3f
       0.3509555 0.08843586 -0.24526824 0.51415324
0001c0 14 b2 80 3d 42 fd 97 3e 05 2e a1 be cc 07 d2 be
       0.06283966 0.29685408 -0.31480423 -0.41021574
0001d0 93 22 96 be d3 a1 98 3d de ac a6 bd 7a 78 13 3f
       -0.29323253 0.074527405 -0.081384405 0.5760571
0001e0 f5 a4 1e bc 29 8b 09 bd d2 3d 93 be f0 fa 85 3e
       -0.0096828835 -0.03357998 -0.28758103 0.26168013
0001f0 7c a3 3d be de bd 48 be 9d 1d 2d 3e d5 fd 76 3d
       -0.18519396 -0.19603679 0.16905828 0.060300667
000200 dc fb e7 3c b8 f3 a3 be 57 23 20 3f f8 f1 b2 3d
       0.028318338 -0.3202188 0.62553924 0.08737558
000210 2f 31 b3 bd a2 cc 57 3e 0f 6e cd 3e bf a4 07 bf
       -0.087496154 0.21074155 0.4012303 -0.5298576
000220 89 c2 e1 3a 86 15 26 3d f3 c1 1a 3e 15 6b 15 bf
       0.0017224114 0.04054787 0.15113048 -0.5836652
000230 9e 9c 1f 3d 30 e3 a8 3e 8c 86 91 be 0b 59 8b bd
       0.03896772 0.3298583 -0.28422964 -0.06804093
000240 07 86 f8 3d bf 90 c7 3e 80 02 02 3d c7 45 04 3e
       0.12134939 0.3897762 0.031740665 0.12917243
000250 8e 76 43 bf 37 c0 7c 3d b4 a0 37 3e 3f 63 71 bd
       -0.76352775 0.061706748 0.17932397 -0.05893254
000260 5c 10 f2 3e 1c 68 9d 3e 53 81 f8 bd 6e 63 81 bd
       0.47278106 0.30743492 -0.12134042 -0.06317793
000270 51 68 c6 be 33 11 e8 3d 7e 7b a8 bc d1 27 d2 3e
       -0.38751462 0.113314055 -0.020566698 0.41046003
000280 0f ce 3a be e9 18 e9 bd 68 55 9f ba 08 de 26 bf
       -0.18242668 -0.11381704 -0.001215619 -0.6518254
000290 a3 24 f9 bd 38 bc 88 3e 4c f3 37 be 3c 5b 21 be
       -0.12165191 0.267061 -0.17963904 -0.1575746
0002a0 10 c9 76 be c9 bc e0 3e 37 e1 64 3e 3d ce dc bd
       -0.24100137 0.43894032 0.22351538 -0.10781524
0002b0 50 f5 14 bf 5c c3 03 3f 37 61 bf 3e de 13 e2 bd
       -0.5818682 0.5146997 0.37378857 -0.110389456
0002c0 f0 11 02 3f 84 4c b8 bd a9 10 9a 3c 77 8c 80 bd
       0.5080862 -0.08998969 0.018806772 -0.062767915
0002d0 27 a3 7f bd 05 06 87 3e 56 c2 30 3e ad 83 c1 bd
       -0.062411454 0.2637178 0.17261633 -0.09448943
0002e0 11 e4 8b be 96 b5 b5 3e cf 86 94 3d b7 3a 88 be
       -0.27322438 0.35490102 0.07252275 -0.26607296
0002f0 f2 cc 2d be 94 14 bf bd 0d c8 92 bd a7 12 01 3e
       -0.16972712 -0.09330097 -0.07167063 0.12604772
000300 1c f5 18 3d ef 70 3d bd 88 a4 20 bd ef b1 d1 bd
       0.03734313 -0.04625028 -0.03921941 -0.10239016
000310 d9 e7 bb 3c f6 80 24 3e 24 4f 9f bc 03 d7 e5 bc
       0.022937702 0.1606482 -0.019446917 -0.028056627
000320 a9 61 3d bd 9c 21 8c 3d a3 3b 30 be a9 8a a8 3d
       -0.046235714 0.06842348 -0.1721025 0.08229572
000330 7f ad aa bd 7c 61 38 3d 57 ee 2e bc 5e 28 70 bd
       -0.08333873 0.045014843 -0.010676942 -0.058632247
000340 8b 4b 6d 3c b1 84 cb bd 03 47 7b 3c d7 2f 08 3d
       0.014483343 -0.09937418 0.015336755 0.03324875
000350 19 5e 2c 3d 3d f2 d7 3d 9d b0 43 3d e6 3b 03 3e
       0.042081926 0.1054425 0.047775853 0.12815818
000360 fa 44 b6 bb f5 d2 47 3d 86 17 7d bc 10 52 25 3d
       -0.005562422 0.04878517 -0.015447503 0.040361464
000370 be d2 d7 bc 1c 98 a5 3d 83 d5 f9 bb 30 bb 08 3e
       -0.026345607 0.08085653 -0.0076243295 0.13352656
000380 cb 34 19 3d a6 66 80 bc a7 ec dd bd fe 59 cd bd
       0.037403863 -0.015673947 -0.108361535 -0.1002693
000390 34 e1 bc 3d db 95 8e bd 9b 11 17 3c 62 a9 67 3d
       0.092226416 -0.069621764 0.009220506 0.05655802
0003a0 0f 64 4c bd d6 f1 10 3e de f0 1d bc dd 88 6b 3d
       -0.04990011 0.14154753 -0.009639947 0.05750357
0003b0 bc 2d 74 bd 34 7a 1c 3d f2 89 69 3d b6 25 9e 3b
       -0.05961393 0.03820248 0.05701632 0.004826273
0003c0 75 32 49 bc 38 14 1e 3c f1 7d 9b bd 34 56 1e be
       -0.012280096 0.009648375 -0.07592381 -0.15462571
0003d0 08 88 c2 3b ed 68 d6 3d 99 09 d5 bd a3 b4 da 3d
       0.0059366263 0.10469232 -0.10402221 0.10678985
0003e0 bb 1e ed 3d a5 48 15 be a9 22 98 bd e4 05 77 3d
       0.11578127 -0.14578493 -0.07428486 0.060308352
0003f0 85 0e 86 bd 66 61 09 3d 7e 5e 26 3d f6 0b da bb
       -0.06545738 0.033540152 0.04061746 -0.006654258

actor.pi_net.fcs.1.bias f4 [64]
000000 47 83 23 bd a3 e8 af be fd d9 1b bd 2c ea 61 bd
       -0.039920118 -0.34357175 -0.038049687 -0.055154964
000010 71 f2 bb 3c 37 bb 8e 3d 8c f7 86 3a eb 44 52 3c
       0.022942754 0.06969302 0.0010297163 0.012833814
000020 fb 56 8b 3d 41 9f 1f 3b 2e a1 b3 3d c4 52 c0 3c
       0.068036996 0.0024356397 0.08770977 0.023476966
000030 7b 44 c1 3e 1e 88 2b bd a6 35 98 bb 1e 20 e1 38
       0.3774756 -0.04187786 -0.0046450673 0.00010734818
000040 65 c7 d3 bd b9 cf 25 bd 24 68 66 3d 68 d9 85 be
       -0.10340766 -0.040481303 0.05625166 -0.2614243
000050 ab 41 9f 3d 35 06 74 bd e4 7b 03 bf 05 a7 59 3e
       0.07776197 -0.059576232 -0.5136092 0.21255119
000060 e8 20 54 3e d3 4a 4b 3e a6 a0 39 3d f5 3a 49 3e
       0.20715678 0.19852762 0.045319222 0.19651397
000070 4f 4a 9d 3c fc e8 97 be 91 cb 12 bf 94 63 23 bc
       0.019200472 -0.2966994 -0.5734187 -0.009972472
000080 d7 99 68 3e 4e 89 dd bd 76 3e 77 3c 6b 80 16 3d
       0.22714935 -0.108172044 0.015090575 0.036743563
000090 77 dc 49 bd c2 3e dd 3e 92 70 40 be d5 79 4c 3e
       -0.049282517 0.43211943 -0.18792942 0.1996835
0000a0 6d 19 88 3b de 0f 15 3c df d4 62 bc 29 2a 17 bd
       0.0041534216 0.009098021 -0.013844698 -0.03690544
0000b0 9f 1c 06 3e e6 84 29 3e 3e bd a1 3c 97 6f 99 ba
       0.13096856 0.16554603 0.019743558 -0.001170623
0000c0 06 aa 3c 3c 39 9f a0 bd 6e 94 57 bd f1 27 d7 3e
       0.011515146 -0.07842869 -0.052631788 0.4202266
0000d0 23 89 82 3d 44 70 6a 3e 44 31 79 3d 1d ac dc bb
       0.06373813 0.22894388 0.060838 -0.0067343847
0000e0 c9 b7 ba 3b 72 09 bb 3d d4 2c 9f be 20 ea ca 3d
       0.0056981784 0.09132661 -0.3108889 0.09907937
0000f0 cd df 84 bd db d1 81 bc 76 27 ae 3b 09 ba e3 bb
       -0.06487999 -0.015847137 0.0053147627 -0.0069496674

actor.pi_net.fcs.2.weight f4 [4, 64]
000000 39 c4 a9 b8 02 6b db 3e 63 40 9a 3e 3b c3 90 3c
       -8.095097e-05 0.42855078 0.30127248 0.017671218
000010 76 c2 4c 3c d2 b9 de bc 1a 2a a2 3e 88 f6 9f ba
       0.012497535 -0.027188215 0.31672746 -0.0012204209
000020 e3 02 df bd b1 92 45 be 91 84 d8 3c 5f 33 ac be
       -0.108892225 -0.1929424 0.0264304 -0.33632943
000030 88 7b 30 be e8 63 4b bc cb 24 03 bc 9d d9 e5 3b
       -0.17234623 -0.012413956 -0.008004378 0.007014467
000040 3f cc 00 be e8 79 a0 3c af f0 66 bb 8f 1f 67 3e
       -0.12577914 0.01958938 -0.0035238673 0.22570632
000050 d8 7a 97 3c 1e 21 1a bc cc 45 30 be 0a df 70 bc
       0.018491194 -0.00940731 -0.17214125 -0.014701614
000060 ab 17 22 be 20 2e 78 3d c7 3a f3 be 87 9a ba 3e
       -0.15829341 0.060590863 -0.4750578 0.3644602
000070 46 4e a5 bc 68 3b 1b be 17 09 d0 3e 19 c5 cd bc
       -0.020178925 -0.1515938 0.40631935 -0.025118398
000080 55 24 06 be 09 d4 99 3c c0 a7 43 3a 82 f2 75 bb
       -0.13099797 0.018777864 0.00074636564 -0.003752858
000090 2a 89 88 3b a1 ec 38 3e e8 cb 08 bd 8c 8a 1d bc
       0.004166742 0.18059017 -0.033397585 -0.009615552
0000a0 ee eb 1b bc 09 04 f0 be f8 96 07 bb 80 e1 c8 3b
       -0.009516699 -0.4687808 -0.002068935 0.0061303973
0000b0 a2 3c 0f bf 0c cc 5b bc c4 f0 7d 3b e3 b9 ae 3c
       -0.55951893 -0.013415348 0.0038748244 0.021328872
0000c0 ca ce 07 3c 91 7c 60 3d f5 6b 32 bc 48 cb 08 3e
       0.008289048 0.054806296 -0.010889997 0.13358796
0000d0 1b 67 2c 3c ab 8d 36 be 9b 1f 55 3e 42 fd 2e bc
       0.010522629 -0.1782748 0.20812838 -0.010680499
0000e0 71 36 90 3e b1 f1 13 bd 11 a5 99 3d ca 02 d5 bb
       0.28166535 -0.036119167 0.07502187 -0.0065005766
0000f0 6b 0e 38 3a 17 61 68 3b 86 a9 90 3a 36 55 83 bb
       0.00070211914 0.003545826 0.001103685 -0.0040079607
000100 f0 9d 29 bb 34 fa 49 3d 06 ce 4b 3c fb a7 14 3c
       -0.0025881492 0.049310878 0.0124392565 0.009073253
000110 ae cb ea ba cb 9c b5 3c ab 1b f9 bd 90 58 19 bb
       -0.0017913484 0.022169491 -0.1216348 -0.0023398735
000120 9c 70 91 be c1 17 03 3f cd 63 a2 bc 90 81 83 3e
       -0.28406227 0.5120812 -0.01982298 0.25684786
000130 cd 7b 97 bd 03 84 97 3b 4a 88 e3 bb 6c 00 3a bc
       -0.0739666 0.0046238913 -0.006943737 -0.01135264
000140 a3 3c 6a bd 65 85 84 3e 01 ec af bc ac e6 80 3c
       -0.057186734 0.25883022 -0.02147484 0.015734993
000150 e5 2e 46 bd e0 96 cc bb b8 b1 fc bd ca b3 dc 3c
       -0.048384566 -0.0062435716 -0.12338585 0.026941199
000160 4e 89 8d 3e af ea 72 3e 66 e6 1c bf d7 c0 97 3d
       0.27643818 0.23722337 -0.6128906 0.07409828
000170 75 47 47 3b d6 58 70 bd ec 7a f6 be a2 b5 34 bc
       0.0030407582 -0.05867847 -0.48140657 -0.011029633
000180 ed 0b 98 3d 38 63 7f bd 4e 97 ec bc 91 5e 1a bb
       0.0742415 -0.06235048 -0.028880741 -0.00235549
000190 7d 01 25 3b fe 9c 48 3e 0f 3d 97 bd 00 9a db 3e
       0.002517789 0.19591138 -0.07384693 0.4289093
0001a0 84 ad c8 3b b0 af fa 3d 09 f6 e2 bb a5 dd 0b 3b
       0.0061242003 0.12240541 -0.0069263023 0.0021341827
0001b0 d7 5f f4 bd be 49 4c 3e 09 88 95 3c c1 fa b3 b9
       -0.119323425 0.19950005 0.018253343 -0.00034328367
0001c0 d4 d7 b4 bc 77 b5 61 3b 10 9d 2f 3b 5b 8e a2 be
       -0.022075571 0.0034440437 0.0026796497 -0.31749234
0001d0 5d b2 3a 3c a4 c5 86 3e c8 ec 22 bd 32 a6 42 3c
       0.011395064 0.26322663 -0.039776593 0.011880444
0001e0 9d 4b 5b 3e 69 fa f1 3c 85 e1 f1 bd d2 1e 8d bb
       0.21415563 0.02953835 -0.118105926 -0.0043066526
0001f0 14 82 ab 3b e1 22 be 37 44 15 96 3b 44 d9 6e 3b
       0.0052340124 2.2666007e-05 0.004580172 0.0036445418
000200 0f f0 43 bc 81 29 1f bf 66 51 b3 3c cd 52 82 3b
       -0.01195909 -0.62172705 0.0218894 0.003977156
000210 b4 02 36 3d 41 aa 39 bc 2c 1c 63 3e 09 bf 4f bb
       0.04443617 -0.011332096 0.22178715 -0.003169956
000220 3d 33 8d 3e f7 da 6e bc 62 d2 13 3d 0d 3b 3e be
       0.27578154 -0.0145785725 0.03608931 -0.18577214
000230 a9 ee f1 3e 91 1a 85 3c a6 20 3d bd 46 32 28 3c
       0.47252396 0.01624802 -0.046173714 0.010265892
000240 e2 ac 8e 3d 95 15 e1 bd 12 a6 38 bd 67 06 1d bf
       0.069665685 -0.109904446 -0.045080252 -0.61337894
000250 5f 7f 43 3d b2 5a 20 bc e7 2a c1 bd 7e 77 92 3e
       0.047728892 -0.009787248 -0.09432011 0.2860679
000260 b6 d8 5c bd d0 f7 eb bd 19 07 29 bd 95 e8 8b 3c
       -0.05391761 -0.11521876 -0.041266534 0.017078677
000270 76 5f fc bc f2 e8 af bd 69 fe 9c be 9c b2 9a ba
       -0.030807238 -0.08589353 -0.3066285 -0.0011802497
000280 72 7a 3e 3d 79 b0 cb 3b 39 71 16 3c 8f 0e cb 3b
       0.04650349 0.0062161055 0.009182268 0.006196804
000290 33 1d 73 3b ab e1 cb 3d 53 65 18 3e 4c 24 ba bd
       0.0037096262 0.09955152 0.14882402 -0.09088954
0002a0 9b 7c b0 bc ce d8 d0 3d 36 30 09 3d c1 0d 1c bc
       -0.021543792 0.10197602 0.033493243 -0.009524764
0002b0 ea c1 1c 3e 68 4f 51 3e 98 c4 81 3c f6 59 d2 39
       0.15308347 0.20440447 0.015840814 0.00040121347
0002c0 cf d2 04 bd 6a 32 ce 3d 87 cd 0c 3d df ab d2 be
       -0.032427605 0.100682095 0.034375694 -0.41146752
0002d0 86 99 59 3c 04 80 ef 3d 8d 5a ec be 97 9e 75 3c
       0.013281232 0.11694339 -0.46162835 0.014991424
0002e0 5c 40 49 3d 6b 05 e5 bc 0f 2d bb 3d 01 9f fa 3b
       0.049133644 -0.027956685 0.091394536 0.0076483493
0002f0 83 5c 96 3b 9b 75 bd 3b b0 b8 2a bb 4e 8f af bb
       0.004588665 0.005781842 -0.0026050024 -0.0053576594
000300 e0 cc fe 3a ee c0 98 3e 1a 00 18 be 5a 52 d0 bb
       0.001943972 0.29834694 -0.14843789 -0.0063574733
000310 46 79 e1 bc 06 a2 56 3c b5 9b 5d 3d 2f f8 2b bb
       -0.027523648 0.013100153 0.054103572 -0.0026240458
000320 89 9b a6 3e 8e a3 e7 bd a0 09 b4 3d ea b9 e5 be
       0.3254054 -0.113104925 0.08790898 -0.44868404
000330 1b 55 e1 3e 5c 05 5d 3d d4 68 0d 3c 47 bb 33 bc
       0.44010243 0.05396019 0.00863095 -0.010969943
000340 a9 80 f4 3d cc f3 03 be 29 bc 85 b9 e9 2f a6 3d
       0.119386025 -0.1288597 -0.00025507927 0.08114607
000350 2b 8b e2 bd e0 e8 48 3c 16 52 9c be 5e ca 83 be
       -0.110617004 0.012262553 -0.30531377 -0.2574033
000360 00 de 53 be ce e9 54 be 8f 90 a7 3e 57 ff 07 bf
       -0.20690155 -0.20792314 0.32727477 -0.5312399
000370 a3 2a df 3b 6a 51 96 be 44 53 cb 3e 06 4a b7 3c
       0.0068105026 -0.2935899 0.39711964 0.022374164
000380 93 03 b5 bd 10 f5 66 3c 2c 63 54 bc ae 15 03 bc
       -0.08838572 0.014096513 -0.012963098 -0.008000774
000390 e8 2a 69 39 b8 49 65 3e 68 fa 0e 3d 01 b5 b1 3d
       0.00022236595 0.22391403 0.034906775 0.08677102
0003a0 65 1a 67 3c 7d fd 0b be 3a 9c 07 3b 3a 40 52 3c
       0.014105414 -0.13670917 0.0020692484 0.012832696
0003b0 54 dd 25 3d 7b 4f 35 be 18 9e c3 bb f8 0e 0f 3c
       0.040494278 -0.177061 -0.005969774 0.008731596
0003c0 d5 12 49 3d ff 59 3f 3d ee d7 54 3a 66 6d 0f ba
       0.049090225 0.046716686 0.0008119334 -0.0005471319
0003d0 c0 3f ff ba ad 6c bc 3c c3 d2 51 3d 85 f2 21 bc
       -0.0019473955 0.02300104 0.05122639 -0.009884481
0003e0 82 7f 29 bd b4 79 bc 3c 8f 74 10 bc c5 7a 50 bc
       -0.041381367 0.023007251 -0.008816852 -0.012724583
0003f0 ff 0e 68 3c 10 e0 56 3a 21 b5 b8 b9 5a b0 dd 3b
       0.014163732 0.000819684 -0.00035230166 0.0067654075

actor.pi_net.fcs.2.bias f4 [4]
000000 bb 1a ca 3d ea 5c fa 3d 6e fa 6e bd d1 73 66 bb
       0.0986838 0.12224753 -0.058344297 -0.0035164247

critic.v_net.fcs.0.weight f4 [64, 17]
000000 08 80 50 be 9b be 97 40 de d7 40 c0 fd 3c 2f c0
       -0.2036134 4.7420173 -3.0131755 -2.7380974
000010 ca 4e 34 be b4 12 8f 3f 0a ae 9d 3f 18 3f 2c bf
       -0.1760818 1.1177583 1.2318738 -0.67283773
000020 46 05 ba be 07 6d 50 40 33 93 94 3d 42 a6 e8 3d
       -0.36332148 3.2566545 0.072546385 0.11359836
000030 74 18 f0 3e 37 1e 87 be a5 87 76 3e 7d 39 56 bd
       0.46893656 -0.2639024 0.24075182 -0.05230092
000040 cc 89 97 be 51 70 0a bf a8 75 cf bf a3 8e ee bd
       -0.29597318 -0.5407763 -1.6207781 -0.116482995
000050 27 8b dd 40 4b b8 82 40 96 da 1d bf 0f de 23 c0
       6.9232364 4.0849967 -0.6166166 -2.5604284
000060 c1 a3 0f 40 bd fc 6f c0 d1 04 cf 3e 25 e0 c2 3d
       2.2443697 -3.749801 0.40433362 0.095154084
000070 4c 5c 40 3e 49 a4 7a bc bf e1 b0 3d 18 0e ed 3d
       0.18785208 -0.015297958 0.08636808 0.11574954
000080 0a e1 c6 bd 05 8e 78 be ef 60 7a 40 b6 a3 27 40
       -0.097108915 -0.24272926 3.9121664 2.6193671
000090 6b b6 38 40 8e 65 21 bf a6 3b da bf a1 f5 9c c0
       2.886134 -0.63045585 -1.7049453 -4.904984
0000a0 1e c3 62 40 15 42 41 c0 1d f5 98 3f ce 7e 47 3f
       3.543159 -3.0196583 1.1949803 0.77927864
0000b0 a1 3b a4 bd 41 90 0a 3e 9e 82 e0 be 58 3c 4b bd
       -0.08019186 0.13531591 -0.43849653 -0.049618095
0000c0 44 f1 c6 be 3e 6e 50 3e bb 56 3b be 61 3d ca c0
       -0.38855946 0.20354554 -0.18294804 -6.3199925
0000d0 a4 c0 aa be 7a 82 9a bf a7 1d b1 3f cb d5 ad bf
       -0.33350098 -1.2071068 1.3837174 -1.358087
0000e0 8f 3a 8c c0 1d b2 3d 40 85 97 20 40 ff 5b 8b 40
       -4.3821483 2.9639962 2.509248 4.35498
0000f0 57 27 be 3f b7 61 14 3c 28 5b 86 bd 2d cf 3e bd
       1.4855756 0.0090565 -0.065603554 -0.046584297
000100 82 05 8d bd 9b e6 54 bc b5 cd 68 3d af e1 e1 bd
       -0.06885816 -0.012994434 0.056836803 -0.11029374
000110 36 13 b3 40 d1 b6 11 41 64 f1 8c c0 c3 13 aa bd
       5.596095 9.107133 -4.4044666 -0.083045505
000120 e1 77 8d 3f a0 5c c2 3e df 34 04 40 53 40 94 3f
       1.1052209 0.37961292 2.065727 1.158213
000130 e6 2c 6b be c4 d7 eb bf a1 c9 e3 bd 08 e5 23 be
       -0.22966346 -1.8425221 -0.11122442 -0.16005337
000140 e2 67 57 be cc 73 d8 bd e6 64 dd 3d eb 15 c0 3d
       -0.21035722 -0.105689615 0.108102605 0.093791805
000150 c4 14 01 bd 0d dd b9 3c 8f 03 d9 bf de 01 1c c0
       -0.031513944 0.022688413 -1.6954211 -2.437614
000160 75 6c 88 40 98 0b 3d c0 5b a0 86 40 43 d6 0d c0
       4.2632394 -2.9538326 4.2070746 -2.2162025
000170 a2 fc 9f bf e5 28 87 bf 54 89 bb 3f fd 9f c9 3e
       -1.2498972 -1.0559355 1.4651284 0.39379874
000180 4c 57 22 bf 95 fe 34 3f 48 78 4c bd 7c e5 18 3f
       -0.63414454 0.7070096 -0.049919397 0.59725165
000190 d5 ce 0a 3e b7 18 94 bd 6b a3 86 40 85 ea 1d be
       0.13555463 -0.072312765 4.2074485 -0.15421493
0001a0 b0 8e 0f 3f 44 97 90 c0 f5 a3 0e 41 ef ec 98 3f
       0.560771 -4.518465 8.915029 1.1947306
0001b0 b6 97 68 3f 59 f6 1f 40 53 96 ee 3e 7b f1 a0 bf
       0.9085649 2.4994109 0.46599063 -1.2573694
0001c0 b0 01 3a be 61 8c 04 3e 93 cf 91 bd 0b 49 b7 3e
       -0.18164706 0.12944175 -0.0711967 0.35797915
0001d0 62 7d 38 3e 7d 94 96 3c 70 85 46 3d 88 a0 8c bf
       0.1801658 0.018381352 0.0484671 -1.098649
0001e0 85 d7 53 40 de 92 da bf c7 97 97 40 45 9c 07 3e
       3.3100293 -1.707607 4.7372775 0.13243206
0001f0 0a 95 86 40 8e 1e 81 40 8c 87 65 3f 5d 41 c2 3f
       4.2056932 4.03498 0.89659953 1.5176197
000200 6c d5 b0 3e 74 ff 4e bd 1d 36 21 3d 4c d1 ea 3d
       0.34537828 -0.050536588 0.039358247 0.114657015
000210 c0 17 02 3e a4 9c cf 3c 25 51 cd 3d 30 86 07 3c
       0.12704372 0.025343247 0.10025243 0.008271739
000220 c1 60 5e 3f 8a 36 c4 3f b3 25 6e bf b5 3c 9c 40
       0.86866385 1.5329144 -0.93026274 4.8824105
000230 6d 75 ad c0 d7 95 1e c0 7c 6f 33 c0 a9 fd 3b be
       -5.420584 -2.4778955 -2.8036795 -0.18358482
000240 0a 72 d1 be 2a 1f 0e 3f fa 8b 3e 3e 24 dc 74 3e
       -0.40907317 0.555163 0.18608084 0.23912102
000250 ce 89 d5 bd a9 54 b4 3d 1d 5c 3d be fc 97 2f 3e
       -0.10426675 0.0880521 -0.1849217 0.17147821
000260 02 9f 75 be 6d 50 cf 40 47 01 cc bf b9 3d 0a 3f
       -0.23986438 6.4785676 -1.593789 0.5400043
000270 1e 18 cb bf 42 a8 9a c0 ea bf 8e 40 6a 99 0d 40
       -1.5866735 -4.8330393 4.460927 2.2124887
000280 c8 66 96 3e a0 66 2e c0 47 07 a4 3e 0e 16 21 bd
       0.2937529 -2.7250137 0.32036802 -0.039327674
000290 8d 2c e3 3d d8 b6 d3 3e c5 cb 24 3e 61 94 f0 3c
       0.11092482 0.41350436 0.16093357 0.029367628
0002a0 6c 29 d6 bd 4c 0d 41 bd f5 ad c7 40 2d 2c 41 c0
       -0.10457119 -0.04713182 6.239985 -3.0183213
0002b0 b4 00 94 bf 9d fd 99 c0 87 97 79 c0 7c d3 26 40
       -1.1562715 -4.8122087 -3.8998735 2.606658
0002c0 f3 f6 da bf 7c 18 28 40 a6 d4 c9 3f b2 05 41 3f
       -1.7106613 2.6264944 1.576802 0.75399315
0002d0 93 41 c8 be bb ee de 3c 46 af 79 3f 70 ee 9e 3e
       -0.3911253 0.027213445 0.9753307 0.31041288
0002e0 c2 7e b4 3d 1d 5d ac bc 33 bc e6 3e 79 38 ee 40
       0.0881324 -0.021040494 0.4506546 7.4443936
0002f0 dd 5c 21 41 c4 0a 2b 40 65 8b ad c0 ff 19 b9 3f
       10.085172 2.672532 -5.423266 1.4461058
000300 14 22 94 be 3d dc 72 bf bc c7 b8 3f 4b 24 65 40
       -0.2893225 -0.94867307 1.4435954 3.5803401
000310 e2 45 12 3f 43 08 85 bd 6a b2 c6 3b 07 28 4a 3e
       0.5713788 -0.064957164 0.006063749 0.19741832
000320 23 45 05 be fa 9f 25 ba 89 2c da 3d b2 f3 00 bd
       -0.13014655 -0.0006318089 0.10653026 -0.031482406
000330 94 da 5d 40 cf e9 48 40 cf 33 03 40 89 84 c0 3e
       3.466466 3.1392705 2.0500371 0.37601116
000340 7f 3e 4c 40 8b 2c e0 bf e6 32 17 c0 c0 01 6b 40
       3.1913145 -1.7513593 -2.3624816 3.6719818
000350 0f 13 1e 3f 2d f9 26 bf db de 82 3d 51 96 38 bd
       0.6174783 -0.6522396 0.063901626 -0.045065228
000360 19 0f c2 be c1 dc d9 3e 6a 15 67 be 14 55 27 3e
       -0.37902144 0.42551234 -0.22566763 0.16341048
000370 60 91 d9 3d 09 3c b8 c0 c8 d6 25 40 99 f3 69 bf
       0.10623431 -5.7573285 2.5912342 -0.91387326
000380 cd f5 94 c0 b8 0d 71 c0 7d e9 20 3f e7 fe 25 c0
       -4.655005 -3.7664623 0.62856275 -2.593683
000390 03 3e 26 bf 32 6c 80 40 44 55 0a c0 a5 36 26 3e
       -0.6493837 4.0132074 -2.1614542 0.16231783
0003a0 74 1a ee 3e ed 1e 4b bc dd b7 28 bf e8 de 9f be
       0.46504557 -0.01239751 -0.65905553 -0.3122475
0003b0 0d f5 74 bb c5 43 0c bd ba 2a ac c0 c5 ea 89 c0
       -0.0037377507 -0.034244318 -5.3802156 -4.3099084
0003c0 3a 46 f7 bf 57 ba 65 40 92 6a c0 c0 bd 8b 6a 3f
       -1.9318306 3.5894983 -6.013009 0.91619474
0003d0 a9 17 35 3f 66 e1 1c 40 b9 00 c7 bf 3b be 0a bf
       0.7073923 2.4512572 -1.5547096 -0.5419652
0003e0 a3 13 be bd ad 90 3a 3d 87 da ce be 11 7e 15 3e
       -0.09281089 0.04554813 -0.40401098 0.14598872
0003f0 72 35 b4 be b0 5e 9d 3c af 45 1b be 9b 96 01 bf
       -0.35197026 0.01921019 -0.15163301 -0.5062043

critic.v_net.fcs.0.bias f4 [64]
000000 d1 23 5e c0 2f 3a e7 bf f8 12 00 40 47 1f 0f 3f
       -3.470936 -1.8064631 2.0011578 0.559071
000010 c1 90 7e 40 91 8e 09 c0 6f 9f ef 3f f4 8b 64 bf
       3.977585 -2.1493266 1.872053 -0.8927605
000020 89 3f 2e c0 3f e6 c2 3e 0b 4e d3 be 1b 05 40 c0
       -2.7226279 0.3806629 -0.4127048 -3.0003116
000030 38 8d a2 be a7 8d 53 3f 64 98 8b 3f 2e 35 1c bf
       -0.31748366 0.8263802 1.0905881 -0.61018646
000040 14 33 9b 3f b4 ef 6d bf c5 8d b6 bf 36 46 c4 3f
       1.2124963 -0.9294388 -1.4262015 1.5333927
000050 06 5f c5 3f d1 58 38 c0 af e0 9b 40 45 3f 83 c0
       1.5419624 -2.880421 4.871177 -4.1014733
000060 98 7a 70 bd a0 47 13 bf 9c 5e 43 be 46 90 82 bf
       -0.058710665 -0.57531166 -0.1907906 -1.0200279
000070 46 38 c4 bf c9 f1 91 c0 ce 21 12 3f da 7c 71 c0
       -1.5329673 -4.560765 0.5708283 -3.7732453
000080 2a c0 8c 40 09 9d 0e 40 aa 88 a8 bf ac 9a 4a bf
       4.3984575 2.2283347 -1.3166707 -0.7914226
000090 ca 2a 9c bf 13 df 80 3d c0 d9 f9 be 38 78 11 40
       -1.2200558 0.06292548 -0.48798943 2.2729626
0000a0 ec 50 9e 3f b4 fc bc bf 7e b5 60 3f 85 c6 09 bf
       1.2368445 -1.4764619 0.87776935 -0.5381854
0000b0 68 f0 d7 3f c6 25 18 3f fd e2 27 c0 eb 6e b4 3d
       1.6870241 0.5943264 -2.6232293 0.088102184
0000c0 b0 7e 26 40 62 16 d3 bf 99 b2 0b 40 7a bc af be
       2.6014824 -1.6491206 2.1827757 -0.34323484
0000d0 d9 99 2a 40 e1 c9 31 40 f8 42 42 3f 9a eb 84 c0
       2.66564 2.7779467 0.75883436 -4.15376
0000e0 6c 87 ce bf 0a af f8 bf 04 9a 3d c0 3b 2f ac 3f
       -1.6135077 -1.9428418 -2.9625254 1.3451914
0000f0 d4 5a 1b c0 5d af 20 40 20 56 0d c0 6b 97 20 3f
       -2.4274187 2.5107033 -2.2083817 0.62731045

critic.v_net.fcs.1.weight f4 [64, 64]
000000 54 05 af bf 37 7a 5b c0 f5 6d 1f 3f 74 35 32 40
       -1.3673501 -3.4293344 0.62277156 2.7845125
000010 d9 e7 bd 40 4a f7 65 3e d0 d5 b3 3f 56 d6 8f 3f
       5.9345517 0.22457615 1.4049625 1.1237285
000020 27 c4 02 c0 88 24 85 3f e9 fb a8 3f a7 ce 17 be
       -2.0432222 1.0401773 1.3201877 -0.14824925
000030 65 9b 80 3f ec b9 a9 3f 24 ca 1f be b4 fa 9b 3e
       1.0047423 1.3259864 -0.15604454 0.3046471
000040 54 f8 99 3f 6b 80 ac 3f 1d dc 78 3f 9e 06 3b bc
       1.2028909 1.347669 0.97210866 -0.011415152
000050 05 df 04 c0 ef 0e d5 bf 76 16 21 3f 73 fb 32 3f
       -2.076112 -1.6645182 0.629249 0.6991493
000060 cd a6 e2 3f fb 91 95 be 7a cd 9d bf f5 8e 48 3e
       1.7707154 -0.29212937 -1.2328331 0.19585784
000070 ec 92 c0 be fa da 9a bf ec bd 5b be c3 56 5f bf
       -0.37612092 -1.2098076 -0.21459168 -0.8724176
000080 1f 1b 16 3f 1e 43 89 3f 2d a6 11 bf 02 1b 6d bd
       0.58635134 1.0723608 -0.5689419 -0.057887085
000090 c6 78 f5 3f 4e 83 c5 bf b0 85 db be b8 44 9d 3f
       1.9177482 -1.5430696 -0.42875433 1.2286596
0000a0 6f 6e 12 40 5e b3 b9 bd b4 1b c9 3c de 99 98 3f
       2.2879903 -0.09067415 0.024549343 1.1921957
0000b0 92 f2 95 3f 01 da 09 3f 7e 10 9a bf 8f 63 46 bf
       1.1714652 0.5384827 -1.2036283 -0.77495664
0000c0 f0 0a 1d 40 f6 77 5f bd dc e8 a6 3f 6c 01 df bf
       2.4537926 -0.054557763 1.3039813 -1.7422309
0000d0 aa 67 82 bd cf a9 c4 3e 0d 34 56 bf a0 e3 4d bf
       -0.063674286 0.38410804 -0.83673173 -0.80425453
0000e0 09 c2 87 bf 02 01 5d be e0 f8 cb 3f 5b f0 c1 be
       -1.060609 -0.21582416 1.5935326 -0.3787869
0000f0 52 58 69 3d 85 81 c9 3e 0e c9 e5 bd f3 2a 25 bf
       0.056968994 0.39356628 -0.11219989 -0.6451866
000100 34 9c e7 bf 78 f3 df bf 8c c9 eb 3f a4 7f f9 3c
       -1.8094544 -1.7496176 1.8420882 0.030456372
000110 bd f0 30 c0 1c da 2d be 0e 31 0d 3f 16 c6 bd be
       -2.7646935 -0.16977733 0.55152977 -0.3706519
000120 4a 17 d8 3e d9 ba a7 3f cb 78 fc be 5d f3 02 c0
       0.42205268 1.3103896 -0.49310908 -2.0461037
000130 78 1a 00 c0 73 8c ad bf 7d 3f 8b bf 03 84 5e bf
       -2.0016155 -1.3558487 -1.087875 -0.86920184
000140 28 a6 5d 3f 8e b7 58 3d e6 7b ef bf c7 96 a3 3f
       0.8658166 0.052909426 -1.8709686 1.2780389
000150 f7 98 c8 3f bc 47 24 c0 1a a3 b8 3f 1f 98 4c 40
       1.5671681 -2.5668783 1.4424775 3.1967847
000160 87 6c 50 3f 1e fd 89 bf 31 d7 27 bf 9b 5d 5e bf
       0.814156 -1.078037 -0.6556273 -0.8686158
000170 85 e2 5c 3f 2b 2e a4 bf 83 dd 98 bf 75 65 b4 bf
       0.8628314 -1.2826589 -1.19426 -1.4093462
000180 5d 8f 41 40 48 ae f0 bd 34 6a 7d bf ca 66 01 c0
       3.0243752 -0.117519915 -0.9899018 -2.0218987
000190 61 c7 61 bf 9a bb 48 bf d0 75 83 3f 85 58 73 3f
       -0.88194853 -0.7841126 1.0270329 0.95056945
0001a0 28 dd d3 3f c1 26 09 be 9e 0a e1 3e 73 e1 a1 3f
       1.6551867 -0.1339369 0.43953413 1.2646927
0001b0 5e 6e ab bd fa a4 ea be e3 3d 0f 40 80 49 b9 bf
       -0.0837066 -0.45828992 2.2381523 -1.4475555
0001c0 fd 54 77 3f 09 9c 1f bf 68 36 89 bf 68 3e b1 bf
       0.96614057 -0.62347466 -1.0719728 -1.384717
0001d0 eb 25 b7 3f 0a 69 28 bf 03 42 ac be a2 b7 56 bf
       1.4308447 -0.65785277 -0.33644113 -0.8387395
0001e0 88 53 9d be 1e 10 44 bf 02 25 a5 3f 2f d0 13 3f
       -0.30727792 -0.7658709 1.2901919 0.5773954
0001f0 58 eb 92 3f 06 f1 22 3f 54 db 1d bf f3 7a 39 bf
       1.1478071 0.6364902 -0.61662793 -0.7245323
000200 a6 cb 0f bf db 1d c1 3c 4d 40 df bf fd b6 3e 3f
       -0.5617012 0.023573807 -1.7441498 0.7449797
000210 57 8b 15 40 4d 9e e1 bd 55 8c 02 40 88 db 5f 40
       2.3366296 -0.110165216 2.0398152 3.4977741
000220 e6 1a ae 3f 34 55 ae 3d f0 b7 13 bf bf 8a aa 3f
       1.3601959 0.08512345 -0.5770254 1.3323592
000230 0c 36 84 3f d0 b8 31 3e 4b e2 66 bf ca 08 8e be
       1.0328994 0.17355657 -0.90189046 -0.2774108
000240 61 93 a1 3f 6d 1e d0 be 58 b4 99 be 7a 69 8a bd
       1.2623101 -0.40648213 -0.30020404 -0.06758399
000250 d3 f4 09 3e b0 f7 2a bf d7 f8 99 3e 9f 2b 06 40
       0.134723 -0.6678419 0.30072662 2.0964124
000260 64 d9 3a 3e 52 7d 35 bf f7 e9 71 be ff 1d 98 be
       0.1824699 -0.7089435 -0.23624407 -0.29710385
000270 65 67 cf bf 62 20 a9 bf 69 f2 9a 3b 9a 98 e4 3d
       -1.6203429 -1.3213007 0.0047286046 0.11161919
000280 86 20 79 3f 64 82 b3 3f 8e 56 6d 3f 56 13 58 3f
       0.9731525 1.4024167 0.92710197 0.84404504
000290 19 6a 6c 3f f0 74 04 3e 0f fb 06 c0 1a 71 f9 3e
       0.9234939 0.12935233 -2.1090734 0.48719102
0002a0 15 27 3c 3f a3 43 47 3f 60 eb ac 3d 61 50 c4 bf
       0.73497134 0.7783758 0.08443332 -1.533703
0002b0 53 79 90 bf 3c 09 52 3f b5 66 d3 bf da b2 e0 bf
       -1.1287025 0.8204534 -1.6515719 -1.7554581
0002c0 07 21 02 3f ad 64 07 bf ed 57 11 3f bb 99 d0 3e
       0.50831646 -0.52887994 0.5677479 0.40742287
0002d0 58 2b f3 be 33 84 e7 3e 88 2f 8d 3e 2b b8 f5 3e
       -0.47494006 0.45218047 0.27575326 0.47992072
0002e0 ee e9 4a 3e 4d c6 7c bf 38 36 1a 3f 6d 7e 1f 3f
       0.198158 -0.9874008 0.6023898 0.62302285
0002f0 7e cd 4c 3e df 2a 36 3d 0e 02 0b 3f 0c 3b 02 c0
       0.20000264 0.04447448 0.5430001 -2.034854
000300 0f 12 a2 3f af 70 15 40 ae eb 09 3f 69 df cf bf
       1.2661761 2.3350027 0.53875244 -1.6240054
000310 d4 2f 97 c0 3a fd dd be 5f 45 93 3c b6 94 58 be
       -4.7245884 -0.4335726 0.017977415 -0.21150479
000320 e6 9a 5c be c2 14 b6 bf 37 da bc bd 7a 66 f1 be
       -0.21543464 -1.4225085 -0.09221309 -0.47148496
000330 aa fb 05 3e 5b cb c2 be 5a 56 07 c0 23 d4 36 3f
       0.13084283 -0.38045773 -2.1146455 0.71417445
000340 18 90 80 3f 93 57 45 bf 89 28 a9 3b 62 67 a8 3e
       1.0043974 -0.7708675 0.005162303 0.32891375
000350 33 e9 c0 3e 38 3a 4e 3f f6 de f2 bf 69 d5 e4 3f
       0.37677917 0.80557585 -1.8974292 1.7877628
000360 09 b0 96 bf 68 52 33 3f 57 98 7d 3f 55 76 98 3f
       -1.1772472 0.70047617 0.9906058 1.1911112
000370 a9 91 0e 40 8e df c3 3f ca 06 d6 3f 83 9e f7 3e
       2.2276404 1.5302598 1.6720822 0.48363122
000380 1b d5 9a bf 43 ac 67 c0 58 a3 a1 be c9 5d 43 3f
       -1.2096285 -3.619889 -0.31569934 0.7631498
000390 85 02 b4 be 3c c9 9a be 02 92 10 40 fa fc 20 c0
       -0.35158172 -0.30231655 2.2589116 -2.5154405
0003a0 93 40 fd bb 7f f8 12 bf 23 38 0a 3f 38 db 1f 3f
       -0.007728645 -0.57410425 0.5399191 0.62443876
0003b0 1b 60 39 bf 45 8c e5 bf e4 72 e3 3f 52 51 cb bf
       -0.7241227 -1.7933432 1.7769437 -1.5884192
0003c0 ac c7 1b bf 4d 71 f9 be 7f 47 b4 3f f9 6f f4 3f
       -0.6085155 -0.48719254 1.4084319 1.9096671
0003d0 28 da 7e be 53 80 d4 bf 52 7b 69 bf a0 77 10 bf
       -0.24887908 -1.6601661 -0.91203797 -0.56432533
0003e0 d8 41 a9 3e 86 2f f2 bf 1b 6a 5b bf 29 5d d9 3e
       0.33058047 -1.8920753 -0.8570878 0.42453888
0003f0 e9 b5 00 3f 8a 0d ce 3e a4 51 f1 bf 72 78 af 3f
       0.5027757 0.40244704 -1.885304 1.3708632

critic.v_net.fcs.1.bias f4 [64]
000000 ea 5e 01 40 46 2d 01 40 9e d7 8f 3f 0d 46 16 c0
       2.021418 2.0183883 1.1237676 -2.3480256
000010 7e e6 02 c0 e3 d8 ba bf 98 af 03 c0 3e a9 f4 bf
       -2.0453181 -1.4597439 -2.0575924 -1.9114149
000020 27 b5 08 c0 35 cb 18 40 0f ad 21 40 d3 22 ff 3f
       -2.1360567 2.3874028 2.5261877 1.9932503
000030 86 91 ca bf f1 d3 c7 3f 7b 17 e5 bf 4f a3 1c 40
       -1.582566 1.5611554 -1.7897791 2.4474676
000040 db b3 b7 bf 40 f6 fb 3f 94 ef 2a c0 32 12 d8 3f
       -1.4351763 1.9684525 -2.6708727 1.6880553
000050 79 79 fa bf b2 2e 20 40 23 cc 2e 40 13 26 22 40
       -1.956832 2.50285 2.7312095 2.5335739
000060 a4 ba 0c 40 cb bb 10 40 83 27 47 40 ed 5e b3 3f
       2.1988916 2.261462 3.1117866 1.4013344
000070 43 22 9c 3f a3 7c 11 40 9e 2e 12 40 9d fd 14 40
       1.2197956 2.2732322 2.2840953 2.3279793
000080 a7 94 48 40 21 66 1b 40 80 ef b9 bf 37 65 2b c0
       3.134073 2.4281085 -1.4526215 -2.6780527
000090 13 53 da bf c9 18 10 40 37 23 d6 3f 94 9a 37 c0
       -1.7056602 2.2515128 1.6729497 -2.8688097
0000a0 8f 22 45 40 34 32 b0 bf ac ec af 3f 17 27 92 bf
       3.0802343 -1.3765321 1.3744102 -1.1418179
0000b0 7c 91 d7 3f e6 e1 c6 3f 68 2f ec 3f bb 21 cf 3f
       1.6841273 1.5537689 1.8451967 1.6182169
0000c0 b4 44 10 40 98 60 04 c0 29 9c 14 40 a3 48 d4 bf
       2.2541933 -2.0683956 2.3220313 -1.6584667
0000d0 01 1a 2f 40 63 c4 04 c0 bf 86 15 c0 2e c1 e5 3f
       2.7359622 -2.0744865 -2.3363492 1.7949579
0000e0 85 2a 05 40 1d 9b 16 40 3a 27 af bf 0a 3d 27 c0
       2.0807202 2.3532174 -1.3683846 -2.6131005
0000f0 55 80 6c bf 48 42 06 40 99 51 0b 40 3c 0a f1 bf
       -0.9238332 2.0977955 2.1768553 -1.8831248

critic.v_net.fcs.2.weight f4 [1, 64]
000000 29 23 9e c0 da 9d ac c0 65 d3 1c c0 e6 d0 85 40
       -4.941792 -5.394269 -2.4504025 4.1817503
000010 6d 34 5b 40 33 15 79 40 42 12 61 40 27 93 63 40
       3.4250748 3.891919 3.5167394 3.5558565
000020 f5 2a 25 40 bf 03 73 c0 3f ed 2e c0 66 34 df bf
       2.580747 -3.7971036 -2.7332304 -1.7437866
000030 85 16 8a 40 79 67 24 c0 4d f3 4d 40 57 93 e4 bf
       4.315249 -2.5688155 3.217975 -1.7857465
000040 d8 85 77 c1 01 90 70 41 98 a0 a1 40 b5 33 6e c0
       -15.470177 15.035157 5.0508537 -3.721906
000050 f1 c3 8c 40 15 32 78 c0 ee bc 42 c0 75 62 dd bf
       4.3989186 -3.8780568 -3.0427814 -1.7295672
000060 62 2e e3 bf 35 e8 71 c0 9c cd 8c c1 33 a2 d7 c0
       -1.774853 -3.7797978 -17.600395 -6.7385497
000070 3d 1d 6d c0 ef d3 7d c0 c4 a2 63 c0 f6 57 75 c0
       -3.7049096 -3.9660604 -3.5568094 -3.8334937
000080 b0 20 99 c0 39 c5 d6 bf 67 86 3d 41 3b f5 b9 40
       -4.78524 -1.6778938 11.845313 5.8111854
000090 92 87 8d 40 3d 1f 36 c0 e7 03 72 41 8a 8e 32 40
       4.422799 -2.8456566 15.125953 2.78995
0000a0 48 48 65 c0 ab f4 05 41 26 d2 ab c0 42 8e 5f c1
       -3.5825367 8.372233 -5.369403 -13.972231
0000b0 d4 70 8a c0 26 7c 80 41 9c cd 27 c0 5f 21 35 c1
       -4.326273 16.06062 -2.6219244 -11.320647
0000c0 63 9e 6c c0 c5 22 3c 40 fa 50 82 c0 38 32 1e 40
       -3.6971672 2.9396222 -4.072385 2.471815
0000d0 91 9e 60 c0 90 68 46 40 4f 32 2a 40 00 45 07 c2
       -3.5096781 3.100132 2.6593206 -33.817383
0000e0 77 c3 46 c0 1d 50 91 c0 31 e2 70 c1 01 b7 e3 3f
       -3.1056802 -4.5410295 -15.0552225 1.7790223
0000f0 04 86 09 41 58 fc 81 c0 62 95 30 c0 02 ef 82 40
       8.595219 -4.0620537 -2.7591176 4.0916758

exp_avg f4 [4]
000000 b6 14 4d bd c6 6a 4a bd fd df d7 bc 33 55 87 bc
       -0.05006858 -0.049418233 -0.026351923 -0.016520118

exp_avg_sq f4 [4]
000000 4d 4d 7d 3c 31 fc 6b 3c 40 51 8a 3c f3 c2 89 3c
       0.0154603245 0.014403389 0.016884446 0.016816592
